cnn_mnist_weights.pth (torch, 142669 bytes, 6 tensors)

conv_stack.0.weight f4 [32, 1, 3, 3]
00000000: ea03 2a3d b356 54be 723e 39be b15e 19be
00000010: 417c 1bbe a219 2cbe 2453 ecbd 24fa 7d3d
00000020: 0b21 99be a5d0 3dbe 4075 aa3c bfae 713d
00000030: 7fb6 703e e4f7 3bbe 0b8b 153e d67e 7f3e
00000040: 7862 713e 348c 96be 5502 27be 1689 a1be
00000050: 43f1 7fbe 3045 0e3e 22f0 c4bd da70 b93d
00000060: cf49 6bbe 0209 673c 6df8 6cbe adc6 153e
00000070: afc3 25be 3ac4 6ebd ede9 a4be 576d 2ebc
00000080: a713 b53e 536f 0a3e 0d40 2cbe 08ce 533d
00000090: de8c 31bd 918a 7dbe ef3c a43e 3988 e83c
000000a0: 42f1 f83d f47b 91bd 1a8c fdbd 093f dc3d
000000b0: aeee 393e ad66 60b9 629c 74be ea67 8a3e
000000c0: 149d bdbd 5b18 96be fee6 76be 4f09 d33e
000000d0: 1fed 0f3d 48dd b0bd f1d2 4fbe 05f2 2ebe
000000e0: b98b bfbe d5f5 8bbe 43a1 673e 7077 a93e
000000f0: 863d cc3e 36f7 33be 4010 703e 0908 4dbe
00000100: 8d02 813e 7e2d 963e bba8 9b3e dba3 973e
00000110: fbcb 863e 5222 4e3c 941e 273e b86e 0abe
00000120: 4667 f53d 6782 09be 76a2 d9bc bbf4 a8be
00000130: 6c79 ebbd 4eba 4ebe 3c7b 18be ab96 76be
00000140: adc4 a9be 96c8 9b3d 8075 8f3e 140c b33e
00000150: 328f 7d3e 792f 0abe 1359 cfbe 28e4 1d3e
00000160: 90e4 2d3e 5194 b0be a9bf 433e 8ccd ad3e
00000170: ad5b 733d 65e1 3dbe da54 a43e 1610 513e
00000180: dc4c 233e 8bf3 84be 7038 773e 5138 46be
00000190: 8174 c43e f3fc 00be 70e7 803e e2f9 f93d
000001a0: d0d6 f23d eb9a cabc f887 2b3e 07f3 2bbe
000001b0: 3207 bfbe e2cc 45be 6e9c 7c3e c087 fdbd
000001c0: ac6b 0e3e ecc7 b7bd be86 9f3e 4539 823e
000001d0: c65e 223e 023a 65be ad12 afbe 2d8a 83bd
000001e0: 0e89 46be fe8f 733e 8c98 c6be b6e3 6a3e
000001f0: 4fbd cd3e 7538 6a3e 2470 bb3d 5558 a9be
00000200: 3efd c73e 2288 b4bd bbad a9be 9541 c63e
00000210: 9744 34be 33d9 1fbd b66e b53e 1468 80be
00000220: 5bd1 88be 9886 0c3c fc16 8fbd 0168 273d
00000230: 1ed7 a2be e392 39bc 4d53 33be 03d6 46be
00000240: ff38 c3be d624 4f3e 33d2 0a3e be9a bbbe
00000250: bee4 9d3e 8e12 293e 79bc 0c3c 8ee1 0dbe
00000260: 2dfa ff3d 52e1 c53e 94ca 8c3e 6d59 9cbe
00000270: b61e b53e 5414 933d 7b75 2d3e b1c4 993e
00000280: 77d4 b13e 0f51 81be eba6 8b3e fb84 82be
00000290: 9012 b5ba d26b 86be f611 d2bd 3ca0 41bd
000002a0: aaa4 94bd 3f3c afbd a92e 3abc 112e c03e
000002b0: db63 783e 3644 6d3e 7911 353e 0ecb 9c3e
000002c0: fa6b 9a3c d0e3 6e3c 2e32 063d 4a33 b1be
000002d0: 03e1 88be e311 183d 4c06 01be ecd7 e13c
000002e0: 00ff 2abd aa44 c43d b162 8b3e b547 63bd
000002f0: f766 a83e 42a5 683e f244 96be 8eda 9bbe
00000300: a4ea 9fbe 46b0 64be 0735 34be 1e68 9dbd
00000310: 6301 04be 3326 5cbe 15cb 2dbe 13c7 2fbe
00000320: 0149 c43e 11f7 49be a25c 81be 53d5 593e
00000330: eb39 79bd cb44 983e 92c5 8c3e b6a0 b33e
00000340: 342c 80be 6c7d 523e b7e9 a73e b1d3 e6bd
00000350: b795 bb3e 7721 953e e93e 7b3d 8c66 6d3e
00000360: f030 2bbe d99d b0be 5583 b33d 4fc3 2d3d
00000370: c77a 8ebe 2980 543e 8708 a7be 9eaa aa3e
00000380: 8513 c53e eca6 ca3d b64f 52be f0f2 3b3e
00000390: 4849 cd3d 2808 0a3e 2f5d 133e 0f86 923e
000003a0: 3106 1dbe 53fd 02be 4fc9 493d 63a2 a23d
000003b0: 83de a43e c454 7fbe 43c3 ee3c 70bd ed3d
000003c0: 9118 18be 8605 883e d076 c43d 73ff b8be
000003d0: 52b9 b7bd b1df 52be 38be d3bc 2fde b9bd
000003e0: 01d8 bdbe a4e9 f7bd 3ed0 adbd aa3a 08be
000003f0: 788a b43e 81ad ab3a 902d 9b3e 10eb d63c
0.04150764 -0.20736198 -0.18090227 -0.14977528 -0.15184118 -0.16806653 -0.11539295 0.06200613
-0.29908022 -0.18536623 0.020807862 0.05900454 0.23507117 -0.18356282 0.14603822 0.24950728
0.23572719 -0.29403841 -0.16309483 -0.315499 -0.24994378 0.1389358 -0.09616114 0.09054728
-0.22977374 0.014101269 -0.23141642 0.1462657 -0.16187929 -0.058292605 -0.3220972 -0.010646186
0.35366556 0.1351903 -0.16821308 0.05171016 -0.043347232 -0.2475989 0.3207774 0.028385269
0.12155391 -0.0710372 -0.12380238 0.107542105 0.18157455 -0.00021400554 -0.2388778 0.27032405
-0.09258476 -0.29315457 -0.24111554 0.4121804 0.035138246 -0.08635956 -0.20295312 -0.1708451
-0.37411287 -0.27335992 0.2262011 0.33098936 0.3989069 -0.17574772 0.23443699 -0.20022596
0.2519726 0.29331583 0.3040217 0.296172 0.263275 0.012581425 0.16320258 -0.13518798
0.119825885 -0.13428651 -0.026566725 -0.32999215 -0.11497769 -0.20188257 -0.1489076 -0.24080913
-0.33157864 0.07606618 0.28019333 0.34970152 0.24761656 -0.13494672 -0.40497646 0.15419066
0.16981721 -0.34488156 0.19116081 0.33945882 0.0594136 -0.18543012 0.32095987 0.20416293
0.15947288 -0.2596706 0.24142623 -0.1935742 0.38370135 -0.12596492 0.25176573 0.122058645
0.118573785 -0.024732074 0.16751087 -0.16791926 -0.37310177 -0.19316438 0.24669048 -0.12379408
0.13908261 -0.08973679 0.31157488 0.25434318 0.15856466 -0.2238541 -0.34193936 -0.06422839
-0.1938822 0.23785397 -0.3878826 0.22938427 0.40183493 0.22873099 0.091522485 -0.33075204
0.39060396 -0.08815028 -0.33140358 0.3872191 -0.1760429 -0.039025497 0.35436028 -0.25079405
-0.26722226 0.0085770115 -0.06986806 0.04087067 -0.31804746 -0.011326524 -0.17512245 -0.19417576
-0.38129422 0.20228896 0.13556747 -0.36641496 0.3083858 0.16510984 0.008589857 -0.13855574
0.12498889 0.38648468 0.27498305 -0.30536976 0.35374993 0.07181612 0.16939346 0.30032876
0.3473241 -0.25257155 0.27275786 -0.2549208 -0.0013814736 -0.26254135 -0.10257332 -0.047271952
-0.0725797 -0.08556413 -0.011363664 0.37535146 0.24256842 0.23170552 0.17682447 0.30623668
0.018850315 0.014580682 0.0327627 -0.34609443 -0.2673417 0.037126433 -0.12600058 0.02756878
-0.041747093 0.09583409 0.27223733 -0.055488307 0.32891056 0.22719291 -0.29349476 -0.30440181
-0.31233704 -0.22332868 -0.17598353 -0.076858744 -0.12891154 -0.21498947 -0.16972001 -0.17165785
0.38336948 -0.19723155 -0.25265986 0.21272783 -0.06084625 0.29739985 0.27494484 0.3508355
-0.25033724 0.20555657 0.32795498 -0.11270846 0.3663766 0.29127094 0.061339293 0.2318365
-0.16717887 -0.34495428 0.08765284 0.04242259 -0.27828047 0.20752014 -0.32623693 0.33333296
0.38491455 0.09895119 -0.2053822 0.18354392 0.10023743 0.13479674 0.14391015 0.28617904
-0.15334393 -0.12791948 0.04926425 0.07941129 0.32201013 -0.2493468 0.029145842 0.11608398
-0.14853121 0.26566714 0.09592974 -0.36132392 -0.08970894 -0.20593144 -0.02584754 -0.09075581
-0.3707886 -0.1210511 -0.08486985 -0.13303629 0.35261893 0.0013097973 0.303082 0.026235133

conv_stack.0.bias f4 [32]
00000000: 4762 4f3e 0f2d 8f3e 33b6 b7bd 2862 583e
00000010: 849e 7f3e 1443 62be b0d6 4abe 4664 013e
00000020: bf42 443e 368f d6bd b596 bc3d af4f 733d
00000030: b975 123e 33ec fbbd 81b4 533e afbd 643e
00000040: 535b 2cbe 4b2d 613d acd7 353c 34d5 203e
00000050: 27bb 9d3e 7102 fa3d 6200 a9bc 2afb b33e
00000060: 340e aebd ad81 58bd db07 8b3d dd2d 5ebe
00000070: d3c2 c03d 618f 2cbe c66f c03d 3a0d b73d
0.20252334 0.27964064 -0.089702986 0.21131194 0.24962813 -0.22095901 -0.1980846 0.12635908
0.19166087 -0.10476534 0.092084326 0.059402164 0.1430272 -0.12300911 0.20674326 0.22337984
-0.16831712 0.054974835 0.011098783 0.1570633 0.30806848 0.12207497 -0.020630065 0.3515256
-0.08498803 -0.052858043 0.06788608 -0.21697183 0.0941216 -0.1685157 0.09396319 0.0893807

conv_stack.3.weight f4 [64, 32, 3, 3]
00000000: 2621 c73c f86f cbbc d907 9bbd efd7 273d
00000010: 976e 513d 0010 66bd dba1 2b3c 8c27 89bd
00000020: 0671 563b cfdc d13c 2184 113c 51cc 0dbd
00000030: 07d5 1e3c 073d 0f3d 9189 e13c c470 6d3d
00000040: 76e6 833b 6188 82bb 00cd ecbb ab00 1e3d
00000050: d5df 2e3c 6b6e 983c f6d3 b8bc 430a 0cbd
00000060: 5257 8f3c 5f6d 95bd c241 80bc 1e71 aebc
00000070: ece1 92bc f650 fd3c 8102 8b3b 273f 783d
00000080: e363 a4bc e22b a3bc d101 323d 436b ee3b
00000090: 2c77 42bd 7c97 f7bc fcb1 343d 9b85 73bd
000000a0: 067c 183d c615 0f3d c27a 0dbd 72da 9ebc
000000b0: 0e28 65bd 1c46 68bc 109a 40bc da76 70bd
000000c0: d7ad 563d 00f2 42bd d6f3 56bd 0e1b 1d3a
000000d0: 622e c63c 5c78 2d3d 852d 42bd 7960 4b3d
000000e0: 0100 053d cca9 373d 69e5 ecbc aa3d 8b3d
000000f0: c195 9abc b5c3 9e3d 162f 8b3c 57b3 d9bd
00000100: ef74 09bd 7925 a43c bdee bdbd 8fe8 c0bb
00000110: 3c2f c43c c456 723d cbc8 0b3c 9bca 203d
00000120: 56fb 8e3c e7d9 bd3c e1be abbb 306f cdbc
00000130: f0a7 64bd 2a5e c4bc 2cbe 91bd a677 47bd
00000140: 8641 43bb 6398 b9bd 4379 b2bd f4e6 df3b
00000150: aa8a 5fbd faca 59bd 567d 3a3d 726e 30bd
00000160: db00 4b3d 7cfb e53c 4bd8 b4bd ccf7 a6bd
00000170: 0e25 793a 4780 a9bd c534 a0bc 7504 9dbc
00000180: 1c3f e13c 33f1 c13c 40b4 433d 530e 5fbd
00000190: d04a cdbd 2e04 4d3d bd51 a0bd 7bce 2cbc
000001a0: 0f8c 823b f677 23bc 3439 b43b 702e 943d
000001b0: 1ba2 b2bc 1374 363b a637 ba3d 15b6 81bd
000001c0: ff4d 143d 2437 8c3d e958 873d d40e 76bc
000001d0: 15a6 c43c a11a a4bd 28e6 ebbc c89d dfbb
000001e0: 74bf 17bd 9a17 fabc c4bf aebc 5046 743d
000001f0: 9b40 6b3d 766e 19bd c2b5 a0bd c17e 9f3c
00000200: 585b 58bc d4b2 1c3d 8f5c b33d 1ff9 1d3c
00000210: 17d1 90bc 4134 233d b534 f43b 9114 7e3d
00000220: f17f e4bb 4fd6 87bd f373 1f3d c6bf be3a
00000230: ae26 d5bc f742 11bd fb6f 49bd 7679 153d
00000240: 33fc a4bd aeeb b43b 56b1 cc3d 5278 43bd
00000250: c24a f83c d994 c83c 7cb2 653d af8d 8cbc
00000260: 3017 b63c 6cc5 53bd 975d dabc 447f 3dbc
00000270: e69f 8dbd 17e1 00bd 5f3d 4c3d f30d 32bd
00000280: e293 9cbc 10e2 123c 420c 62bc 02bf 1f3d
00000290: 0907 083d b1b2 ea3b 2837 933d 5bee 3abd
000002a0: 8dc7 09bd da4f 7dbd f368 cabc 1e0d b7bd
000002b0: 8047 eabd 9cf0 39bd e8c4 05bd 7bef 333b
000002c0: ce47 9c3d 1428 363d 7fda a83c fa06 df3c
000002d0: 3d32 64bd 5816 1f3d caf3 4abd 33df 2a3d
000002e0: 938b 053d b731 cb3c bee8 333d 3990 e4bb
000002f0: 542b 3d3d 6575 383d e7ae 863d b7eb 3bbc
00000300: 7ccc 503d d05d 3b3d e05c b93c 2b4c 153d
00000310: 12db 0fbd 25ae 2f3d 5af1 14bd 5f87 5c3d
00000320: 579c cf3d 5663 3d3c de14 4c3c 3e88 a63c
00000330: 7f86 3c3d de9a 273d e712 d4bc 958f b9bb
00000340: 8ad4 85bc ef43 42bd c414 6cbd fe6b 0dbb
00000350: 685f 37bd ead1 943c 702b a8bb 91bc c3bc
00000360: 046c 85bd f982 303c 5168 c33d 7d9a 273d
00000370: ff9f c23d ce4c ff3c 62d3 3e3d 57fb 543d
00000380: 5040 0b3c f9cc c3bd ad01 bebd 4a03 013a
00000390: f0b3 51bd a85a 3b3c f92f 253d c802 433d
000003a0: 78bb 0e3d fa33 17bc c121 e0bd 10e7 9abd
000003b0: 4f6c 0b39 66f5 9fbc 0759 463d a21c 823d
000003c0: 7c8e 99b9 cf41 913c 1b3c 11bd 0fd6 af3c
000003d0: d2bb 523d 3780 a0bc 7a32 973c 412f 283c
000003e0: de1a 2b3c a4fd e2bc 2813 73bd 3746 72bb
000003f0: abef 5fbd be84 c3bd 341e 28bc d0e0 33bd
0.024307799 -0.024833664 -0.07569856 0.040977415 0.051130857 -0.056167603 0.010475601 -0.06696996
0.0032721176 0.025617985 0.0088816 -0.03461868 0.009694344 0.03497031 0.027531417 0.05796887
0.004025276 -0.003983543 -0.0072265863 0.038574856 0.010673483 0.018607339 -0.022562008 -0.034189474
0.017497692 -0.072962515 -0.015656356 -0.021294173 -0.017929994 0.030922394 0.004242242 0.0606071
-0.020067161 -0.019918386 0.043458764 0.00727597 -0.047476932 -0.0302236 0.04411505 -0.059453588
0.037227653 0.034932874 -0.0345409 -0.019391272 -0.055946402 -0.014176872 -0.011755481 -0.058707096
0.05241188 -0.04759407 -0.052478634 0.0005993106 0.024192039 0.04235111 -0.047406692 0.04965255
0.032470707 0.044839665 -0.028917985 0.06798871 -0.018870236 0.07752172 0.016990226 -0.106299095
-0.033558782 0.0200374 -0.09274051 -0.005887098 0.023948304 0.059164777 0.0085317595 0.03925572
0.01745383 0.023175193 -0.0052412604 -0.025077432 -0.05582422 -0.023970682 -0.071163505 -0.04869809
-0.0029793694 -0.090622686 -0.08714535 0.0068329517 -0.0545756 -0.05317209 0.045529686 -0.04307408
0.049561363 0.028074019 -0.08830317 -0.08152732 0.0009504118 -0.0827642 -0.019556412 -0.019167164
0.027495913 0.023674583 0.04777932 -0.05445702 -0.10024035 0.050052814 -0.0782809 -0.010547276
0.0039839814 -0.009977331 0.005499983 0.0723542 -0.021805814 0.0027840182 0.09092645 -0.063335575
0.036207195 0.06846455 0.06608755 -0.015018184 0.024004975 -0.080128916 -0.02879627 -0.006824229
-0.03704782 -0.030528832 -0.021331675 0.059637368 0.05743466 -0.03745886 -0.078471676 0.01946962
-0.013205372 0.03825648 0.087578885 0.009641915 -0.017677827 0.039844755 0.007452572 0.062031332
-0.0069732596 -0.06632673 0.038928937 0.0014553003 -0.02601942 -0.035464253 -0.04917906 0.036492787
-0.08055916 0.0055212593 0.09994762 -0.04772217 0.030309085 0.024485039 0.05607842 -0.017157404
0.022227854 -0.051701948 -0.026655955 -0.011565987 -0.06915264 -0.031464662 0.049863216 -0.043470334
-0.019113485 0.00896503 -0.013796868 0.03900052 0.033209834 0.007162415 0.071882546 -0.04563747
-0.033637572 -0.06184373 -0.024708247 -0.08938049 -0.11439419 -0.04539548 -0.032658488 0.0027455974
0.07630883 0.044471815 0.020612 0.027225006 -0.055711973 0.038839668 -0.0495489 0.041716766
0.03260381 0.02480398 0.043923132 -0.0069752005 0.0461839 0.04503383 0.06576329 -0.011469773
0.05097626 0.045743763 0.022627294 0.036449593 -0.03512103 0.042890687 -0.036362983 0.053840037
0.10137241 0.011559328 0.012456147 0.020328637 0.046026703 0.040919177 -0.02588792 -0.0056628683
-0.016336698 -0.047428068 -0.05763699 -0.002157926 -0.04476872 0.018166501 -0.0051321313 -0.023893626
-0.06514743 0.010773414 0.09541381 0.040918816 0.09503173 0.031164553 0.04658831 0.05199751
0.00849922 -0.0956058 -0.092776634 0.00049214496 -0.051196992 0.011435188 0.040328953 0.047610074
0.034846753 -0.009228701 -0.10943938 -0.07563603 0.00013296421 -0.019526195 0.048424747 0.063531175
-0.00029288593 0.017731575 -0.03545771 0.021464376 0.05144865 -0.019592388 0.018456686 0.010265172
0.010443417 -0.027708836 -0.05934444 -0.003696812 -0.054671925 -0.09546803 -0.010261107 -0.04391557

conv_stack.3.bias f4 [64]
00000000: 13ff b7bc 2f2c 7f3a 33fa 37bd 7cd2 50bd
00000010: aa96 47bd 9275 abbc 654d 3a3a 0193 413d
00000020: f515 26bd b23e 253c 81ea 1b3d d320 ac3c
00000030: 742a 6a3c 89db 52bd bd8e 0b3d dc92 63bc
00000040: 230d 993c 7138 04bd ae4e d2bb 6fb5 163d
00000050: 079a 1bbd 16f6 3bbd f6ee 94bb 6feb 083d
00000060: 0d2e 3fbd 0e23 293c b4e7 91bc b44c dd3b
00000070: 27db 313c 90fd 273d eb3d ccbc 229c 2ebd
00000080: ce1f d0ba feca fd3c 4a33 a4bc 7785 c43c
00000090: 5217 2fbd 08ff fe3c f0c3 023d 0058 4fbd
000000a0: 6739 7cbc e9cd fa3c 8053 0a3d 63b6 743c
000000b0: 39fc 4fbd d3bf 533d 8e64 18bd f29f c4bb
000000c0: 5630 d6bc 4d39 33bd 4e0a e2bc 47b7 423d
000000d0: 480c 42bd 9e29 3f3d 7e4a 4c3d c9e0 b1bc
000000e0: ae09 923c f77f b3bc d4c5 54bd e785 32bd
000000f0: eb4b d1ba fbf8 07bd 4ff8 8ebb 9f4f 293d
-0.022460496 0.0009734062 -0.044916343 -0.050981984 -0.04872767 -0.020930085 0.00071068696 0.047259334
-0.040548284 0.0100857485 0.038065437 0.021011746 0.014292348 -0.051478896 0.034071673 -0.0138899945
0.018683022 -0.03228039 -0.0064180708 0.036794122 -0.03798869 -0.045888983 -0.004545088 0.033427652
-0.046674777 0.010323299 -0.01781068 0.0067535285 0.010855473 0.0410133 -0.024931869 -0.04262937
-0.0015878619 0.030980583 -0.020043988 0.023989422 -0.04274685 0.031127468 0.03192514 -0.050621033
-0.015394545 0.030615764 0.033771038 0.0149360625 -0.050777648 0.05169661 -0.03720527 -0.0060005123
-0.026146095 -0.04375582 -0.027592804 0.04753807 -0.047374994 0.04667055 0.04987573 -0.021713631
0.017826881 -0.021911604 -0.051946476 -0.04358473 -0.001596806 -0.03319643 -0.004363097 0.0413357

fc_stack.1.weight f4 [10, 1600]
00000000: 4a02 ce3b d63d 45bc 80aa 2e3c fbe8 423b
00000010: a340 9d3c 3726 c13c 10dd 76bc 639a bbbc
00000020: 2eec ffbc 48c6 f3bc b78c 84bb f84d b8bb
00000030: d572 c7bc 86f8 c8bc 4015 083d 03cb 583c
00000040: 38f6 143d 224f 1dbc 2b2e f93b 0bfd 833c
00000050: a1cb 363d 80ca 29bd e633 6fbc c579 c33c
00000060: f721 863c 8b6a f9bb 8ce5 80bc 0872 87bc
00000070: b4b6 42bb 31d3 2fbc e92d 753c 96bf 31bb
00000080: 4673 d63a 1943 e23c f870 493c da4b 2d3d
00000090: 255e c23c 7ff7 8d3c a11f e3bc 35b2 053d
000000a0: 15ef 973c 042f c63c 514b c5bc 07b6 c43b
000000b0: e372 f23b 4b7e 02ba 3bce cd3c 1882 8a3c
000000c0: 752f c63c 4117 343c 0153 133a f448 c33c
000000d0: a506 7f3c 2478 c6bb 654e 833b fc1a 0b3c
000000e0: 8dfd f2bc 1e57 b93c cd1d e03c f1b4 a43c
000000f0: 42e0 953a 077a f2bb ca07 5e3c 72d8 a8bc
00000100: 3b2d 15bc 8267 c5bb ef99 c63b ea0e 3cbd
00000110: d243 5abd 36ab 98bc a28b 32bb 5ce8 103d
00000120: 56dc a93b cc5d a43b 51d2 01bc b57e 89bc
00000130: e7eb 4cbb f1b1 313d 1435 3bbc 5e6a 8a3b
00000140: 4f91 353b a992 b23b cc90 d33c 0f1a 07bc
00000150: 69fc 9b3c 532e e1bb 74ca c8bb bd43 013c
00000160: 316e babc a706 123b 4ff5 cf3b e015 183c
00000170: 242b 5039 8149 0a3d 4792 d3bc 8331 8b3c
00000180: 7735 2cbc 31b3 f23b 60eb 6a3c bdde f33c
00000190: fc55 f1bc cba9 353b e9f0 8a3b 726c 173c
000001a0: b3b0 70bc 0f85 073d 1e2f 983b de10 a33c
000001b0: 70e5 4cbc 8f08 c23c 2e35 cf3c e11e 9a3c
000001c0: a432 23bc 9beb 49bd 441f afb8 77e1 6fbc
000001d0: fa24 c7bc 44b3 61bc 997e ca3a 77f9 673c
000001e0: 39f6 5f3b 2422 e1bc 74cc 643c 3b94 173d
000001f0: ccb3 a43c cb2e 283c 8052 c2bc 3e54 5fbb
00000200: c3b8 a1bc aa4b 13bd fb39 423c fb6a f3bb
00000210: b857 43bc 5aa5 c9bc 4747 7aba dd1c 8739
00000220: f3d8 553c 9074 87bc 3b64 653c 46e9 543c
00000230: 3555 053d 867a 8d3c e5d8 64bd 92a6 7ab9
00000240: b38b a93c 81a9 383d ed46 01bb e564 ed3b
00000250: 54e8 52bc 71d2 e83c e603 7a3b 5370 493c
00000260: b36e 0dbd dc42 72bc 86bb 893c 0ec1 a8bc
00000270: 0014 b83c 39b5 4f3c 804e c53a b18b 8b3c
00000280: 6317 82bc 32c5 103c c9f9 243c 3f18 5fbd
00000290: b302 d0bb 2612 c4bc 52f1 823c 4226 be3c
000002a0: 4e53 b839 8fea 60bb 441f 16bc 232c d6bc
000002b0: 7062 b53c 73e6 963c f7e7 21bd 7c1f eabc
000002c0: f736 e6bc 05a2 47bc 8f17 96bd 0b6e 37bd
000002d0: a75f 973a 5a4e ccbc 0c71 efbc 86f9 cbbb
000002e0: b3a2 55bd 187b 49bc 6659 11bd 40dc 5fba
000002f0: af9f 37bc fdb3 07bd 5ca1 3c3d 49c6 9bbc
00000300: 3393 8bbd 9d40 a13b bc20 db3c 4aaf 033d
00000310: 0e74 70bc bd3a 18bd 4dca d53c ec08 f5bb
00000320: fc97 d9bc e957 ecbb eec4 80bc 8b73 95bc
00000330: 4e67 2bbd 3c84 f6bb 8f61 073c 8abe eabc
00000340: 2c8f 8bbb 1ec8 f73c f309 a33c 47f2 e4ba
00000350: 90db df3b c471 883c 3748 8ebc 5178 1c3c
00000360: 5c9b 863b 1673 41bc 4d77 2ebd 07f8 753c
00000370: 1c3e e43c 0a06 d63c c55e a73c 043b 93bc
00000380: a89d 9f3c 7c6e 87bc fb4d 98bc fca8 d0bc
00000390: f375 c3bc cffe a2bc da56 d03b fad2 f33b
000003a0: 5d03 dc3c 8411 b43b 3079 bfbb 9ea5 a1bb
000003b0: 400f f1bb f55d 1f3c 3c68 dcbc c118 41bc
000003c0: ac4b adbb 7ec6 84bb 13ed 6bbd a779 e8bc
000003d0: 5018 fd3c 4062 0d3d 8914 463c 100c e6bc
000003e0: f97f a63b 3602 e53c a0e0 a53b aa23 40bc
000003f0: fa5e 37bc d665 d13b 9605 6a3c 6742 d23b
0.006286894 -0.012038669 0.010660768 0.0029740918 0.01919586 0.023577793 -0.015067354 -0.022900766
-0.031240549 -0.029757634 -0.004045095 -0.005624529 -0.024346748 -0.024532568 0.03322339 0.0132319955
0.036367625 -0.009601386 0.0076043806 0.016111871 0.04462779 -0.041452885 -0.014599776 0.023861775
0.016373618 -0.007611578 -0.015734456 -0.016533867 -0.002971095 -0.010731504 0.014964559 -0.002712225
0.0016361258 0.027619885 0.012295 0.042308666 0.023726532 0.01732993 -0.027725043 0.032640655
0.01854662 0.02419234 -0.024083765 0.0060031447 0.0073989495 -0.00049779256 0.025122752 0.016907737
0.024192551 0.010991872 0.00056199735 0.023838498 0.015565549 -0.0060568023 0.004007148 0.00849032
-0.029661918 0.022624549 0.02735796 0.02010581 0.0011434632 -0.0073998007 0.013551662 -0.020611022
-0.009105022 -0.006024302 0.006060831 -0.04591266 -0.053287335 -0.018636327 -0.0027243872 0.035377845
0.005183737 0.0050160643 -0.0079236785 -0.016784051 -0.0031268538 0.04338259 -0.011426229 0.0042241057
0.002770502 0.005449612 0.02582588 -0.008245959 0.019041257 -0.0068719774 -0.00612765 0.007889685
-0.022757621 0.0022281797 0.0063463817 0.009282559 0.00019852497 0.033761505 -0.025826586 0.016991382
-0.010510794 0.007406615 0.014338344 0.029769296 -0.029459946 0.0027719613 0.0042401445 0.009242164
-0.014690566 0.03308588 0.0046442887 0.019905504 -0.012505874 0.023685722 0.025293913 0.018813552
-0.009960804 -0.049296957 -8.350474e-05 -0.014641157 -0.024309624 -0.01377565 0.0015449106 0.014158598
0.003417386 -0.0274821 0.013964761 0.037006598 0.020105265 0.010265063 -0.02372098 -0.0034077312
-0.019741422 -0.03596083 0.011854644 -0.0074285246 -0.011922769 -0.024614979 -0.00095473643 0.0002577071
0.013052213 -0.016535074 0.014000948 0.01299507 0.032551963 0.017270338 -0.05587091 -0.0002390391
0.020696497 0.045083527 -0.0019726113 0.0072446936 -0.012872774 0.028420659 0.0038149296 0.012294847
-0.0345294 -0.014786448 0.016813051 -0.020599868 0.022470474 0.012677484 0.0015053302 0.017034383
-0.015880292 0.0088360775 0.010069319 -0.054466482 -0.006347978 -0.023934435 0.015984211 0.023211602
0.00035157282 -0.0034319495 -0.009162728 -0.026144093 0.022141665 0.018420434 -0.03952786 -0.028579466
-0.028102381 -0.012184625 -0.07328712 -0.04478268 0.0011548892 -0.024939705 -0.02922871 -0.006224814
-0.052157115 -0.012297414 -0.035485648 -0.0008539595 -0.011207505 -0.033130635 0.04605232 -0.019015448
-0.068151854 0.0049210326 0.026749007 0.03214959 -0.014676107 -0.037165392 0.026097441 -0.00747787
-0.02656173 -0.007212628 -0.015718903 -0.018243572 -0.041846566 -0.007523088 0.008263006 -0.02865531
-0.004259011 0.03024679 0.019902205 -0.0017467224 0.006831594 0.01665581 -0.01736842 0.00955017
0.0041078757 -0.011807224 -0.042594243 0.015012748 0.027861647 0.026125927 0.020430932 -0.017972477
0.019484356 -0.016532175 -0.018591871 -0.025471203 -0.023859954 -0.019896893 0.0063580098 0.007440922
0.026857072 0.005495252 -0.005843304 -0.004933073 -0.0073565543 0.009726991 -0.026905172 -0.011785687
-0.005288562 -0.0040519824 -0.05759914 -0.02837832 0.030895382 0.034517527 0.012089857 -0.028081924
0.0050811735 0.027955156 0.005062178 -0.011727253 -0.011192078 0.0063903136 0.014283558 0.006416607

fc_stack.1.bias f4 [10]
00000000: ca9a 0ebc 00bc b5bb 508b 3bbc 6737 e33b
00000010: 9390 243c 9c0f 8dbc 5e3b a13c 5a0d 8d3c
00000020: c452 aebc 109a 5bbc
-0.008703897 -0.005546093 -0.011446789 0.0069340947 0.010044235 -0.017219357 0.019681629 0.01721828
-0.0212797 -0.013403431
