hybrid_cnn_mnist_weights:1.0.pth (torch, 104636 bytes, 8 tensors)

conv_stack.0.weight f4 [32, 1, 3, 3]
0	0xbe2a2824	-0.16616875
1	0xbea66797	-0.32500908
2	0xbde2305e	-0.110443816
3	0xbe116938	-0.14200294
4	0xbd57ec2a	-0.052715458
5	0x3e833481	0.25625995
6	0x3dd497c4	0.103805095
7	0x3e3065ae	0.17226288
8	0x3e251e73	0.16124897
9	0x3e9758c3	0.29559907
10	0x3e93f72a	0.2889951
11	0x3cfa4df6	0.030554753
12	0x3e9f215c	0.3108014
13	0xbe9f0585	-0.310589
14	0x3e0ebcee	0.13939258
15	0x3e8185cf	0.252974
16	0xbead2c1b	-0.33822712
17	0xbea3045a	-0.31839257
18	0xbd86a310	-0.065740705
19	0x3e39e40e	0.18153402
20	0x3e9b88cb	0.30377802
21	0xbea1e77c	-0.3162192
22	0x3eac2a00	0.33625793
23	0xbb7e943e	-0.0038845683
24	0xbdb61859	-0.08891363
25	0xbd9051a0	-0.07046819
26	0x3e720111	0.2363322
27	0x3e1d5749	0.15365328
28	0x3cfe5298	0.031045243
29	0xbe8dc1e8	-0.27687
30	0xbd05191f	-0.03249466
31	0xbe8ae614	-0.2712866
32	0xbea92a79	-0.33040217
33	0x3dda9500	0.10672951
34	0xbdb1acbc	-0.086755246
35	0xbea3e751	-0.32012418
36	0xbe9e65ce	-0.30937046
37	0x3ea23f76	0.31689042
38	0x3eac68e0	0.33673763
39	0xbe90082c	-0.28131235
40	0xbe578bbe	-0.21049401
41	0x3e62c678	0.22146022
42	0xbdefa86b	-0.11702045
43	0xbd8aff92	-0.067870274
44	0xbdacd580	-0.084391594
45	0x3e396065	0.18103178
46	0xbe96162e	-0.29313797
47	0xbe96dbfd	-0.29464713
48	0x3e0d79ec	0.13816041
49	0x3e2a191e	0.16611144
50	0x3e37f04e	0.17962763
51	0xbdd2b4dc	-0.102884024
52	0xbe1c01c0	-0.15235043
53	0xbe31975d	-0.17342897
54	0xbe3436ac	-0.1759898
55	0xbe92f30a	-0.2870105
56	0x3e00fc7a	0.12596312
57	0xbe0f4cf3	-0.13994198
58	0xbea2457c	-0.31693637
59	0x3d673295	0.056444723
60	0x3e8f8dcb	0.28037867
61	0xba78a46f	-0.0009484952
62	0xbe85ca9c	-0.2613114
63	0x3e1a818c	0.1508848
64	0xbe3d1f7d	-0.18469043
65	0x3e708c26	0.23490962
66	0xbe88bfac	-0.26708734
67	0x3ea166c6	0.31523722
68	0xbd8801f3	-0.06640997
69	0x3e9cd48a	0.30630904
70	0x3e337acf	0.17527317
71	0x3e81a109	0.25318173
72	0x3da86671	0.08222664
73	0xbe33e02d	-0.17565985
74	0x3d3e8267	0.04651108
75	0x3e958a66	0.29207152
76	0xbe8d5aac	-0.2760824
77	0x3dd6d56e	0.10489927
78	0x3d7ccc0b	0.061718028
79	0x3e6bfbc3	0.23045258
80	0xbe641609	-0.2227403
81	0xbe78e3fb	-0.24305718
82	0x3db83bdf	0.089957945
83	0xbdcea93f	-0.10090875
84	0xbde3bcf3	-0.111200236
85	0x3d938b69	0.07204325
86	0x3e79f1b2	0.24408606
87	0xbe7dbca1	-0.24778987
88	0xbce6cd85	-0.028174171
89	0xbe219d8f	-0.1578276
90	0xbd84b7b9	-0.06480355
91	0xbe2401dc	-0.16016334
92	0x3eaebe31	0.3412948
93	0x3e36e4f1	0.17860772
94	0x3d7ff3c7	0.062488344
95	0xbdca7902	-0.09886362
96	0x3e4b3685	0.19845016
97	0xbe5072e5	-0.20356329
98	0xbe9c02e2	-0.3047095
99	0xbe5e532f	-0.2171142
100	0xbdc19c46	-0.09453635
101	0xbe69d2d0	-0.22834325
102	0x3e60e48a	0.2196218
103	0xbc4d1d17	-0.012519143
104	0xbdfc7775	-0.12327472
105	0xbe629ea1	-0.22130825
106	0x3e9c9e2c	0.30589426
107	0x3ea59f59	0.32348135
108	0xbe4dfcc7	-0.20115958
109	0x3e8fe050	0.28100824
110	0xbcd301e2	-0.025757734
111	0xbe016ddf	-0.12639569
112	0x3dfe87ed	0.124282695
113	0xbe840ff4	-0.2579342
114	0xbe9d1cef	-0.30686137
115	0xbce66fef	-0.028129546
116	0x3e6973cc	0.22798079
117	0x3e772f33	0.24139099
118	0x3e94d421	0.29068092
119	0x3e202b12	0.1564143
120	0x3db7e3cc	0.08978996
121	0x3d6288d8	0.055306286
122	0xbe721165	-0.23639448
123	0x3e92c7f9	0.28668192
124	0x3e958fae	0.2921118
125	0xbe9b8252	-0.30372864
126	0xbea45fcc	-0.32104337
127	0xbdb374ef	-0.08762538
128	0xbe62c84b	-0.22146718
129	0xbdf6ebf4	-0.12056723
130	0x3e8dd2f7	0.27700016
131	0xbd9af898	-0.07566947
132	0x3e9b682d	0.30352917
133	0xbd3daf04	-0.046309486
134	0x3c8c67d2	0.01713935
135	0xbc1384cc	-0.009003829
136	0xbdc6be73	-0.09704294
137	0xbd4e7f65	-0.05041446
138	0xbe1c0064	-0.15234524
139	0xbe77ea4a	-0.24210468
140	0x3d07ede0	0.03318584
141	0x3db90ad5	0.09035269
142	0x3dc332ae	0.09531151
143	0x3dde2965	0.10847739
144	0xbe063755	-0.13107045
145	0xbea292d7	-0.31752655
146	0x3e2a151b	0.16609614
147	0x3d70b61d	0.058767427
148	0xbea35f08	-0.3190844
149	0x3e9f84d8	0.3115604
150	0xbdafec42	-0.085899845
151	0xbe909d69	-0.28245094
152	0xbe5c982e	-0.21542427
153	0xbd9e5c85	-0.077324905
154	0xbe84dcba	-0.2594965
155	0x3d7b2d5b	0.06132255
156	0xbe22f3c3	-0.159133
157	0xbe2a0fe1	-0.1660762
158	0x3e9a50c9	0.3013976
159	0xbdbc2057	-0.09185856
160	0x3c6ac77b	0.014329786
161	0xbe2b0bc2	-0.16703704
162	0xbd2b88f1	-0.041878644
163	0xbe537585	-0.20650299
164	0xbe36641d	-0.17811628
165	0xbe609504	-0.21931845
166	0xbdef6721	-0.11689592
167	0x3dab01e4	0.0834997
168	0x3e1c364d	0.15255089
169	0x3e4e4f8d	0.20147534
170	0xbe1a68ac	-0.15078992
171	0xbe9026f1	-0.2815471
172	0xbd294ef7	-0.041335072
173	0x3ea9b091	0.33142522
174	0xbcc8f75f	-0.024532018
175	0x3ea19b0f	0.31563613
176	0x3e875253	0.26429996
177	0x3e604e70	0.21904922
178	0xbcca08e5	-0.024662444
179	0x3d5e027e	0.054201595
180	0xbe66e4ee	-0.22548267
181	0x3d3ae40c	0.04562764
182	0x3dd77ea3	0.10522201
183	0xbe60d4a8	-0.21956122
184	0xbe7c971f	-0.24667023
185	0xbe410247	-0.18848525
186	0xbb94febb	-0.004546968
187	0xbd95a008	-0.07305914
188	0x3df19ccf	0.11797487
189	0xbe26e119	-0.16296805
190	0x3ea3ed02	0.3201676
191	0xbe21c670	-0.15798354
192	0x3e4be286	0.1991063
193	0x3e9a9073	0.3018833
194	0x3e9d9856	0.30780286
195	0xbe53f7b3	-0.20699959
196	0xbe6a20e0	-0.22864103
197	0xbe2abfc4	-0.16674715
198	0xbe4ec621	-0.20192768
199	0xbd5a925f	-0.053362247
200	0xbd6ff2af	-0.05858105
201	0x3e1692b6	0.14704403
202	0x3ea53a28	0.32270932
203	0x3e279308	0.16364682
204	0x3ce75176	0.028237086
205	0xbdb2dd65	-0.08733634
206	0xbd8f7fc6	-0.07006793
207	0x3e8e3fc7	0.27783033
208	0xbe92521d	-0.28578272
209	0xbd236390	-0.039889872
210	0xbea5e809	-0.3240359
211	0xbdf5326f	-0.1197251
212	0xbe7b074d	-0.24514504
213	0xbea5168c	-0.32243764
214	0x3deb8821	0.11500574
215	0xbe2e10a8	-0.16998541
216	0x3da57584	0.08079055
217	0x3e9261e9	0.28590325
218	0xbdbd378e	-0.09239112
219	0x3e0f33be	0.13984582
220	0xbe1f4739	-0.15554513
221	0x3e376fa7	0.17913686
222	0x3eb5a99d	0.35480967
223	0xbdd37d53	-0.10326638
224	0xbe8a8fce	-0.2706284
225	0x3e8c4d75	0.27402845
226	0x3e836596	0.2566344
227	0x3e0534d6	0.13008437
228	0x3cfa1f94	0.030532636
229	0x3dfa5a75	0.122242846
230	0x3d4d906e	0.050186567
231	0x3d31c55b	0.043401103
232	0xbdf9ca84	-0.1219683
233	0x3d43098c	0.047616526
234	0x3e9c366b	0.30510268
235	0xbddd328c	-0.10800657
236	0xbe8f3d05	-0.27976242
237	0xbe63041d	-0.22169538
238	0x3c2221e2	0.009895774
239	0x3e08b741	0.13351156
240	0x3d73483a	0.059395052
241	0x3ea923b0	0.3303504
242	0x3df658df	0.120286696
243	0x3df4a9e9	0.1194647
244	0xbea16918	-0.31525493
245	0x3e64f692	0.22359684
246	0x3e42edd7	0.19036041
247	0x3d9b816e	0.07593046
248	0x3e108cf6	0.14116272
249	0xbeae1786	-0.34002322
250	0x3ea2adcc	0.31773221
251	0xbb8ff6bd	-0.004393427
252	0xbea313dd	-0.31851092
253	0x3e110f9d	0.14166112
254	0x3e63b724	0.22237831
255	0x3e53fe77	0.2070254

conv_stack.0.bias f4 [32]
0	0xbe0aa1e7	-0.13538323
1	0x3c6c333f	0.014416515
2	0x3e617eab	0.22020976
3	0xbe8ab692	-0.27092415
4	0xbe8fa118	-0.28052592
5	0xbd241774	-0.04006143
6	0x3c45c033	0.01206975
7	0x3e3194ea	0.17341962
8	0x3dfb73cf	0.12277948
9	0x3e9f754c	0.31144178
10	0xbdef8222	-0.11694743
11	0x3de0ceea	0.10976966
12	0xbe673c28	-0.22581542
13	0xbe690c85	-0.22758682
14	0xbe338104	-0.17529684
15	0x3e928b02	0.2862168
16	0xbe6396e2	-0.22225526
17	0xbe0e5a62	-0.13901666
18	0x3dc4dfba	0.09612985
19	0xbe56473a	-0.20925608
20	0x3def2f51	0.11678947
21	0xbe799c8b	-0.24376123
22	0x3e8490e3	0.2589179
23	0x3e7b2aa2	0.24527982
24	0x3e10fbb2	0.14158514
25	0x3e887982	0.26655203
26	0x3e3efcbd	0.186511
27	0x3dbee7de	0.09321569
28	0x3de8a3aa	0.113593414
29	0x3c0c0f82	0.008548619
30	0xbdc01455	-0.09378878
31	0x3d0bd292	0.034136362

conv_stack.3.weight f4 [64, 32, 3, 3]
0	0xbd2d93cb	-0.042377274
1	0xbd698fcb	-0.057021897
2	0x3a42f4b7	0.0007436978
3	0xbc977b43	-0.018491393
4	0xbc94d6ba	-0.018168796
5	0x3d0f2c75	0.034954507
6	0xbc5069ba	-0.01272052
7	0x3d638beb	0.055553358
8	0xbd0f52df	-0.03499114
9	0xbd71990d	-0.05898385
10	0x3ccebee0	0.0252375
11	0x3cb75119	0.022377538
12	0x3bb9495b	0.0056544966
13	0x3c795107	0.015217072
14	0xbc402b88	-0.011729129
15	0xbd56198f	-0.05227047
16	0x3d34ed26	0.044171475
17	0xbc4b6a47	-0.012415475
18	0x3d681870	0.05666393
19	0xbc52727e	-0.01284468
20	0x3d4cc522	0.049992688
21	0x3c9c6225	0.019089768
22	0xbb10c53a	-0.0022090212
23	0xbc1814a6	-0.009282267
24	0x3d8155bd	0.063151814
25	0x3d783d3b	0.06060527
26	0xbd243fed	-0.040100027
27	0xbcb8640a	-0.02250864
28	0xbc8478c6	-0.01617087
29	0x3cb641b4	0.022248127
30	0xbd2dee1a	-0.0424634
31	0xbd2dbd4c	-0.042416856
32	0x3c00a796	0.007852456
33	0xbad16840	-0.0015976503
34	0xbd2ee82c	-0.042701885
35	0x3cff3346	0.031152379
36	0x3d8928fd	0.06697271
37	0xbbb3e47d	-0.0054898844
38	0x3d5fad64	0.054608718
39	0x3cbe78af	0.023250906
40	0x3cc7f8a6	0.024410557
41	0xbcb46c2d	-0.022024238
42	0x3d6be443	0.057590734
43	0x3d833b98	0.06407851
44	0xbce0e333	-0.027452087
45	0x3c623a8d	0.013807905
46	0xbd2493dc	-0.040180072
47	0xbcc25c2c	-0.023725592
48	0xbd152f78	-0.036422223
49	0xbb34f1a7	-0.0027609856
50	0xbc46d58c	-0.0121358745
51	0xbc8adfaf	-0.016952364
52	0x3d249bf7	0.040187802
53	0x3c343885	0.010999803
54	0xbd2d1f5f	-0.042266246
55	0xbcfe8f99	-0.031074332
56	0xbd3f3754	-0.046683624
57	0xbca64128	-0.02029474
58	0x3d010eb5	0.031508166
59	0x3ca5de72	0.020247672
60	0xbc59b39e	-0.013287453
61	0x3cfd16cd	0.030894661
62	0xb98abc22	-0.0002646158
63	0x3d48e280	0.049044132
64	0xbc5b0387	-0.01336754
65	0xbd520509	-0.051274333
66	0xbc76375e	-0.015027849
67	0x3b87546c	0.004129937
68	0x3d86efbb	0.06588694
69	0x3c8e0f20	0.017341197
70	0xbc8c4936	-0.017124753
71	0x3d40399e	0.046929948
72	0x3d3ee97d	0.04660939
73	0xbcf6d0b7	-0.03012882
74	0xb9219db7	-0.0001541291
75	0x3d685120	0.05671799
76	0x3d623a77	0.055231538
77	0x3c123bf4	0.008925427
78	0x3d2a21eb	0.041536253
79	0x3d266573	0.040624093
80	0x3bd41e7a	0.0064733597
81	0xbc9d5e13	-0.019209897
82	0x3aed55b3	0.0018107205
83	0x3b87380d	0.004126555
84	0x3d747f26	0.05969157
85	0x3cf9efc7	0.030509843
86	0xbcf6c870	-0.030124873
87	0x3d65850e	0.056035094
88	0xbca5b4a8	-0.020227745
89	0xbcc1103c	-0.023567311
90	0x3d18e3fa	0.03732679
91	0x3d209b94	0.03921087
92	0x3d3f7ece	0.04675179
93	0x3b12203a	0.002229704
94	0xbd4db25a	-0.050218917
95	0x3d81e4ac	0.06342444
96	0x3cc35cdd	0.023847992
97	0x3d33b930	0.04387778
98	0x3d82bbc3	0.06383469
99	0x3ca2809e	0.01983672
100	0x3d408be6	0.047008418
101	0x3bdb3db5	0.0066907057
102	0x3d560b1c	0.05225669
103	0x3d697441	0.056995634
104	0x3d7d1ead	0.061796833
105	0x3cbbc9f0	0.02292344
106	0x3cf112ab	0.029427847
107	0xbbb1c742	-0.0054253647
108	0xbb8f5a08	-0.0043747462
109	0xbca53995	-0.020169059
110	0x3d23817a	0.0399184
111	0xbc102737	-0.008798412
112	0x3d4fb666	0.050711058
113	0x3b1360b4	0.002248806
114	0xbc596ac9	-0.0132700885
115	0xbc888c02	-0.016668323
116	0xbac62ab4	-0.0015118928
117	0xbd0b7c20	-0.03405392
118	0x3b634350	0.0034677573
119	0xbad40a0e	-0.0016177313
120	0xbd26ca9a	-0.04072056
121	0x3d81b72b	0.06333765
122	0xbc3b6b98	-0.011439227
123	0x3d5d79bd	0.054071177
124	0x3d6ea00a	0.058258094
125	0x3d2005ff	0.03906822
126	0x3d317082	0.043320186
127	0x3c7a6885	0.015283708
128	0xbd4c5f45	-0.049895544
129	0xbcce46a2	-0.025180165
130	0x3c46dbbe	0.012137352
131	0x3c8e10a7	0.017341925
132	0x3ca4a775	0.020099381
133	0xbcde6418	-0.027147338
134	0xbd246f1f	-0.040145036
135	0xbb964ab8	-0.004586544
136	0x3cf02523	0.029314583
137	0x3cd87033	0.026420688
138	0x3a40a7be	0.0007349214
139	0x3d100e3c	0.035169825
140	0xbd2aa1f4	-0.041658357
141	0xbd1851da	-0.037187435
142	0x3ca9dc67	0.020734979
143	0x3d48b8af	0.049004253
144	0xbcd47e1d	-0.025939042
145	0xbd0b4a10	-0.03400618
146	0x3ca903d6	0.020631712
147	0x3c1338b6	0.008985689
148	0xbd398e60	-0.045301795
149	0xbd4e0015	-0.050293047
150	0xbd333538	-0.043751925
151	0xbc81ace0	-0.015829504
152	0xbaa4e3b3	-0.0012580067
153	0xbb38fd47	-0.0028227137
154	0xbc21b595	-0.009869953
155	0xbd34be84	-0.044127002
156	0x3d4ac6bb	0.04950593
157	0x3d4f7285	0.050646324
158	0x3b91a0de	0.0044442257
159	0x3cba171d	0.0227161
160	0x3d699e69	0.057035837
161	0xbd26c507	-0.040715244
162	0x3b551b9b	0.0032517675
163	0xbcc0d8df	-0.023540912
164	0xbcf4f2bd	-0.029900903
165	0x3b45982c	0.0030150516
166	0xbca0104f	-0.019539027
167	0xbd5d3943	-0.054009687
168	0x3d5da15f	0.054108974
169	0xbd67d272	-0.05659718
170	0x3d052e58	0.0325149
171	0x3c7f4236	0.015579751
172	0x3d0aceb4	0.033888534
173	0x3d74c506	0.05975821
174	0x3d51274a	0.05106286
175	0x3d8c0543	0.06836941
176	0x3ce389e2	0.027775709
177	0xbc7d6505	-0.015465979
178	0x3c2bded0	0.010490134
179	0xbc964e27	-0.018347813
180	0xbcfb095b	-0.03064411
181	0xba906658	-0.0011016829
182	0xbcb963ca	-0.022630591
183	0x3c117204	0.008877281
184	0xbc267fdc	-0.01016232
185	0xbd0c1ead	-0.034208942
186	0x3be3d8d7	0.0069533396
187	0xbd16a3a2	-0.036777146
188	0xbcbf5aac	-0.023358665
189	0xbd131c04	-0.03591539
190	0x3d436c81	0.0477109
191	0xbcf201ec	-0.029541932
192	0xbd35e4eb	-0.044407766
193	0xbba8c009	-0.0051498455
194	0x3d07479c	0.033027276
195	0x3cb268d8	0.021778509
196	0x3d8d018f	0.06885063
197	0x3c791423	0.015202555
198	0x3c8cdd3a	0.017195333
199	0xbd234039	-0.03985617
200	0x3baa1ba9	0.0051912856
201	0x3ce40d6c	0.027838431
202	0xbc5d1860	-0.013494581
203	0xbb462dd6	-0.0030239723
204	0x3b99c7bc	0.0046929996
205	0xbd05a2fa	-0.03262613
206	0xbc8538d0	-0.016262442
207	0xbd59b938	-0.053155154
208	0xbc9c7481	-0.019098522
209	0x390640ac	0.00012803328
210	0xbb8a011b	-0.0042115576
211	0xbc6c6374	-0.014428008
212	0xbc6b6504	-0.014367346
213	0xba9216c7	-0.0011145704
214	0x3d2811f6	0.041032754
215	0xbb03db26	-0.0020119636
216	0x3d0fa133	0.03506584
217	0xbc1f3529	-0.009717264
218	0x3d19491c	0.03742324
219	0x3bacd4e2	0.005274401
220	0x3c433bc4	0.011916105
221	0xbcf900d3	-0.0303959
222	0x3d0eeb93	0.03489263
223	0x3c8fb5a3	0.017542666
224	0xbd074011	-0.033020083
225	0xbd4e4a08	-0.05036357
226	0xbc28cf7a	-0.0103033725
227	0xbcd3a01c	-0.025833182
228	0xbd609b13	-0.05483539
229	0x3b6cfa58	0.0036159959
230	0xbcd3ddf7	-0.025862677
231	0xbd11fb6f	-0.035640176
232	0x3d80e23b	0.0629315
233	0x3d28ccdd	0.041210998
234	0x3d642174	0.055695966
235	0x3d3f6794	0.04672964
236	0xbd199c7b	-0.037502747
237	0x3d664901	0.056221966
238	0x3cb0126b	0.021493157
239	0x3d0f8b00	0.03504467
240	0xbd2b5e64	-0.041838065
241	0x3c5447da	0.012956584
242	0x3d5fcbd3	0.05463774
243	0xbba295cc	-0.004961705
244	0x3ca6667c	0.02031254
245	0xbcf53157	-0.029930754
246	0x3d0b93c5	0.03407647
247	0xbc7ef41a	-0.015561128
248	0x3d0a738b	0.033801597
249	0xbd1010f6	-0.035172425
250	0x3c800454	0.015627064
251	0x3da0d4d5	0.078530945
252	0xbcd7057b	-0.02624773
253	0xbd00cd9c	-0.031446084
254	0x3d11b76f	0.035575327
255	0xbd16e791	-0.036841933

conv_stack.3.bias f4 [64]
0	0x3d168698	0.036749452
1	0x3ca89186	0.020577203
2	0xbc41b846	-0.011823719
3	0xbcb088ce	-0.021549609
4	0xbc295170	-0.010334358
5	0x3d3ecb51	0.046580616
6	0x3d02517f	0.031816002
7	0xbd7b8e77	-0.061415162
8	0x3ca87640	0.020564198
9	0xbc197c4a	-0.009368012
10	0xbb884c7f	-0.0041595097
11	0x3d4cf61a	0.05003939
12	0x3d3a1b62	0.04543627
13	0xbc4c0ce4	-0.012454245
14	0xbd3d12c0	-0.04616046
15	0x3d1d3539	0.038380835
16	0x3d1644e5	0.036686797
17	0xbb5fdfa4	-0.00341604
18	0xbd29cadc	-0.041453227
19	0xbd36f4cf	-0.04466706
20	0xbbd0c588	-0.006371204
21	0x3d16c266	0.036806487
22	0x3d4075d6	0.046987377
23	0xbd68496d	-0.05671065
24	0xbb3c623a	-0.002874507
25	0x3d10aad2	0.035319157
26	0xbc661137	-0.01404219
27	0xbba35460	-0.0049844235
28	0xbd789284	-0.060686603
29	0x3b4a08b6	0.0030827946
30	0x3c165558	0.009175621
31	0x3d08c237	0.033388343
32	0xbce580a3	-0.02801544
33	0x3d1ae073	0.037811708
34	0xbc7e4667	-0.015519715
35	0xbd2fe8b9	-0.04294655
36	0x3af79fa4	0.0018892181
37	0x3d490f0a	0.049086608
38	0x3d285b4b	0.04110269
39	0xbd2e8346	-0.04260566
40	0xbd59db5c	-0.053187713
41	0xbce1cdbb	-0.02756392
42	0xbd20ef81	-0.03929091
43	0x3cd930cc	0.026512526
44	0x3cf2f561	0.029658021
45	0x3cfe6fac	0.031059109
46	0x3d6c460d	0.057683993
47	0xbb98bf0b	-0.004661446
48	0xbd551e14	-0.052030638
49	0x3d67e85b	0.056618076
50	0xbcb2456b	-0.021761617
51	0x3d7f2f1d	0.06230079
52	0x3bbbd827	0.0057325545
53	0x3d18210d	0.037140895
54	0x3cefbb1c	0.029264025
55	0x3caf40ea	0.021393258
56	0xbb6fa17a	-0.0036564753
57	0x3d215bf1	0.039394323
58	0x3cc8c22f	0.024506656
59	0xbcef4f5b	-0.029212644
60	0xbc78575f	-0.01515755
61	0xbc36b96e	-0.011152608
62	0x3d386ed6	0.045027576
63	0x3ced6a27	0.028981281

pre_quantum_fc.weight f4 [4, 1600]
0	0x3c9d8813	0.019229924
1	0x3c3a1fb3	0.011360097
2	0x3cfdb929	0.03097208
3	0xbb22509d	-0.0024767288
4	0x3c9d9bbc	0.019239299
5	0x3cafce35	0.021460632
6	0xbb9b8723	-0.004746334
7	0x3a68c6c9	0.0008879719
8	0x3c98e174	0.018662192
9	0x3bb2e06b	0.0054588816
10	0xbc9b6baa	-0.018972237
11	0x3bb3e681	0.0054901247
12	0x3cb1e12c	0.021713816
13	0xbbcc37f4	-0.006232256
14	0x3cf0a459	0.029375242
15	0xbbcb604f	-0.0062065492
16	0x3c1558b6	0.009115389
17	0x3c0b42b6	0.008499792
18	0x3c0bfa03	0.008543494
19	0x3ccb6c84	0.024832018
20	0x3c1431c6	0.00904507
21	0x3cbb8861	0.022892179
22	0xbc2a9609	-0.010411748
23	0x3d0273c8	0.0318487
24	0x3c179920	0.009252816
25	0x3c79d2ef	0.015248044
26	0xbb886233	-0.004162097
27	0xbba3ad13	-0.0049949973
28	0xbaafb2fc	-0.0013404782
29	0x3cfb7468	0.030695155
30	0x3c6719ce	0.014105273
31	0x3ad3fb2e	0.001617288
32	0x3c8ec9f0	0.017430276
33	0x3cb9670c	0.022632144
34	0x3cad42c3	0.021149999
35	0x3bf00a8c	0.007325476
36	0xbc22b331	-0.009930418
37	0xbc596e21	-0.013270886
38	0x3af3e246	0.0018606863
39	0x3d043117	0.03227338
40	0x3cd02462	0.025407974
41	0x3cc71ea3	0.0243066
42	0x3a81ec72	0.0009912385
43	0x3c0f1408	0.008732803
44	0x3d0759a8	0.033044487
45	0xbb875b47	-0.004130754
46	0x3c8e436e	0.017366137
47	0x3b7a4e91	0.0038193802
48	0x3cdb658b	0.026781818
49	0x3babd6ec	0.0052441265
50	0x3d06f7ec	0.03295128
51	0x3cb8c706	0.02255584
52	0x3bdf2d8e	0.0068108505
53	0xbb745c0c	-0.003728631
54	0x3b9835a4	0.0046450663
55	0x3a4390b4	0.0007460222
56	0x3c98434f	0.018586783
57	0x3cb549dd	0.022129947
58	0x3cf2b2a7	0.029626204
59	0x3ce9bc6b	0.028532228
60	0x3bf0c00a	0.0073471116
61	0x3c0dec0a	0.008662233
62	0x3b601bbf	0.0034196225
63	0xbbddfb56	-0.0067743463
64	0xbc3ffdce	-0.011718227
65	0x3c9fe7f0	0.019519776
66	0xbc6c8a9f	-0.014437347
67	0x3bfd76fc	0.0077351313
68	0x3ccaba06	0.024746906
69	0x3c2306ef	0.009950384
70	0x3c0a0cfa	0.008425945
71	0xbc064c96	-0.00819697
72	0xbb17309a	-0.002306974
73	0x3cc8572a	0.024455626
74	0x3bee2159	0.007267159
75	0x3cd394fc	0.025827877
76	0x3d05019e	0.032472245
77	0xbbad6115	-0.005291114
78	0xbc842be0	-0.016134202
79	0xbc86d899	-0.016460704
80	0x3c249a74	0.01004659
81	0xbbd4e978	-0.006497558
82	0xbb103476	-0.0022003925
83	0x3cb2c6cc	0.02182331
84	0x3ceb688c	0.028736375
85	0x3b66b816	0.0035204939
86	0x3cb27959	0.021786379
87	0x3b857043	0.0040722205
88	0xbca0b77f	-0.019618748
89	0x3b72fa04	0.003707529
90	0xbb484985	-0.00305614
91	0x3b952138	0.004551079
92	0x3c951888	0.018200174
93	0x3c95ee39	0.01830207
94	0xbaf97c23	-0.0019034188
95	0x3cd7d9a6	0.0263489
96	0x3c2586c3	0.0101029305
97	0xbba47f78	-0.0050200783
98	0x3ae84da5	0.0017723335
99	0x3c1f42da	0.0097205285
100	0x3a819457	0.0009886128
101	0x3c4c908d	0.0124856355
102	0xbc3fe8e5	-0.011713241
103	0x3cd26438	0.025682554
104	0x3c7b1039	0.015323692
105	0xbc0c2135	-0.008552839
106	0xbadd9777	-0.0016906102
107	0x3ce97ddc	0.028502397
108	0x3cb9c342	0.022676114
109	0xbbc337ba	-0.005957571
110	0xbb71f980	-0.0036922395
111	0xbabefdaa	-0.0014571447
112	0x3bda3fc1	0.006660432
113	0x3cdca179	0.026932465
114	0x3cf6d2de	0.030129846
115	0x3ccbc7fb	0.024875632
116	0x39ac8f6f	0.00032913263
117	0xbbebe0d5	-0.007198433
118	0x3cfc4e23	0.030798977
119	0x3ca00500	0.019533634
120	0xbc55466a	-0.013017276
121	0xbb5e7693	-0.0033945187
122	0x3c5ad5b2	0.013356613
123	0x3d0c872a	0.03430859
124	0xbbc5e99c	-0.0060398113
125	0xbbbc11fa	-0.0057394477
126	0x36a7999a	4.9948694e-06
127	0xbbcaba22	-0.0061867395
128	0xbbbcd640	-0.0057628453
129	0x3ca70a4a	0.020390648
130	0xbca6bbdb	-0.020353248
131	0xbc94e742	-0.018176679
132	0x3b1c3667	0.0023836137
133	0x387eec75	6.0778537e-05
134	0xbc995ea8	-0.018721893
135	0x3b201e1a	0.0024432004
136	0xbca32718	-0.019916102
137	0x3c7dff1d	0.015502718
138	0xbcb3b9b9	-0.021939145
139	0xbc589c74	-0.013220895
140	0xbb838b07	-0.004014376
141	0xbb4c9773	-0.00312182
142	0x3c370dea	0.011172751
143	0xbc8a4593	-0.016878879
144	0x3c60a867	0.013712025
145	0xbc8841c2	-0.016632918
146	0x3ca4025f	0.020020662
147	0x3ba28680	0.0049598813
148	0x3b85565a	0.004069132
149	0x3c8b1be7	0.016981078
150	0x3bc746e3	0.0060814484
151	0x3cc9cfb0	0.024635166
152	0x3d00ee83	0.031477463
153	0x3cf16145	0.029465327
154	0x3a2b52ae	0.00065354526
155	0x3c6e776f	0.014554842
156	0xbbe78bca	-0.0070662247
157	0x3c67f76d	0.014158112
158	0xbc3c55fa	-0.011495108
159	0x3b028deb	0.0019921015
160	0x3d074bbe	0.033031218
161	0x3cefc14e	0.02926698
162	0x3cc96fc3	0.024589425
163	0xbc5db606	-0.013532167
164	0x3c38d202	0.0112805385
165	0xbbac8508	-0.005264882
166	0x3c9f7dda	0.01946919
167	0xbc240943	-0.010011974
168	0xbc022dcc	-0.007945489
169	0xbb06fe0b	-0.0020598199
170	0x3c971c2d	0.018446052
171	0xbb9d4b60	-0.004800245
172	0x3cf1abd5	0.029500881
173	0x3d08509e	0.033280008
174	0x3c9fc7ca	0.019504447
175	0xbc418c60	-0.011813253
176	0x3c491820	0.012273818
177	0x3c4f105e	0.01263818
178	0xbc4ad1fd	-0.012379167
179	0xbc40bcf9	-0.011763805
180	0xbc827b95	-0.01592807
181	0xbc387e2d	-0.011260551
182	0xbc983d10	-0.018583804
183	0x3ca5ce95	0.020240108
184	0xbc06b8a6	-0.008222735
185	0x3b334ec0	0.002736017
186	0xbc67566a	-0.014119724
187	0xbaf4e8f3	-0.0018685147
188	0x3bb78482	0.005600513
189	0x3c922d64	0.01784391
190	0xba9b869a	-0.0011865676
191	0xbc22af95	-0.009929557
192	0x3c1942d8	0.009354316
193	0xbb8d07a2	-0.0043038884
194	0xbc8f8bfc	-0.017522804
195	0x3ca6c0f6	0.020355683
196	0x3c3860ee	0.011253579
197	0x3c85b557	0.016321821
198	0x3cf31213	0.029671704
199	0x3bcc328d	0.006231612
200	0x3c77e2b0	0.01512973
201	0x3beaddd0	0.0071675554
202	0x398bdb49	0.00026675526
203	0xbc7f6f98	-0.015590571
204	0x3c02fdbb	0.007995064
205	0xbc2e7400	-0.010647774
206	0x3c87cfbf	0.016578553
207	0x3c9d3a62	0.019192878
208	0xbc410b21	-0.0117824385
209	0xbc19e025	-0.009391819
210	0x3c11cced	0.008898956
211	0xbc07a0ee	-0.008278115
212	0x3c0f257b	0.008736963
213	0x3cf896ba	0.03034531
214	0xbc6cf3b3	-0.014462399
215	0xbc0f3437	-0.008740476
216	0xbc84a445	-0.016191611
217	0x3aa5d964	0.0012653288
218	0x3c8ed0ac	0.017433487
219	0xb9a72fa0	-0.00031888206
220	0xbbc334ed	-0.005957237
221	0x3b683c11	0.0035436193
222	0xbb71c703	-0.0036892302
223	0xbb5b6c6a	-0.0033481368
224	0x3ccb0a44	0.024785168
225	0xbc54fae2	-0.012999268
226	0x3c6d793b	0.014494236
227	0x3cd7e0bf	0.026352284
228	0x3c97d302	0.018533234
229	0xbc046d98	-0.00808277
230	0x3bcf8d1b	0.0063339598
231	0xbc24d718	-0.010061048
232	0x3c8abf52	0.016936932
233	0xbc1b2b93	-0.009470838
234	0x3c1330d6	0.008983811
235	0x3ca91ab0	0.020642608
236	0xbc37beed	-0.011214954
237	0x3cf0c106	0.029388916
238	0x3c4b17f1	0.012395845
239	0x399d9844	0.0003005882
240	0x3c85a985	0.016316185
241	0xbb02c182	-0.0019951765
242	0x3c504df2	0.012713896
243	0x3ce162e9	0.027512984
244	0x3c8703fe	0.016481396
245	0xbaa6fa85	-0.0012739456
246	0x3aad8291	0.0013237764
247	0x3ccb153d	0.0247904
248	0x3c786a46	0.015162056
249	0x3c102f47	0.008800334
250	0xbc1039d7	-0.008802853
251	0xba94721f	-0.0011325515
252	0x3be27f9a	0.006912184
253	0x3c37446a	0.011185745
254	0xbc44b504	-0.012006048
255	0x3cd24132	0.025665853

pre_quantum_fc.bias f4 [4]
0	0x3cb78690	0.022403032
1	0x3cbcbbee	0.02303883
2	0xbcee9d6c	-0.029127799
3	0xbbaeea20	-0.0053379685

post_quantum_fc.weight f4 [10, 1]
0	0xbe9f3c14	-0.31100523
1	0x3f161782	0.5862962
2	0x3ed44565	0.41459194
3	0x3f0458a0	0.5169773
4	0x3f6431b1	0.89138323
5	0x3f58d28b	0.84696263
6	0xbf0c7a25	-0.5487388
7	0x3f399ce7	0.7250504
8	0xbe6f8118	-0.23389089
9	0x3f6ea783	0.9322435

post_quantum_fc.bias f4 [10]
0	0xbf39b3f1	-0.72540194
1	0xbc979f59	-0.0185086
2	0xbf14a185	-0.5805896
3	0xbf6ccd48	-0.92500734
4	0xbf6e0454	-0.92975354
5	0xbf1d9e28	-0.6156945
6	0xbe6ee4d1	-0.23329474
7	0x3f1a2909	0.60218865
8	0xbf72ba23	-0.9481527
9	0x3ee72b8b	0.45150408
