hybrid_cnn_mnist_weights_v4.0.pth (torch, 104648 bytes, 8 tensors)

conv_stack.0.weight f4 [32, 1, 3, 3]
00000000: 65f9 ad3b 6f07 363e 7bb3 463e 397c ed3d
00000010: a05d 50bd 025d 62bd e071 14be 79f2 8d3e
00000020: d26d 4fbc 9281 25be 6853 9abd 3550 693e
00000030: a844 5ebe 8685 463e c346 92be b3d7 a03e
00000040: 7223 18bc 3fc8 30be 5d83 43bd 2ab0 8a3d
00000050: 7c53 a73e 0f44 263e cfb1 8d3e 3424 43be
00000060: 1c86 2ebe 3210 dbbd 6d1d 66be 187c 8dbe
00000070: 55a2 bd3d 8c8a 9bbd 99bc 06bd 61ef 253e
00000080: 55ea 413e 03cf 3e3c 034f a73e 03e5 3d3e
00000090: 04b0 dabd 3fec fbbd 015f 493d 8e3f 78be
000000a0: 6e01 98be f7a0 80bd 741a 1abe 56bc 8e3e
000000b0: a472 833e cac5 593e 572c a0bd 7908 dd3c
000000c0: f7dc 8abe 9c37 23be 88b4 1d3e 4b97 83be
000000d0: 0011 5a3e 9505 933e 4a33 dd3d c895 953d
000000e0: 52cc 95be d247 f2bd 4791 14bd 66cd 753e
000000f0: 7f6a 4abe a516 9a3e f385 a43e d5d5 4abc
00000100: 7a8c 953e af40 053e c346 a03e 0b17 1f3e
00000110: 759f 413e 49e8 4c3e b24e 8d3e acfd a83d
00000120: 7ff3 69be 23e9 743e be03 97bd 29aa b3bd
00000130: 518c 5cbe 7dc3 343e c865 a03d 78f1 1b3e
00000140: 1139 a0be 2fe9 91be c4ad 373e b5da 6abe
00000150: 44d4 3e3d bf0f 1bbe 4581 b0bd c072 5fbe
00000160: 1e6f 82be a4a9 533e 7d12 47be 9ec3 e23d
00000170: 566d 8d3d 0548 a53e 8ad5 a63c 5e7f 28bb
00000180: b461 c4bd fe0b b63d 4b1a a2bd a9ef 673d
00000190: bbd9 c53d dd88 e1bd 91f1 66be 7fc2 2b3e
000001a0: dbba 3e3e be33 91bd e4c8 e93d e8ce 95be
000001b0: 0799 a43e 7de3 c83d 4cb5 343e e001 f7bd
000001c0: 8381 9cbd 55cb 8dbb df6f a43e bb4c 27bd
000001d0: 62d8 8dbe ab9f b93d 04a4 5d3e 825e 53be
000001e0: 6e93 aa3e 71f1 453e ebaf 143d c041 7d3e
000001f0: bb3f 6c3e c806 1a3e 52a0 9b3e 51fe b8bd
00000200: 1fcd d33d 26b1 91be 699b b33d 7922 81be
00000210: 635f 71be 4f4a 92be 4a61 2abe e54f 47be
00000220: 3804 8d3e 5b7f a33e 3b39 153e 6f15 313e
00000230: bd85 28be 09bc bbbc 8da9 a53d 1eca 9bbc
00000240: e085 0fbe d624 783c 6603 8d3e d4b9 8ebe
00000250: 307e 21bd 5aab 093d cf5e 703e fdf8 52be
00000260: 3c8f 9dbe b5a8 f4bc 91df 9fbe d0b5 b3bc
00000270: abcc 953e 12ba 7abe c9d4 adbd 13ad 44be
00000280: 2373 1d3d bc5d 683e d341 963e f6df 9abe
00000290: f427 c13c 2af1 773d 7704 5b3d 3ebe 953e
000002a0: fd73 873e dc0d 163e 7665 9bbe 1c23 47be
000002b0: 9554 67be ce7f 983e dc1d 53be 01ae 5ebd
000002c0: b73c e23d 239a 4e3e c4c7 a13e aacc 803e
000002d0: 38fc d33d 4e3c 8f3e 5906 9fbd c912 64be
000002e0: 01e7 5dbe 1998 783e 938a f8bc 78d7 98be
000002f0: 4e35 943e 5b7f 7bbe 3107 ce3d 5611 433d
00000300: 09de 043e 93b4 64be bef7 9f3e 1bf4 783d
00000310: 652d 8cbe 2809 5a3e c2d0 583e 848e 85be
00000320: 7cda 28be 2ee8 953e 5b99 9cbe dbb0 8d3e
00000330: 58a7 21be 4671 a33e 0060 753e 6108 0fbe
00000340: 48c7 9a3e 222c 02be 0fb9 233d 98d1 483e
00000350: 3d52 d73d abd5 3b3e b05e d5bd e6a7 993d
00000360: 0243 8dbe 6c63 913e d876 5b3e f581 59bd
00000370: ae8f fe3b a929 a73d 3a82 95bd 3478 203e
00000380: b81c aa3c 663c 2f3e 8ccb 873e 7d6e 893e
00000390: 167e 2dbe 3682 37be 0ea0 5abe c51a 733e
000003a0: 1c70 26be d688 813e b417 3c3c 4574 8fbe
000003b0: d61d f53d 09fa 9f3e 7790 663e 03ab a63d
000003c0: 0ae6 8ebe f4e0 39be 103b 893e bad9 a1be
000003d0: 43cc 893c c600 e63d 6753 17be aa00 92be
000003e0: b205 9d3d d9d8 a73e 1c9f 113e 3999 ce3c
000003f0: d2eb 7c3e 45f3 07be fcd1 993e ddc3 83be
0.005309271 0.17776273 0.19404404 0.11595959 -0.050870538 -0.05526448 -0.14496565 0.27724054
-0.012660461 -0.16162708 -0.0753544 0.22784503 -0.21705878 0.19386873 -0.28569612 0.31414565
-0.009285795 -0.17263888 -0.0477327 0.06771882 0.3268088 0.162369 0.2767472 -0.19056779
-0.17043346 -0.106964484 -0.22472163 -0.2763374 0.09259478 -0.07594785 -0.032894704 0.16204597
0.18937047 0.011646035 0.3267747 0.18544392 -0.106781036 -0.1230092 0.04916287 -0.24242994
-0.2968859 -0.062807016 -0.15049154 0.27878064 0.256734 0.21266857 -0.07820957 0.02698158
-0.27121708 -0.15939182 0.15400898 -0.25701365 0.21295547 0.28715196 0.10800798 0.07303959
-0.29257447 -0.11830105 -0.03627136 0.24004135 -0.19767188 0.300954 0.32133445 -0.012380083
0.29208738 0.13012956 0.31303987 0.15536134 0.18908484 0.20010485 0.27599102 0.08251509
-0.22846793 0.2391706 -0.07373761 -0.0877269 -0.21537901 0.17652698 0.07831913 0.15228832
-0.31293538 -0.28498217 0.1793738 -0.22934993 0.04658915 -0.15142725 -0.08618406 -0.21821117
-0.254754 0.20670182 -0.19440646 0.11072467 0.0690562 0.3228151 0.020365495 -0.0025710682
-0.09588948 0.08889006 -0.07915171 0.056625042 0.096606694 -0.11012433 -0.22553088 0.16773413
0.18625967 -0.07089947 0.1141527 -0.2925942 0.32148 0.09809015 0.17647284 -0.120609045
-0.0764189 -0.0043272176 0.321166 -0.04084466 -0.2770415 0.090636574 0.21644598 -0.2064152
0.33315605 0.19330384 0.03630058 0.24732113 0.23071186 0.1504165 0.30395752 -0.09032882
0.10341858 -0.28455466 0.087698765 -0.25221613 -0.23571543 -0.28572318 -0.16638675 -0.19464071
0.2754228 0.31933102 0.14572613 0.17293333 -0.16457267 -0.02291681 0.0808898 -0.019017275
-0.14015913 0.015145501 0.27541655 -0.2787615 -0.039426982 0.03361068 0.23473667 -0.20602794
-0.30773342 -0.029865602 -0.31225255 -0.02193728 0.29257712 -0.24485043 -0.08487851 -0.19206648
0.03843988 0.22692007 0.29347095 -0.30248994 0.023578621 0.060532726 0.053471055 0.29246706
0.2645568 0.14653724 -0.30350846 -0.19446987 -0.22590859 0.29785007 -0.20616859 -0.05436516
0.11046737 0.20175986 0.31597722 0.25156146 0.10350841 0.27975696 -0.077648826 -0.22272791
-0.21670152 0.2427677 -0.030339515 -0.2985189 0.28946918 -0.24560301 0.100599654 0.047623955
0.12975325 -0.22334509 0.312437 0.060779672 -0.27378383 0.21292555 0.21173385 -0.26085293
-0.16489595 0.29278702 -0.3058575 0.27673993 -0.15786493 0.31922358 0.23962402 -0.1396804
0.30230165 -0.12712148 0.039971408 0.19611204 0.105137326 0.18343227 -0.10418451 0.07502727
-0.27590185 0.28396165 0.21432054 -0.053102452 0.007768593 0.08162243 -0.07300229 0.15670854
0.020765647 0.17112884 0.2652248 0.26842108 -0.16942629 -0.17920765 -0.21350119 0.2374068
-0.16253704 0.2529971 0.011480261 -0.28018394 0.119685814 0.3124545 0.22516046 0.08138087
-0.2790988 -0.18152219 0.26802874 -0.31611425 0.016821032 0.11230616 -0.14777909 -0.28516132
0.07667102 0.3278263 0.14220852 0.025219547 0.24699333 -0.13276394 0.30043018 -0.2573537

conv_stack.0.bias f4 [32]
00000000: 5cce 053e 20fd 40be b7eb 78be d2b4 7b3e
00000010: ea08 e33d 5aee 96be db82 8d3e d67e 1f3e
00000020: 25a4 473d 1f1c dbbd 89cc 223e 606a 813e
00000030: 8015 cebc 3a57 e83d 7510 3a3e 455a 103e
00000040: d27e 9c3e e974 89bd 3f7c a8be ab76 2abe
00000050: c7d5 57be 970e 7abe 115a d6bd cc13 b4bd
00000060: 8f88 603e 6421 ae3c 350d 97be 4e24 dcbd
00000070: 6b43 5e3e 7001 72be 1518 143d 0f55 88be
0.13067001 -0.1884656 -0.24308668 0.24580696 0.110856846 -0.29478723 0.27638897 0.15575728
0.048740525 -0.10698723 0.15898336 0.2527647 -0.025156736 0.11344762 0.1817034 0.14096935
0.30565506 -0.06711752 -0.32907292 -0.1664683 -0.21077643 -0.24419628 -0.104663976 -0.087928385
0.21927093 0.021256156 -0.29502264 -0.10749112 0.21705405 -0.23633361 0.03615578 -0.26627395

conv_stack.3.weight f4 [64, 32, 3, 3]
00000000: e2e1 583d bb97 c6bc d5b5 64bd c4bc 383d
00000010: 7b69 c63c 4f11 223d 0c4b 993b 46cf 063d
00000020: 710d e43c ee39 5bbd 69a1 553d d968 53bc
00000030: 6e13 433d 3f38 cbbc 4bdc 83bc a94e 04bd
00000040: 7b69 e9bc 5c13 a6bb 9dd4 6dba ada5 393d
00000050: 768a 4a3d a33f 25bd 7259 ca3c 8409 713d
00000060: 80ec 8d3b ae5e 58bd 7a4e b93c a83b 2c3d
00000070: c084 3b3c c65b 53bd c63d 353d 0c36 663d
00000080: 6c1d 46bd a951 38bd 5bd1 4ebd ec2a bfbb
00000090: 703d 42bd d789 68bc cf4c 833c 9cbd 6cbc
000000a0: c21b 86bc 9584 c33c 0380 e03c f495 513d
000000b0: 4009 febc 39b8 223d e452 4f3d ec27 f83b
000000c0: 16ce ccbc ec01 8fbc 4150 04bd 3de8 543d
000000d0: b679 43bd 384c d2bc bb11 d83b 8f8f 923c
000000e0: 654f 41bd 7d04 64bd 01ef 493c 3969 6c3d
000000f0: 68a8 13bd 5735 a8bc 9493 0a3d da94 253d
00000100: e0d7 acbc 0984 11bd 21fb 803c 4857 ce3b
00000110: 8bc8 9e3c 1ad0 413d 29a5 b6bc f801 4e3d
00000120: 8224 e43b 4371 da3c 8dba 1cbd 4277 51bd
00000130: 8d18 a33c b282 693c 9711 c7bc e3ad 2bbd
00000140: b700 1abd e37e f6bb 9768 51bd bd39 103d
00000150: 9532 803b d905 b1bc a21a e6ba beb7 863c
00000160: b106 31bc 4a2e 3c3d 8b0c 2a3d 1967 5fbd
00000170: 37b7 033b b7bd dfbc 4e99 1b3d 47f0 87bc
00000180: 4c37 3cbc 49ab 6abd 5679 46bc 35b0 81bc
00000190: 20bd 02ba 2467 a6bb 4544 263d 4a4e da3c
000001a0: 7532 5fbc 14ab 323d 216b 54bd c555 4bbd
000001b0: 4d77 953c 737f a43c 3a04 8339 ef6c 3f3d
000001c0: f110 32bd e8e5 2abd 8105 07bd b87c 3dbc
000001d0: f31f d4bc 60c4 4c3d 413b 18bd 310f e7bc
000001e0: d0bb 1fbd 586c 2ebd 97d6 5d3d d347 593d
000001f0: 0d20 db3c c3ef 38bb 341d 47bc b4ef 50bd
00000200: f6aa 21bd 6c7a 773d 475b 1d3d 6953 1abc
00000210: 93ca 1bbc d047 2f3d 6ad4 3fbd e4ee e83c
00000220: 8879 23bd c5f5 61bd 56fb 9ebc 6b47 3ebd
00000230: c3b2 6e3d 86e5 9c3c 27ce 8cbc d889 283d
00000240: 1ab2 c2bb 38e4 82bc 4e1d 013d 80f2 ebbc
00000250: 696a 55bd 7ed4 203d 84c4 a03c ed7f 11bd
00000260: 7869 91bb bbe7 3c3d b283 22bd d6a8 3bbd
00000270: 1fe0 8e3c 808a ed3a 916c 44bd eb88 50bd
00000280: 3034 693c 8e90 2d3d 8664 dbbc d18f 123d
00000290: a0e3 303d ff8f 623d 6954 3dbd 98db 3d3d
000002a0: 376c 0b3d 6dcf 48bd 4293 5cbc 147e 373d
000002b0: f180 873c 2d75 313c 629b 6abd 95c9 9d3c
000002c0: b70a 8f3c 6487 63bb 6ecd d5ba 05b4 65bd
000002d0: 3d53 dabc 9360 04bc 5a86 1e3c 2d76 513d
000002e0: fd08 4bbd 3a5e d03c 602a 62bd 7251 0a3c
000002f0: b86f 603d 18c1 44bd 00d9 02bd bd40 523c
00000300: cf78 6f3d ddbc f63c ece7 b93c 5a82 56bd
00000310: dedc 433d d4cf 423d be7c 89bc 280d 20bc
00000320: 0b1d 893c 1737 d2bc 4b03 ffbc 038c 373d
00000330: 3902 2f3d 9b68 ea3c 4f8a a1bc 9c47 3ebd
00000340: a47e 5dbd c036 433d ffa0 c0bc 04b3 00bc
00000350: 5644 953c 6661 363d 0e83 20bd 0561 3ebc
00000360: 0bef 293d 25d5 5f3d f05b 093d f307 223d
00000370: dac1 3d3d 5bcf 853c 0681 173c 4461 9dbc
00000380: ad1d 613d b3c3 d03c 57fa 9f3c d975 d2bc
00000390: cab6 983c 16f0 713d 596c 03bd 9498 3ebd
000003a0: c4bc 873c 62f4 e3bb f272 01bd f193 68bd
000003b0: 82ca 1a3a bce9 53bd 6abf d33c a12e 27bd
000003c0: 341e 39bd e4b2 293d 9c9d 4bbd 28c6 123d
000003d0: 2b05 8cbc 0752 d83c cf84 393d 9ea6 873c
000003e0: 8bb2 00bd 2382 0c3d 142c b1bc 4286 4a3d
000003f0: 9bdc 0dbd 03f2 703d 1803 50bd 3125 77bc
0.052949794 -0.024242273 -0.05583747 0.045101896 0.024220219 0.039567288 0.0046781357 0.032912515
0.02783844 -0.053522043 0.052155886 -0.012903416 0.04762595 -0.024807094 -0.016096255 -0.03230158
-0.02849268 -0.005068226 -0.00090725144 0.045324016 0.049448453 -0.04034389 0.024700854 0.058846965
0.0043311715 -0.05282467 0.022620428 0.04204908 0.011445224 -0.051601194 0.044248365 0.056203887
-0.048367903 -0.044999752 -0.050492626 -0.005833974 -0.047421873 -0.01419302 0.016027836 -0.014449503
-0.016370658 0.023866931 0.02740479 0.051168397 -0.03101027 0.03972647 0.05061616 0.0075731184
-0.025000613 -0.017456971 -0.0323031 0.051979292 -0.047723494 -0.02567111 0.0065939105 0.01789072
-0.047194857 -0.055668343 0.012325049 0.057717536 -0.036049277 -0.020533247 0.033832148 0.04042516
-0.021099031 -0.03552631 0.015744748 0.006297026 0.019382736 0.0473176 -0.022295551 0.050294846
0.00696236 0.026665336 -0.038263846 -0.051139124 0.019909168 0.014252352 -0.02430038 -0.04191388
-0.037598338 -0.0075224503 -0.051125135 0.035211314 0.00391228 -0.021609234 -0.0017555545 0.016445037
-0.010804818 0.045942582 0.04151587 -0.05454168 0.0020098218 -0.027312143 0.037988 -0.016594065
-0.011487793 -0.057292257 -0.01211389 -0.015831092 -0.0004987288 -0.0050782133 0.04059245 0.02664866
-0.01362287 0.043620184 -0.05185998 -0.049642343 0.018245364 0.020080304 0.00024989416 0.046734747
-0.043473188 -0.041723162 -0.032964233 -0.01156538 -0.02589414 0.049991965 -0.037165884 -0.028205486
-0.03899747 -0.042583793 0.054159727 0.053047013 0.026748681 -0.002821908 -0.012152959 -0.05100985
-0.03946968 0.060419485 0.038417127 -0.009419301 -0.009508747 0.042793095 -0.046833433 0.028434224
-0.039910823 -0.055166025 -0.019406956 -0.04645483 0.05827595 0.019152414 -0.017188145 0.041147083
-0.0059416415 -0.015977964 0.031522088 -0.028802156 -0.052103434 0.03926515 0.019624956 -0.03552239
-0.0044376217 0.046119433 -0.039676376 -0.04581531 0.017440854 0.0018122941 -0.0479551 -0.050911825
0.014233634 0.042374186 -0.026781332 0.035781685 0.04318583 0.055313107 -0.046223078 0.046352
0.03403875 -0.04902594 -0.013462843 0.04479797 0.016540976 0.01083116 -0.05727709 0.01926116
0.017461164 -0.003471815 -0.0016311833 -0.056079883 -0.02665102 -0.008079666 0.009675587 0.05113809
-0.04956912 0.025435556 -0.055216193 0.00844227 0.054794043 -0.04803571 -0.03194523 0.012832818
0.05846482 0.030119354 0.022693597 -0.052370407 0.047818057 0.04756148 -0.016783115 -0.009768762
0.016737482 -0.025661035 -0.0311295 0.04481126 0.04272673 0.028614333 -0.019719271 -0.04645501
-0.054075852 0.047659636 -0.023514269 -0.007855181 0.018221062 0.04452648 -0.039187483 -0.011619811
0.041487735 0.05464663 0.033534944 0.039558362 0.04632745 0.016334226 0.00924707 -0.019211419
0.05495994 0.025483942 0.019528551 -0.02569096 0.018641848 0.059066854 -0.03208575 -0.04653223
0.016569503 -0.006956623 -0.03160376 -0.056781713 0.000590481 -0.05173658 0.02584811 -0.040815953
-0.04519482 0.04143037 -0.049710855 0.035833508 -0.017092308 0.026406301 0.04529267 0.016558941
-0.03142027 0.034303796 -0.021627463 0.049444444 -0.034634214 0.05882455 -0.0507842 -0.015084551

conv_stack.3.bias f4 [64]
00000000: b1bb 4dbd b948 1d3d 0f92 36bc a92a 473d
00000010: 6e41 f93c 727f 413d a6ca 6c3d 9dc2 b03b
00000020: f192 643d 674c 15bd 2687 583c 29b0 e4bc
00000030: 62d6 51bd 38da 1bbd 8e38 3cbd 02cc 98bc
00000040: 1362 79bb 8fe0 553d 6cfd 00bd bc44 9ebc
00000050: 47a3 27bd 474c 11bc 711e 423d 40f6 e0bc
00000060: 37e8 28bc fed0 7e3d 1bf1 973a 2f2b fabc
00000070: 1928 a1bc b448 493d bd3f 7b3d 1896 6e3d
00000080: 23dd b33c e1b8 3e3c fa92 5c3d 0b16 54bd
00000090: 9781 ebbc 392b 533d 168a d0bc b774 0fbd
000000a0: b9e7 38bd 8788 24bd a766 0f39 bddf f6bc
000000b0: 74e3 62bd fa2a 7bbb 2c92 25bd 0e8c eb3c
000000c0: 11b0 da3c 18f8 50bd f37c c23c b328 603d
000000d0: c39a 71bd bbde 773d 320d 31bd af39 453d
000000e0: 60ec 5dbd 5c1a 9abc 4be7 4f3d e20e 1a3d
000000f0: 25a8 e8bc eb4a d13b d1e5 d0bb c4d6 ba3b
-0.050227825 0.03839943 -0.0111432215 0.04862467 0.030426707 0.047240682 0.057810448 0.0053942935
0.055804197 -0.036449816 0.013215816 -0.027916031 -0.051229842 -0.038049906 -0.045952372 -0.018651966
-0.0038052842 0.05221611 -0.031491682 -0.019319884 -0.040927198 -0.008868284 0.047392312 -0.027461171
-0.010309271 0.06221103 0.0011592241 -0.03053817 -0.01967244 0.0491416 0.061340082 0.05824861
0.021956032 0.011640758 0.053851105 -0.051778834 -0.028748317 0.051554892 -0.02545647 -0.035023417
-0.045142863 -0.040169265 0.00013675784 -0.030135984 -0.055392697 -0.0038325177 -0.040422603 0.028753307
0.026695283 -0.05101785 0.023741221 0.054726314 -0.058985483 0.060515147 -0.043225475 0.048150714
-0.054180503 -0.018811397 0.050757688 0.03761185 -0.02840049 0.0063871047 -0.0063750525 0.0057018716

pre_quantum_fc.weight f4 [4, 1600]
00000000: c1b2 c13c 0f58 b23c 1ffc a139 ea77 79bc
00000010: 7bf3 a2b9 90d8 543b 0d24 88bc c567 29bc
00000020: 2988 3e3c 9a4f 13bc 2291 413c 741e d93b
00000030: 8e31 8d3c 09d4 2bbc 050a 6c3c ca3d 4f3c
00000040: 3508 2fbc 3797 3abc e207 84bc bd86 ffbb
00000050: 7385 9bbc f98c 6abc 0d6a dbba e26c ce3c
00000060: 50d7 783c bfe1 a9bb 03dc 9a3c 976e 1ebc
00000070: 8928 8fba a814 ae3c ecbd 7d3c 1247 6f3b
00000080: fdf5 f8bb 48d1 a2bb 1476 5ebc 4507 473c
00000090: 93f0 3b3c c4b5 bf3c aa8e 643c 09df a93b
000000a0: d075 34bc 2185 e43c 0fcc 83bb 82a3 15b5
000000b0: 2e52 fd3b 7bad 7dbc 9dfc 53bb 072f 00bc
000000c0: cdf9 a43b e950 22bb 8752 be3b 61ee b7bb
000000d0: de13 b0bc 16cd f93a 415a b8bb 27e0 06bb
000000e0: 6033 3fbc 4d17 363c 6f60 b1bc cef0 483c
000000f0: c395 063c 41ba 7d3b 48e4 ce3c 99c3 2cbb
00000100: eedc 93bc 1da6 913b bce3 b13c fc78 c83c
00000110: 199e 83bb e28c 03bb d759 e13c 3ba1 cc3c
00000120: f6fb cc3c 0793 31bb 0d46 bebb f25f adbc
00000130: a601 a1bc 9d93 963c d457 e13c 0d81 a0bc
00000140: a06c d03c a833 dd3c 11aa 7e3c c7ee 273c
00000150: 66c5 c8bb 31f7 d93b 2a3d 8fb9 c469 1a3a
00000160: ffe4 57bb e38b 65bb 3f6d aebc ca0c 18bc
00000170: f641 cd3c 1b5e acbb 015a 31bc 3a44 d43c
00000180: f2ac debb 2520 8dbb dd18 1a3c 950d c13c
00000190: ee01 b83c 59d4 b2bc 30a4 9ebc f943 d13c
000001a0: c4af d33c 8378 b13c 268e 803c 2022 e5bb
000001b0: 345a 87bc 64d0 1b3c f950 a2bc 4ef5 843c
000001c0: ef59 8a3c 51d7 e4bb 2b69 7dbc 8aad c83b
000001d0: 6e8e 433c 3e6f 103c 37ba 1cba 2299 bbbc
000001e0: 3a74 f93b 8da8 51bc e602 a13c 28fa e1ba
000001f0: c15d 98bc 59ef c13c d5ad acb9 82a3 fabb
00000200: c059 8abb 3ec0 1bbb beab a7ba 2dcc 443c
00000210: 628f eabb 4312 46bc cd59 bc3c 7198 e63c
00000220: 6f21 b0ba c148 f8bb e5d4 5a3c 7226 973c
00000230: 4efe 92bc 2ea0 823c acf5 37bc 65cf a9ba
00000240: bccc b43c 940c 70bb 8d97 ebbb 6182 c33c
00000250: 23e1 273b b775 8ebc 56bd c43c 6ed6 923c
00000260: 2b49 89bc 89e9 5dbc 8d2b daba e9b1 d43c
00000270: 3eb4 40bc a01c 9d3a cfae aa3c 0cf0 853c
00000280: 9a8d 103b 0282 843c cad2 2ebc 2c62 82bc
00000290: d4d1 4abc cc4b c8bb dc1b 2cbc 4dfc b73c
000002a0: c191 1e3c 0fa6 25bc d2ce c53c 7c5b 693b
000002b0: 9cc8 82bb c7c2 5f3c 90b5 c83c 2027 0f3c
000002c0: 9b8a 3fbc 39e8 083b d8d5 03bc 10dd 363c
000002d0: b86b e03b 38a7 a13c 097e 29bc 4cab b4bb
000002e0: 7238 96bc effb b73c e90d a1bc 5bad 0d3c
000002f0: 3ccc 4fbb e454 91bc ef17 d43c 170c c53c
00000300: eb23 fdbb e3a2 c53c beaf 7cbc 831b 9e3b
00000310: 4393 a43c d54c ab38 935d 903c 483d 853c
00000320: 3201 1bbc e5af f93b 3bdc ee3a f6a3 043c
00000330: 12d3 d03c a8f3 00bb 7011 9b3c 1494 923b
00000340: 0c58 2e3c 3177 9839 f594 5cbc 7be8 8abc
00000350: 7805 393c cd1a 363b 9a78 d03c 698e 6c3c
00000360: 2b4a b2bc 5bff 4f3a 0414 db3c fc02 a7bc
00000370: a3fd 9b3b abf8 8b3c 8db5 69bc 181c b13c
00000380: 24a6 f63a a02e 463c ade3 a1bc 60f9 e4bb
00000390: 8882 c23b 5986 d43c 14c3 863c 3310 553c
000003a0: f017 b83b 3054 18bc 5723 5b3c 8140 e93c
000003b0: 11ab a0bc e4ac c23b 3418 56bc 52d6 953c
000003c0: 1247 8fbc 21f1 2bbc f175 d63c 9e64 853c
000003d0: 8034 c53c 0840 073c 64f0 37bb 1067 ab3b
000003e0: 19e7 ed3b ee3e 9e3c 00d2 bc3c 129a 6a3c
000003f0: 8cd8 233b 0366 a6bb d03b fa3b 5f04 c63c
0.023644807 0.021770505 0.00030896158 -0.015226344 -0.00031080455 0.0032477714 -0.016618753 -0.010339682
0.011629143 -0.008991146 0.0118143875 0.0066259447 0.017235544 -0.010487565 0.014406686 0.012649009
-0.010683109 -0.0113885915 -0.01611704 -0.0077980445 -0.018984532 -0.014315837 -0.001673998 0.025198404
0.015188053 -0.0051843817 0.018903738 -0.009669921 -0.0010922115 0.021250084 0.015487175 0.0036510867
-0.0075976835 -0.004968796 -0.013577957 0.012147729 0.011470932 0.023402102 0.013950029 0.0051840586
-0.011014417 0.027895512 -0.0040221284 -5.574476e-07 0.007730744 -0.0154832555 -0.0032346614 -0.007823712
0.0050346614 -0.0024767464 0.005808178 -0.005613134 -0.021493848 0.0019058313 -0.0056259935 -0.0020580383
-0.011669964 0.011113954 -0.021652428 0.012264444 0.008214417 0.0038715752 0.025255337 -0.0026361702
-0.018049683 0.004444851 0.021715038 0.024471752 -0.0040166494 -0.0020072986 0.02750866 0.024979224
0.025022488 -0.0027095692 -0.0058066905 -0.021163914 -0.019654106 0.018380934 0.0275077 -0.019592786
0.025442421 0.02700217 0.015543477 0.0102498 -0.0061270474 0.006651782 -0.00027320656 0.0005890394
-0.0032942889 -0.0035026006 -0.021292327 -0.009280393 0.025055867 -0.0052602417 -0.010824681 0.02591144
-0.006795519 -0.0043068104 0.009405342 0.023566047 0.022461858 -0.02182977 -0.0193654 0.025545107
0.025840648 0.02166391 0.015692782 -0.0069925934 -0.016522504 0.009510133 -0.019814001 0.016230252
0.016888587 -0.0069836755 -0.0154669685 0.006124203 0.011935813 0.008815585 -0.0005978676 -0.022900168
0.0076127322 -0.012796533 0.019654702 -0.001724069 -0.018599393 0.0236737 -0.0003293591 -0.007648886
-0.004222125 -0.0023765708 -0.0012792272 0.01201157 -0.007158206 -0.012089315 0.02299204 0.028148862
-0.0013437698 -0.0075770323 0.013356422 0.01845095 -0.017943528 0.01594552 -0.011228006 -0.0012955485
0.022070281 -0.003662859 -0.007189697 0.02386588 0.002561637 -0.017390115 0.024016064 0.017924514
-0.016758522 -0.013544449 -0.0016645059 0.02596374 -0.011761723 0.001198668 0.020835308 0.016349815
0.0022057057 0.016175274 -0.010670373 -0.015915953 -0.0123791285 -0.0061125513 -0.010504689 0.022459174
0.009678305 -0.010110392 0.024146471 0.0035607507 -0.0039911997 0.013657278 0.024500638 0.0087373555
-0.011690761 0.0020890369 -0.00804659 0.011161104 0.0068487786 0.019733056 -0.0103449905 -0.0055135842
-0.018337462 0.022458998 -0.019659953 0.008647288 -0.0031707427 -0.017740674 0.025890319 0.024053616
-0.007725229 0.024125522 -0.01542276 0.004825057 0.020089751 8.1682265e-05 0.017622745 0.016264573
-0.009460734 0.007619845 0.0018223593 0.008095732 0.025491271 -0.001967648 0.018929213 0.0044732187
0.010641109 0.00029080504 -0.0134632485 -0.016956558 0.011292808 0.002778697 0.025448132 0.01443825
-0.021763882 0.0007934474 0.026742943 -0.020387165 0.0047604605 0.017086348 -0.0142644765 0.021619841
0.0018817824 0.012096077 -0.019761885 -0.0069877356 0.0059359707 0.025942968 0.016450442 0.0130043505
0.005618088 -0.009297416 0.013375125 0.02847314 -0.01961282 0.0059410203 -0.013067294 0.018290672
-0.017489944 -0.010494501 0.026179286 0.01628333 0.024072886 0.008255012 -0.0028066868 0.005230792
0.007260215 0.019317117 0.023049355 0.01431896 0.0025000898 -0.0050780787 0.0076365247 0.024172006

pre_quantum_fc.bias f4 [4]
00000000: aa96 95bb 7e8d bdbb 1087 c53a 118e c8bb
-0.0045650797 -0.0057846894 0.0015070159 -0.0061204513

post_quantum_fc.weight f4 [10, 1]
00000000: 337d 3a3f eead 233f 9e0e 233f 44dd cfbe
00000010: f08f 11be 9029 07bf c26e 9bbe 1f14 64bf
00000020: 0abd fa3e 022c f2bc
0.7284729 0.6393727 0.6369418 -0.405985 -0.14215064 -0.52797794 -0.3035794 -0.890932
0.4897235 -0.029562

post_quantum_fc.bias f4 [10]
00000000: bba3 54be 2050 7e3f 86fe 28bf cd2b 673d
00000010: 0b5f f5be 6709 503f bec0 413f d28c ccbc
00000020: e00c 353f 1d06 e73e
-0.20765583 0.9934101 -0.6601337 0.056438256 -0.47924075 0.81264347 0.75684726 -0.024969492
0.7072277 0.45121852
