hybrid_cnn_mnist_weights_v5.0.pth (torch, 105089 bytes, 8 tensors)

conv_stack.0.weight f4 [32, 1, 3, 3]
0.06698717 0.21145253 0.27902845 -0.025249016 0.22776893 -0.06779799 0.31053078 0.28092024
-0.24236046 -0.28303838 0.00048339207 0.15397333 -0.28723463 0.07886917 -0.06026844 0.20223513
-0.10441388 -0.09363832 0.23958772 0.32109645 0.14504877 0.3167877 -0.096217714 0.12811162
0.2516264 0.0900232 -0.23825905 -0.26014206 0.07942924 0.26871586 0.25534472 -0.29654393
0.32935873 -0.30899477 0.22409141 -0.19164997 -0.30457845 -0.20436524 0.10856024 0.12434031
-0.09882693 -0.12685142 0.2749591 -0.24780612 -0.08502244 -0.2668838 0.19796585 0.22559665
-0.20506161 -0.111845225 0.17511982 -0.0015963995 -0.15381509 -0.32432735 -0.031150673 -0.31222266
-0.2570159 0.04532096 0.31468618 -0.33274263 0.24416772 0.28784823 0.29486606 -0.1043627
-0.27694082 0.20497607 0.2833512 0.21768245 0.08960269 -0.21706718 0.105124965 -0.017779564
0.2045248 -0.10649219 -0.09559468 0.16894603 -0.14153159 -0.020931374 -0.061514083 -0.14443713
-0.1547779 0.146685 0.25323105 0.21697576 0.027476523 0.032679792 0.24859385 0.052128397
-0.12507886 -0.11946155 0.19405805 0.18307199 -0.18212758 -0.0917265 -0.0985694 0.27446285
-0.16434586 -0.13607539 0.25787863 -0.339098 -0.24103524 0.21616343 -0.0052859695 0.055755056
0.26770794 -0.16175744 0.29383627 -0.24053833 -0.07102657 0.2050359 0.24870226 0.098383896
-0.24242 -0.13997842 -0.17964023 -0.18124485 0.17241174 -0.114169575 -0.18370917 0.2447648
-0.06059985 -0.034898028 0.22273657 -0.3269232 0.27265 -0.2433042 0.074626476 0.20079648
-0.032178648 -0.33458647 -0.2556064 -0.23644611 -0.23277837 -0.14257835 -0.26994982 0.08441233
0.24367182 0.21574803 0.29696923 -0.25242165 -0.26360753 0.231371 -0.2704394 -0.09452373
0.2760112 -0.28019792 0.020956675 -0.27353936 -0.17889692 0.031196335 0.1850543 -0.03658781
-0.028913282 -0.040488478 0.026177477 0.046019334 -0.18351835 -0.19517846 -0.009887259 -0.24062182
-0.2807126 -0.06882242 -0.1702624 -0.31538478 -0.26453292 -0.29397544 -0.3044289 0.19947709
0.17623529 0.17550364 0.22859761 -0.012641862 -0.17117064 -0.31252274 -0.018866474 -0.25725034
-0.122366935 -0.04417602 0.24497856 -0.016977822 -0.120130844 0.12884015 -0.0039384095 -0.046186134
-0.21777774 -0.07924068 -0.32181448 -0.25592667 -0.11334896 -0.19184245 0.0145490505 -0.090149485
0.29028055 -0.27178878 -0.027177053 -0.0105155995 -0.002277839 -0.29263964 0.33456764 0.20161524
0.19400781 -0.3093989 -0.019723406 -0.06416748 0.1789772 -0.018548213 -0.09208686 0.17227553
0.09484259 0.24113187 -0.18108563 -0.26699618 0.2436284 -0.31022373 0.12767419 -0.16853598
0.081886604 -0.014215563 -0.20528263 -0.25079456 0.20204356 -0.2269318 -0.1609559 0.27816537
-0.15156645 0.31661898 -0.14986432 0.29655984 0.050389677 -0.18664445 0.31959417 0.11009715
0.11698 0.27861178 0.06354651 0.0657456 -0.17520608 -0.09037041 -0.22271995 -0.33046427
-0.033781942 0.3313306 0.053651776 0.2896533 0.26959687 0.1796096 -0.079791486 0.055552658
-0.0023070206 -0.19988993 -0.2838542 -0.2684155 0.16694777 0.13317873 -0.010519719 -0.00537972
00000000: 9230 893d 0387 583e d1dc 8e3e 06d7 cebc
00000010: 423c 693e acd9 8abd e4fd 9e3e c7d4 8f3e
00000020: 572d 78be 68ea 90be c96f fd39 2fab 1d3e
00000030: 6b10 93be 2986 a13d 0adc 76bd ba16 4f3e
00000040: f2d6 d5bd 73c5 bfbd 7c56 753e c166 a43e
00000050: aa87 143e ff31 a23e cb0d c5bd b12f 033e
00000060: 2dd5 803e 155e b83d 2efa 73be 5731 85be
00000070: ccab a23d 2095 893e 8bbc 823e 9bd4 97be
00000080: b5a1 a83e 9034 9ebe 3878 653e e43f 44be
00000090: b5f1 9bbe 1f45 51be d554 de3d 22a6 fe3d
000000a0: c665 cabd 57e5 01be 70c7 8c3e e3c0 7dbe
000000b0: 3f20 aebd fea4 88be 8fb7 4a3e cf02 673e
000000c0: acfb 51be 1c0f e5bd 9c52 333e 473e d1ba
000000d0: b481 1dbe 3c0e a6be b22f ffbc a6db 9fbe
000000e0: 9797 83be 79a2 393d 8c1e a13e 3e5d aabe
000000f0: 1a07 7a3e d860 933e aff8 963e 1cbc d5bd
00000100: 30cb 8dbe 3fe5 513e 6913 913e 26e8 5e3e
00000110: 9d81 b73d dc46 5ebe c24b d73d 73a6 91bc
00000120: f36e 513e 9418 dabd 25c7 c3bd 3000 2d3e
00000130: a8ed 10be 4678 abbc 31f6 7bbd 54e7 13be
00000140: 197e 1ebe 9834 163e 80a7 813e e52e 5e3e
00000150: 7216 e13c 3fdb 053d 638f 7e3e 9684 553d
00000160: ac14 00be 42a8 f4bd 27b7 463e 3977 3b3e
00000170: a77f 3abe 1adb bbbd c1de c9bd 6586 8c3e
00000180: 484a 28be 5957 0bbe ab08 843e 419e adbe
00000190: f1d1 76be f259 5d3e ed35 adbb 6a5f 643d
000001a0: 0411 893e bea3 25be b571 963e ae4f 76be
000001b0: 6176 91bd eef4 513e ceab 7e3e 7f7d c93d
000001c0: f33c 78be 8156 0fbe 9cf3 37be 4098 39be
000001d0: b48c 303e bdd1 e9bd 421e 3cbe a0a3 7a3e
000001e0: 8c37 78bd 3cf1 0ebd 0e15 643e 7a62 a7be
000001f0: c898 8b3e bc24 79be c4d5 983d 989d 4d3e
00000200: c2cd 03bd eb4e abbe d8de 82be ee1e 72be
00000210: 745d 6ebe 0f00 12be dd36 8abe 5fe0 ac3d
00000220: 1b85 793e 0ded 5c3e 5a0c 983e 693d 81be
00000230: 91f7 86be 85ec 6c3e 0877 8abe a895 c1bd
00000240: 5751 8d3e 1a76 8fbe 55ad ab3c 5a0d 8cbe
00000250: c130 37be 758f ff3c e07e 3d3e 19dd 15bd
00000260: 8cdb ecbc 3fd7 25bd 2672 d63c c57e 3c3d
00000270: 3cec 3bbe dddc 47be 2cfe 21bc 9165 76be
00000280: 90b9 8fbe c5f2 8cbd 4459 2ebe 1d7a a1be
00000290: dc70 87be f383 96be 1bde 9bbe b943 4c3e
000002a0: 0677 343e 3ab7 333e 7e15 6a3e d01f 4fbc
000002b0: 5b47 2fbe fb02 a0be dd8d 9abc 51b6 83be
000002c0: 849b fabd eaf1 34bd a9db 7a3e 1315 8bbc
000002d0: 2907 f6bd acee 033e c60d 81bb ac2d 3dbd
000002e0: 2101 5fbe f048 a2bd dec4 a4be d208 83be
000002f0: 8023 e8bd 5972 44be 245f 6e3c 4ba0 b8bd
00000300: a79f 943e e627 8bbe 69a2 debc 9f49 2cbc
00000310: cc47 15bb ddd4 95be 734c ab3e 3a74 4e3e
00000320: fca9 463e 8869 9ebe fb92 a1bc 3d6a 83bd
00000330: cd45 373e 6cf2 97bc 0998 bcbd ff68 303e
00000340: d53c c23d 46eb 763e 836e 39be b9b3 88be
00000350: b979 793e a5d5 9ebe 06bd 023e b294 2cbe
00000360: 2ab4 a73d 65e8 68bc 9c35 52be 2568 80be
00000370: 82e4 4e3e cf60 68be a0d1 24be b16b 8e3e
00000380: 3c34 1bbe e21b a23e 0876 19be b1d6 973e
00000390: 6865 4e3d b91f 3fbe d9a1 a33e 9d7a e13d
000003a0: 3693 ef3d 34a6 8e3e ac24 823d a1a5 863d
000003b0: 3969 33be 1f14 b9bd b310 64be 9d32 a9be
000003c0: ef5e 0abd 2aa4 a93e f7c1 5b3d 704d 943e
000003d0: 9a08 8a3e 94eb 373e b869 a3bd 2f8b 633d
000003e0: 6231 17bb f2af 4cbe 5655 91be c26d 89be
000003f0: 5bf4 2a3e 0160 083e e65a 2cbc 5d48 b0bb

conv_stack.0.bias f4 [32]
-0.17294899 0.20074423 0.15188551 0.20763242 0.03477174 -0.057147235 0.3407655 0.17108491
0.2743332 -0.27659735 -0.078490935 0.15301432 -0.092522375 -0.11873806 -0.1904207 -0.014882866
0.2103504 0.08524364 -0.13937435 -0.07387437 0.08486344 0.16354664 -0.046548665 0.13190629
0.0154608 -0.1724124 0.030100992 -0.06938734 0.329507 0.21119381 -0.10174782 -0.18748844
00000000: 8a19 31be e58f 4d3e e087 1b3e 989d 543e
00000010: d06c 0e3d 3813 6abd d178 ae3e e230 2f3e
00000020: 6775 8c3e 2b9e 8dbe dbbf a0bd c9af 1c3e
00000030: 5f7c bdbd f12c f3bd a5fd 42be 44d7 73bc
00000040: 1866 573e 3894 ae3d 26b8 0ebe 724b 97bd
00000050: e2cc ad3d c578 273e d0a9 3ebd 7112 073e
00000060: 4c4f 7d3c e08c 30be 5b96 f63c f31a 8ebd
00000070: 24b5 a83e 3143 583e 2961 d0bd f8fc 3fbe

conv_stack.3.weight f4 [64, 32, 3, 3]
0.038722556 0.055822846 -0.0058277617 -0.030979166 0.053689413 0.023567654 0.02069756 0.03449067
0.04632366 -0.045167603 0.050562583 0.06195405 0.03407963 -0.020380594 -0.032790743 -0.0013919405
0.060207028 0.069504686 -0.008595508 0.029711585 -0.018824786 0.05929282 0.01472875 -0.021396888
-0.02853053 -0.030006988 -0.026293904 0.0017482259 0.00976692 -0.0242174 0.026245467 0.015284759
0.013010686 -0.02273345 -0.002787549 -0.00541279 0.06374835 0.06477779 0.047677964 0.06085807
-0.0004868575 -0.037127476 -0.0367649 0.031787686 0.030586937 0.0027417603 0.031120697 0.06371942
0.03959947 -0.03320624 0.046029117 0.051719844 -0.025136912 0.067647494 0.03147222 -0.02466126
0.03656117 0.013415401 0.03460479 0.060537685 0.015207145 0.05330325 -0.044834916 0.04133088
0.036973845 0.031252924 -0.022351012 -0.020816026 0.031347834 0.01343771 -0.0009860575 -0.04693876
0.042854387 -0.008347004 0.046192482 0.03537482 -0.0016465986 0.06963209 0.06423684 0.009469671
-0.03273935 -0.033685226 0.039995845 0.044634964 0.05628696 0.018327873 0.05531468 -0.0044292975
-0.038326547 0.028247274 -0.0026820726 -0.027825547 -0.04581131 -0.022627838 -0.011783439 0.016025735
-0.044536818 0.031588707 0.028436916 0.04747034 -0.0015967622 -0.046512686 0.01792147 0.011898519
0.055382125 -0.009711336 -0.02022285 0.007839221 0.050111495 0.033872362 0.008690503 0.020778859
0.023990171 0.026288873 -0.013721681 0.017108414 0.038387194 0.06873445 0.054215036 0.04070306
0.040839847 0.05296652 -0.03287502 -0.0067770844 -0.02187418 0.009652916 0.0668513 -0.004968916
-0.040711157 0.027124126 0.06961349 -0.013938655 0.05044685 0.03297996 0.01711124 -0.03916045
0.04865825 0.054138593 -0.013614618 -0.035616014 -0.04315342 -0.0309461 0.06225456 0.054507192
-0.009136279 -0.008876456 -0.04127479 -0.04396665 0.045259356 0.059016887 0.039637484 0.005948282
-0.009326068 0.0027021277 0.023014486 -0.011886016 -0.034263805 0.043242022 -0.028699022 -0.0037285169
0.040034067 0.05923093 -0.019464845 -0.005470494 -0.023667678 0.019800149 -0.044244483 0.037206512
-0.029515779 0.012917402 -0.028713724 -0.04621949 0.04602689 0.051336244 0.06671338 -0.044335276
0.04916427 0.009251459 0.010382621 -0.019816333 0.043424148 0.004853223 -0.032379664 -0.03983817
-0.017110238 0.011187017 -0.03248515 0.057609264 -0.03334426 -0.027114574 0.016650314 0.047336616
-0.036365498 -0.009734262 -0.02824101 -0.041030936 -0.011239932 -0.028600506 -0.0010174625 0.055089455
0.067768976 0.05785852 0.05406579 0.044332556 -0.023112351 0.057874843 0.041594982 -0.010295224
0.012322455 -0.0005643788 0.017633148 0.029907951 -0.011303868 0.04612708 0.044952318 -0.031596392
0.056088265 -0.010397299 0.020911524 -0.046917655 0.023527108 0.042592905 0.03892004 0.03682611
0.02447729 0.051320422 -0.03147813 0.020880347 0.06948021 -0.014823439 0.0048864027 0.0007437165
-0.037265133 -0.025056362 0.01908293 -0.0025328523 0.036494855 0.035399117 0.014433052 0.02841928
-0.032083638 0.041431595 -0.0054843733 0.05527272 0.062637046 -0.013533932 0.024542604 0.026853366
0.00883898 -0.03863622 -0.02570223 0.05559003 0.052732546 -0.012607243 0.05870326 0.028417328
00000000: 8b9b 1e3d 7fa6 643d cff6 bebb 05c8 fdbc
00000010: 6ee9 5b3d f410 c13c ee8d a93c 1746 0d3d
00000020: e1bd 3d3d aa01 39bd b61a 4f3d 88c3 7d3d
00000030: 1597 0b3d 34f5 a6bc 964f 06bd c671 b6ba
00000040: a59b 763d 7958 8e3d 2cd4 0cbc b665 f33c
00000050: 7036 9abc 07dd 723d db50 713c 8748 afbc
00000060: dcb8 e9bc 37d1 f5bc 5066 d7bc ba24 e53a
00000070: 6e05 203c 9263 c6bc bc00 d73c ed6c 7a3c
00000080: c62a 553c 803b babc 50af 36bb c65d b1bb
00000090: 7f8e 823d 38aa 843d f849 433d 5046 793d
000000a0: e840 ffb9 fb12 18bd cb96 16bd ce33 023d
000000b0: 7591 fa3c 1baf 333b d5f0 fe3c 547f 823d
000000c0: 0e33 223d 4403 08bd 0789 3c3d 30d8 533d
000000d0: edeb cdbc c58a 8a3d 04e9 003d 6906 cabc
000000e0: 2ac1 153d 45cc 5b3c c1bd 0d3d 5df6 773d
000000f0: 6427 793c 8254 5a3d d1a4 37bd 924a 293d
00000100: e371 173d 1103 003d 7819 b7bc 5f86 aabc
00000110: 9666 003d d729 5c3c 993e 81ba db42 40bd
00000120: 1588 2f3d dfc1 08bc 5434 3d3d 30e5 103d
00000130: aed2 d7ba 459b 8e3d 9b8e 833d ae26 1b3c
00000140: b219 06bd 85f9 09bd afd2 233d 27d3 363d
00000150: 288d 663d 5624 963c a591 623d a423 91bb
00000160: 4cfc 1cbd d466 e73c b6c5 2fbb 67f2 e3bc
00000170: a4a4 3bbd 045e b9bc 530f 41bc 6748 833c
00000180: 3d6c 36bd 2963 013d 89f4 e83c 4270 423d
00000190: 734a d1ba 1684 3ebd 0cd0 923c 01f2 423c
000001a0: 5ed8 623d 4c1c 1fbc 64aa a5bc 1370 003c
000001b0: b641 4d3d bfbd 0a3d 9d62 0e3c 6d38 aa3c
000001c0: 0987 c43c c35b d73c e7d0 60bc f226 8c3c
000001d0: e43b 1d3d a6c4 8c3d 9610 5e3d 40b8 263d
000001e0: af47 273d 6cf3 583d f5a7 06bd 4e12 debb
000001f0: 7b31 b3bc 4427 1e3c 56e9 883d 4ad2 a2bb
00000200: bec0 26bd 6a33 de3c 8491 8e3d f55e 64bc
00000210: 5ba1 4e3d ff15 073d df2c 8c3c b566 20bd
00000220: e04d 473d 6ec0 5d3d d90f 5fbc 19e2 11bd
00000230: a4c1 30bd ad82 fdbc a3fe 7e3d ef42 5f3d
00000240: 55b0 15bc 8e6e 11bc c10f 29bd 6016 34bd
00000250: e061 393d b1bb 713d ea5a 223d cee9 c23b
00000260: 5dcc 18bc 2e16 313b e088 bc3c 90bd 42bc
00000270: 3458 0cbd 8c1e 313d 361a ebbc 225a 74bb
00000280: c3fa 233d 229c 723d bd74 9fbc d441 b3bb
00000290: b8e2 c1bc ec33 a23c b439 35bd db65 183d
000002a0: 13cb f1bc 83a3 533c 0b39 ebbc a650 3dbd
000002b0: b186 3c3d f445 523d 06a1 883d e898 35bd
000002c0: 7960 493d 6e93 173c de1b 2a3c dd55 a2bc
000002d0: 85dd 313d c907 9f3b 8aa0 04bd 592d 23bd
000002e0: c52a 8cbc c049 373c 260f 05bd b1f7 6b3d
000002f0: fe93 08bd 621f debc 3d66 883c 0ae4 413d
00000300: fdf3 14bd 747c 1fbc b159 e7bc 0e10 28bd
00000310: b127 38bc 9c4b eabc 605c 85ba 7ba5 613d
00000320: 76ca 8a3d 0efd 6c3d 1774 5d3d 0e96 353d
00000330: 1d56 bdbc 2c0e 6d3d 805f 2a3d 4dad 28bc
00000340: 1fe4 493c d2f2 13ba 6473 903c 8501 f53c
00000350: dc33 39bc c0ef 3c3d ec1f 383d 386b 01bd
00000360: cfbc 653d 6f59 2abc a54e ab3c ba2c 40bd
00000370: ecbb c03c e675 2e3d 9f6a 1f3d fad6 163d
00000380: 9984 c83c 5d35 523d 36ef 00bd 430d ab3c
00000390: a44b 8e3d 02de 72bc 1e1e a03b f8f5 423a
000003a0: 53a3 18bd 0043 cdbc ce53 9c3c 36fe 25bb
000003b0: a17b 153d aafe 103d 9c78 6c3c 8dcf e83c
000003c0: 226a 03bd 2db4 293d 42b6 b3bb a665 623d
000003d0: da47 803d 6dbd 5dbc 920d c93c 97fb db3c
000003e0: 5fd1 103c 0341 1ebd 7c8d d2bc 5fb2 633d
000003f0: 15fe 573d 9c8e 4ebc d472 703d 75cb e83c

conv_stack.3.bias f4 [64]
-0.014901562 0.0045482023 0.054948326 -0.009882983 0.029300936 -0.02581167 0.03530165 -0.05576159
0.052985787 0.018210433 0.0067809136 0.055657875 0.04968298 0.023706993 0.049403574 0.016681392
-0.043110076 -0.033220362 0.02435318 0.010184087 -0.023387916 -0.053544477 0.06556904 -0.010315208
-0.036737572 0.028524494 0.036479905 0.03253313 -0.030372448 0.06303696 0.05671786 0.026765566
-0.0033391134 -0.033404015 0.015037436 0.047479663 0.032096144 -0.039998565 -0.037906285 -0.051466465
-0.0127905365 0.049299974 0.01573432 0.03889933 -0.027582055 -0.028639112 -0.03173289 0.04557385
0.028986149 0.02494635 0.008126333 0.025563715 -0.014271199 -0.007147259 0.041511614 -0.03976521
0.04867945 -0.041451555 -0.047436684 -0.016731977 0.0006923584 0.010502267 0.060571905 -0.025007367
00000000: ae25 74bc 1609 953b 7f11 613d 3cec 21bc
00000010: 8408 f03c ff72 d3bc 7798 103d 4466 64bd
00000020: a007 593d 0c2e 953c 6d32 de3b 83f9 633d
00000030: 6180 4b3d 2b35 c23c 675b 4a3d 6aa7 883c
00000040: 3194 30bd 1312 08bd 5280 c73c 28db 263c
00000050: 0498 bfbc 7451 5bbd 1049 863d 1e01 29bc
00000060: 237a 16bd 33ac e93c f46b 153d 7641 053d
00000070: a4cf f8bc 8619 813d fd50 683d 7643 db3c
00000080: 07d5 5abb a6d2 08bd 945f 763c 097a 423d
00000090: 3f77 033d 89d5 23bd 9f43 1bbd 80ce 52bd
000000a0: 668f 51bc c5ee 493d 43e5 803c e754 1f3d
000000b0: c3f3 e1bc 929c eabc 59fa 01bd a5ab 3a3d
000000c0: 5c74 ed3c 4a5c cc3c 5024 053c ff6a d13c
000000d0: bfd1 69bc 8e33 eabb 1508 2a3d d8e0 22bd
000000e0: 1a64 473d 1bc9 29bd f84c 42bd 8011 89bc
000000f0: 637f 353a b311 2c3c 3f1a 783d 40dc ccbc

pre_quantum_fc.weight f4 [4, 1600]
-0.010016538 0.023708608 0.028380418 0.02305114 0.00429692 0.016868692 0.032883413 0.029313277
0.030011997 0.022410909 0.013959621 0.008583621 0.004585569 -0.0017898454 -0.0050244373 0.016436882
-0.011643507 0.00011434055 0.01907469 -0.009264774 0.015080381 0.031096334 0.015394202 -0.0063341255
-0.010794283 0.020755783 -0.012812899 0.022082344 0.026857035 0.024808683 -0.032444388 0.02329104
0.026756333 0.027960256 0.03276818 -0.003762431 -0.009987905 -0.009492351 -0.007889884 0.02698554
0.018762488 0.030369293 0.026109478 0.006449252 0.019947013 0.025976311 -0.0048993505 0.018161163
-0.00090963615 -0.00027313834 0.033884604 0.015293748 0.02781689 0.02482712 0.031288896 0.009470041
0.014564703 0.0036097143 8.150607e-05 0.025131043 -0.007041771 0.014898958 -0.008592658 0.02914267
-0.0003898499 -0.005510283 -0.006068592 0.012038519 0.0190352 0.023864506 -0.0018916767 0.03484779
-0.0040671662 0.008155402 0.02254686 0.019013235 -0.0118360175 0.02055277 -0.009935767 0.028279053
0.0027558056 0.034284826 0.03123648 0.034962237 0.021448733 0.027844021 0.026336407 -0.01021543
-0.010715081 0.024261754 0.015534845 0.018597424 -0.0054648044 0.015680948 0.023896916 -0.008025388
0.023238419 0.0016510069 -0.007237256 -0.01310748 0.026128303 0.0017159359 0.024612365 0.006703481
-0.006578571 -0.0067919493 0.012930108 0.023471646 0.026170228 0.014183858 -0.0016910433 -0.011341981
-0.014336152 -0.013432062 0.027330155 0.02816684 -0.00511342 0.009370834 0.023162132 0.015558174
0.03477984 0.004646379 -0.009165471 -0.008752157 0.03297271 0.027785506 0.0074438998 -0.011586337
0.030121753 0.03510904 0.019669134 0.010585289 0.031591363 0.032384243 0.0013003637 -0.005979667
0.0013594293 0.010996988 -0.008525694 0.016751885 -0.0022187263 0.03203799 0.03369387 0.020385018
0.018237624 -0.011332534 0.009270288 -0.005707654 0.032202415 0.0043513943 0.0017187301 -0.013587568
0.014839925 -0.0056861294 0.0071980287 0.015776142 0.03333354 -0.011459283 -0.011502968 -0.0011838526
0.025954235 0.034777775 -0.00029258273 -0.011099849 0.017267948 0.033546325 -0.004543824 -0.008235534
0.017221738 0.008877351 -0.012504617 -0.0051563634 0.018408392 0.0098887645 -0.006679296 0.007374794
-0.013167523 -0.0036314344 0.0037674303 0.008385115 0.0089191925 -0.010125958 0.006371169 0.016362939
0.0033176825 0.00867446 0.0040577236 0.013182231 0.021212954 0.011364489 -0.0083637955 0.01557026
-0.004952234 0.015255568 0.01736476 0.017594695 -0.008360271 0.020044371 0.025439762 0.02462496
0.011309844 0.017474001 0.0008650717 -0.0031687354 0.025905846 0.008800029 0.0053801266 0.022578513
0.018759858 -0.008158277 -0.016331166 -0.013116258 -0.00037984265 0.02586823 -0.004892814 -0.021895925
-0.009148322 0.011752949 0.022103816 0.021453973 -0.01474658 -0.011625396 0.007660367 -0.0060045053
0.027095346 0.022498656 0.0033133226 0.016156664 0.027922554 -0.010796561 -0.000985078 0.020855343
-0.013418614 -0.00942011 0.0045409673 0.010144125 0.013136768 0.005556639 0.00054988824 0.0284594
-0.006082433 0.022806453 0.008009137 0.016337521 0.026588399 -0.009105748 0.02909421 0.025354678
0.033720754 0.016376415 0.006686737 0.0046915705 -0.014642183 0.01024948 -0.0077962354 0.0057803513
00000000: 681c 24bc 8e38 c23c 0d7e e83c bfd5 bc3c
00000010: 2dcd 8c3b 3630 8a3c c2b0 063d 6622 f03c
00000020: b8db f53c 1597 b73c e5b6 643c 51a2 0c3c
00000030: 8a42 963b 3f99 eaba 09a4 a4bb a4a6 863c
00000040: 68c4 3ebc 1eca ef38 8642 9c3c 47cb 17bc
00000050: b413 773c bdbd fe3c f737 7c3c 7f8e cfbb
00000060: 81da 30bc 0808 aa3c 32ed 51bc 08e6 b43c
00000070: 4903 dc3c 943b cb3c 68e4 04bd dacc be3c
00000080: 1930 db3c e80c e53c ed37 063d 1e93 76bb
00000090: 4fa4 23bc ce85 1bbc 9244 01bc c710 dd3c
000000a0: cab3 993c 06c9 f83c 8be3 d53c 3f54 d33b
000000b0: eb67 a33c 46cc d43c bb8a a0bb b8c6 943c
000000c0: a674 6eba 0234 8fb9 95ca 0a3d a192 7a3c
000000d0: 3fe0 e33c 3f62 cb3c c928 003d 3b28 1b3c
000000e0: cba0 6e3c f590 6c3b 3dee aa38 9edf cd3c
000000f0: a8be e6bb c21a 743c 38c8 0cbc 9cbc ee3c
00000100: c564 ccb9 9b8f b4bb 0adb c6bb 353d 453c
00000110: b5ef 9b3c 7f7f c33c 23f2 f7ba 8ebc 0e3d
00000120: dd45 85bb 3c9e 053c 31b4 b83c a5c1 9b3c
00000130: dbeb 41bc 485e a83c a1c9 22bc 79a9 e73c
00000140: bf9a 343b 3f6e 0c3d a6e3 ff3c 9034 0f3d
00000150: 41b5 af3c 2519 e43c 73bf d73c 9e5e 27bc
00000160: 4f8e 2fbc 96c0 c63c dd85 7e3c a059 983c
00000170: 1a12 b3bb 5575 803c 77c3 c33c eb7c 03bc
00000180: 7f5e be3c 9966 d83a 8126 edbb c1c0 56bc
00000190: 060b d63c 41e9 e03a df9f c93c e0a8 db3b
000001a0: 0e91 d7bb 008f debb ced8 533c 9c47 c03c
000001b0: f262 d63c 6a63 683c ffa5 ddba b7d3 39bc
000001c0: 2ee2 6abc 2712 5cbc 7de3 df3c 25be e63c
000001d0: 7a8e a7bb 2088 193c 83be bd3c b6e7 7e3c
000001e0: 4e75 0e3d a740 983b c62a 16bc 3565 0fbc
000001f0: 640e 073d 6e9e e33c f5eb f33b 9fd4 3dbc
00000200: e5c1 f63c 7fce 0f3d 2a21 a13c ec6d 2d3c
00000210: f265 013d 57a5 043d f770 aa3a 15f1 c3bb
00000220: e12e b23a b62c 343c 5aaf 0bbc 403b 893c
00000230: 0d68 11bb 443a 033d 9502 0a3d 7bfe a63c
00000240: 1267 953c 18ac 39bc 68e2 173c 4607 bbbb
00000250: aee6 033d 2496 8e3b 0347 e13a 649e 5ebc
00000260: 2823 733c b652 babb 71dd eb3b f83c 813c
00000270: c088 083d b7bf 3bbc f276 3cbc 802b 9bba
00000280: fa9d d43c 2473 0e3d ca65 99b9 24dc 35bc
00000290: 8375 8d3c df67 093d 5ce4 94bb 55ee 06bc
000002a0: 9a14 8d3c 4f72 113c 2ae0 4cbc b6f6 a8bb
000002b0: 32cd 963c 7c04 223c ffdd dabb 42a8 f13b
000002c0: 98bc 57bc 5cfd 6dbb fee6 763b b961 093c
000002d0: ce21 123c 59e7 25bc 3dc5 d03b 920b 863c
000002e0: 7a6d 593b 531f 0e3c a7f6 843b 49fa 573c
000002f0: cac6 ad3c 1f32 3a3c 4d08 09bc 671a 7f3c
00000300: 5a46 a2bb 7df2 793c 8b40 8e3c c022 903c
00000310: 85f9 08bc 1834 a43c 0c67 d03c 49ba c93c
00000320: ed4c 393c a325 8f3c fbc5 623a 8faa 4fbb
00000330: 7f38 d43c ff2d 103c c64b b03b 93f6 b83c
00000340: 46ae 993c 4baa 05bc f0c8 85bc 93e5 56bc
00000350: 9e25 c7b9 9ce9 d33c e653 a0bb 155f b3bc
00000360: d8e2 15bc 718f 403c 1013 b53c 3ec0 af3c
00000370: a49b 71bc 7278 3ebc d103 fb3b 71c1 c4bb
00000380: 0ff7 dd3c 1a4f b83c 5424 593b fb5a 843c
00000390: d7bd e43c 0fe4 30bc bc1d 81ba d3d8 aa3c
000003a0: bfd9 5bbc ce56 1abc 65cc 943b 8b33 263c
000003b0: 993b 573c 7714 b63b 6026 103a b023 e93c
000003c0: 254f c7bb 99d4 ba3c c138 033c 44d6 853c
000003d0: eacf d93c 4630 15bc fb56 ee3c 9db4 cf3c
000003e0: c61e 0a3d d527 863c 6a1c db3b bfbb 993b
000003f0: c4e5 6fbc 6fed 273c 9077 ffbb 1a69 bd3b

pre_quantum_fc.bias f4 [4]
0.01702986 -0.002491268 -0.0031526987 -0.0073303203
00000000: 3482 8b3c 8b44 23bb 829d 4ebb 2f33 f0bb

post_quantum_fc.weight f4 [10, 1]
-0.93120235 0.075439416 -0.96116024 -0.0757002 0.1373313 -0.41173738 0.7162531 0.6117448
-0.38037542 0.5163343
00000000: 4763 6ebf fb7f 9a3d 990e 76bf b508 9bbd
00000010: 94a0 0c3e 3ecf d2be 5d5c 373f 4f9b 1c3f
00000020: 91c0 c2be 7c2e 043f

post_quantum_fc.bias f4 [10]
-0.3451384 -0.22033153 0.29365942 0.6947342 -0.26880378 -0.2828181 -0.00414095 -0.3717996
-0.18031837 -0.9320325
00000000: fbb5 b0be 979e 61be 875a 963e 1ada 313f
00000010: a6a0 89be 89cd 90be ceb0 87bb 845c bebe
00000020: 61a5 38be af99 6ebf
