hybrid_cnn_mnist_weights_v2.0.pth (torch, 104648 bytes, 8 tensors)

conv_stack.0.weight f4 [32, 1, 3, 3]
00000000: c930 873d bda7 573e 3750 8f3e dbcd edbc
00000010: 22f7 673e 28b3 89bd 3037 9d3e 9e06 8f3e
00000020: 06da 79be bc9f 90be cde3 ae39 59bf 213e
00000030: 739d 93be 3474 9d3d eb8b 7abd 179b 4c3e
00000040: 6228 d9bd bf97 c2bd db69 733e 7e80 a23e
00000050: ff9e 143e 31d9 a13e 6a04 c8bd 0688 003e
00000060: 36a0 813e 68c7 bb3d df8e 71be efa4 80be
00000070: 3d52 a23d 4798 883e 5ddd 853e 93ce 97be
00000080: f26d a73e f32b 9abe 8bf5 623e 9cfc 46be
00000090: 032e 9bbe f3f3 4fbe 1a26 e03d f41d 013e
000000a0: ae18 c8bd 5157 01be 39a8 8d3e 73d1 7cbe
000000b0: 5f36 adbd 7992 88be 8b8c 483e cdfb 663e
000000c0: f6a3 51be f2bf e5bd f31a 323e a321 70ba
000000d0: 81d2 1cbe 86a9 a4be be09 fabc 302d 9fbe
000000e0: b9f8 82be c921 233d 1258 9b3e 0ff1 aabe
000000f0: 8695 773e 052e 923e a4a8 963e 2221 d2bd
00000100: 7b55 8ebe 5f59 563e e750 953e ff03 5e3e
00000110: 881f b23d f188 60be 7a83 d03d d249 a9bc
00000120: 7960 4b3e b6f2 dabd f21f c3bd fa1a 2d3e
00000130: 556a 10be 8bf0 a4bc 6d3d 77bd e0d3 12be
00000140: a28e 1dbe 190a 143e 7b4e 833e 5e0e 623e
00000150: 34fc e33c 04b4 1b3d a7b9 7e3e c301 523d
00000160: a6cd ffbd 9afe f1bd d099 393e d463 3e3e
00000170: 98b2 36be a12c bdbd 8b65 cbbd d94b 8e3e
00000180: ccc6 27be bc52 09be c3c8 893e ff7b adbe
00000190: fa93 76be 6e80 4f3e 81c1 aebb be24 533d
000001a0: 2785 833e af02 29be 631d 903e 9e79 83be
000001b0: 03ae 8dbd b974 623e 7e9e 803e 3ca1 c73d
000001c0: b6c1 79be 27eb 13be b378 38be 644c 39be
000001d0: a82e 253e 78e9 ebbd 15ab 3dbe d8b5 7f3e
000001e0: b617 7cbd 8a35 12bd 1e76 683e 4f38 a8be
000001f0: 46ae 8a3e 8bde 79be 84f1 863d 5b08 443e
00000200: a311 2abd ed25 acbe a904 84be e058 78be
00000210: 5498 6ebe 1926 10be 8b31 89be 307e af3d
00000220: 8921 783e 2ed5 553e b1d0 983e cee7 81be
00000230: 3e27 87be 3497 793e d11d 8abe fd63 bfbd
00000240: b1c7 8d3e d123 8fbe 8bc8 af3c db97 8bbe
00000250: 3dd6 36be ea49 003d 01dc 3c3e bccf 17bd
00000260: 8d1e eebc 67be 22bd 9f45 db3c f58f 3f3d
00000270: f5bd 3abe afd5 46be 8ed4 13bc 8231 75be
00000280: 4f39 8fbe d34a 8bbd 2dfd 2ebe f4ab a1be
00000290: e9b4 88be be10 97be 7725 9dbe 8498 493e
000002a0: 77d9 303e 974d 303e 7c93 673e 4387 4bbc
000002b0: fcde 2ebe 4abe 9fbe 5811 99bc 7e87 83be
000002c0: aca6 f9bd 6406 35bd 5fcf 7a3e 7183 89bc
000002d0: 0567 fbbd 44f6 013e 9d53 6abb 6763 43bd
000002e0: cb48 60be 8a34 a4bd 8688 a5be 70f6 83be
000002f0: a553 e9bd 04da 41be acf6 6f3c 8a00 bebd
00000300: 6067 973e f79e 8cbe 5e5a f4bc ca1d 8cbb
00000310: 65b2 a2bb 7e78 97be b975 aa3e 5d4d 4d3e
00000320: effa 473e 2065 9ebe e810 25bc fc35 61bd
00000330: da4d 323e 4cb6 82bc a9a9 bbbd 01aa 2f3e
00000340: 0684 c03d b3dd 743e 743a 39be 3967 88be
00000350: eb27 7a3e b78f 9ebe c79f 033e a86c 2bbe
00000360: 846b a83d 22f8 5bbc cc3a 51be b819 80be
00000370: f8c5 4f3e 8991 67be 28e1 23be c3e8 8e3e
00000380: ac61 1abe 3220 a03e e4b4 1cbe 4ff3 973e
00000390: e0f0 413d 3311 40be 4d96 a33e 9689 e23d
000003a0: b9ff ee3d fd66 8e3e 4f2e 7a3d 3c55 863d
000003b0: e807 33be a36a c1bd e37d 66be 9219 a9be
000003c0: c1e6 27bd 144a a63e 7ad4 583d 8bae 933e
000003d0: e960 893e 1bbc 363e fdd4 a8bd 7fcf 313d
000003e0: 8e81 9fba 4e7a 4dbe fecd 90be b1fa 88be
000003f0: 717f 273e 0f20 053e 93e7 36bc f02b b5bb
0.06601102 0.21060081 0.27990887 -0.029028824 0.22652867 -0.067236245 0.30706167 0.27934736
-0.24399576 -0.28246868 0.0003335759 0.1579565 -0.28831062 0.076881796 -0.061168592 0.19981037
-0.106034055 -0.095015995 0.2377085 0.31738657 0.14513777 0.31611016 -0.09766467 0.12551889
0.25317544 0.09168893 -0.23589657 -0.25125834 0.07925842 0.26678678 0.2614545 -0.2964979
0.3270107 -0.30111656 0.2216398 -0.194323 -0.30308542 -0.20307903 0.10944767 0.12609082
-0.09770332 -0.12630965 0.27667406 -0.24689274 -0.08457636 -0.2667425 0.19584863 0.22556992
-0.20472702 -0.11218251 0.17393093 -0.00091602857 -0.15314676 -0.32160586 -0.030522224 -0.31089163
-0.25580385 0.039827142 0.3034063 -0.33387038 0.24178132 0.28550735 0.29425538 -0.10260226
-0.2779959 0.2093253 0.29163286 0.21681212 0.0869742 -0.21927239 0.10181327 -0.020665083
0.1986102 -0.10690825 -0.095275775 0.16904822 -0.14103062 -0.020134231 -0.060361315 -0.14338636
-0.15386441 0.14456977 0.25645813 0.22075793 0.02783022 0.038013473 0.24875508 0.05127121
-0.12490396 -0.118161395 0.18125081 0.18592769 -0.17841566 -0.09237028 -0.09931477 0.27792242
-0.16384429 -0.13410467 0.26910982 -0.33883664 -0.24079886 0.20263836 -0.005333126 0.051548712
0.25687525 -0.1650493 0.2814742 -0.25678724 -0.06917956 0.22114839 0.2512092 0.0974755
-0.24390301 -0.14445172 -0.18014793 -0.18095547 0.16131079 -0.1151914 -0.18522294 0.24971712
-0.06154605 -0.03569559 0.22701308 -0.3285546 0.27086085 -0.244013 0.06589034 0.19143812
-0.041520726 -0.33622685 -0.25784805 -0.24252653 -0.23300296 -0.14077033 -0.2679561 0.0856899
0.24231543 0.20882103 0.2984672 -0.25372165 -0.26397127 0.24374086 -0.26975873 -0.09345243
0.27691415 -0.27957013 0.021457931 -0.27264294 -0.17855163 0.03132049 0.184433 -0.037063345
-0.029067302 -0.039732363 0.026766596 0.046768147 -0.18236525 -0.19417451 -0.009022845 -0.23944667
-0.2797341 -0.06801381 -0.17088766 -0.31576502 -0.26700523 -0.2950496 -0.30692646 0.19687086
0.17270456 0.17217098 0.22614855 -0.012422386 -0.1707725 -0.31199867 -0.018685028 -0.2568931
-0.12189993 -0.044195548 0.24493168 -0.016786309 -0.12275509 0.12691599 -0.0035755404 -0.04770222
-0.21902768 -0.080178335 -0.32330722 -0.25773954 -0.11392907 -0.18930823 0.0146462135 -0.092774466
0.29571056 -0.2746503 -0.029828247 -0.004276012 -0.004965114 -0.29584116 0.3329294 0.20049043
0.19529317 -0.30936527 -0.010074832 -0.054983124 0.1741251 -0.015956067 -0.091632195 0.17154695
0.094001815 0.23912697 -0.18088704 -0.26641253 0.2442929 -0.3096902 0.12853919 -0.16740668
0.08223632 -0.013425859 -0.20432585 -0.25019622 0.20290363 -0.22614111 -0.16003859 0.27911958
-0.15076321 0.31274563 -0.1530338 0.29677817 0.047348857 -0.18756561 0.31950608 0.11061399
0.11669869 0.2781295 0.06107932 0.06559226 -0.17483485 -0.094441675 -0.2250896 -0.3302732
-0.04099155 0.32478392 0.05293701 0.28844103 0.2683175 0.17845194 -0.08243749 0.043410774
-0.0012169348 -0.20066187 -0.2828216 -0.26753762 0.16357209 0.1300051 -0.01116361 -0.0055289194

conv_stack.0.bias f4 [32]
00000000: d73b 34be 14fb 4c3e 95e4 1a3e 2af0 543e
00000010: ce83 0a3d f6ea 6dbd c5d3 ad3e 6aae 2b3e
00000020: 61e9 8b3e 187a 8bbe 33a7 9dbd fd32 1e3e
00000030: e8a6 bcbd 1642 f0bd c397 3dbe 0e8e 59bc
00000040: 8954 563e c79d ac3d b897 0ebe f675 98bd
00000050: f7b3 b03d 6f66 233e 6181 42bd 5a69 063e
00000060: 975c 703c 4a74 30be 8652 f13c 454c 8fbd
00000070: e633 a83e f660 573e de11 d2bd 0b13 41be
-0.17600952 0.20017654 0.1512626 0.2079474 0.033817105 -0.058085404 0.3395063 0.16765752
0.2732649 -0.27241588 -0.07697906 0.15449138 -0.09211522 -0.11731355 -0.18514924 -0.013278497
0.20930685 0.08428531 -0.13925064 -0.07444374 0.086280756 0.15957044 -0.047486667 0.13126126
0.014670513 -0.17231861 0.029458296 -0.06996969 0.32852095 0.21033081 -0.10257314 -0.1885492

conv_stack.3.weight f4 [64, 32, 3, 3]
00000000: d1f5 173d ea6b 5b3d 0dc1 03bc 1c5b 05bd
00000010: 0d91 543d 9b26 b73c 0613 9a3c 3595 073d
00000020: 9527 393d 7af2 3fbd d330 483d a56d 783d
00000030: 3a5c 053d 0ddb b3bc 8e57 0dbd 5f42 2fbb
00000040: 6b89 703d 6040 8b3d 12f8 23bc bac4 e23c
00000050: fc1c abbc 827a 6b3d 3ede 563c 1a07 bbbc
00000060: 2cbf f9bc 35b0 02bd 5f52 e3bc b361 8939
00000070: 0728 023c 4e60 d5bc 8dcf ca3c 09ce 613c
00000080: ed48 3b3c 3f7c c7bc 6515 86bb dca1 e3bb
00000090: 1bde 7e3d f713 823d 521e 3f3d 32b9 723d
000000a0: f87e 03bb 81f4 1ebd e9b0 1bbd 568a f83c
000000b0: 4080 ee3c 6c77 a03a a282 f03c bc9c 7e3d
000000c0: 99e5 1c3d fafc 0dbd b23c 363d 0242 4e3d
000000d0: f13b dabc 684e 873d d64c f43c 1a63 d4bc
000000e0: 0c24 113d 7a40 383c 215c 053d 66b7 713d
000000f0: 2b8d 5c3c edb9 523d 1d24 3fbd 829b 233d
00000100: 5473 103d c7f4 f13c 0463 c6bc 382e b8bc
00000110: 8771 f33c 3325 3d3c 4889 25bb 1481 47bd
00000120: bf12 293d f2eb 20bc 3e58 363d 96dd 0a3d
00000130: 1913 51bb 994a 8b3d cc8c 803d 7af9 023c
00000140: 433c 0cbd 009c 0ebd 997c 1a3d c795 2b3d
00000150: eaba 5e3d f1b9 883c ade2 5b3d 33bf dabb
00000160: c06b 26bd 3f71 d93c 3bf2 7ebb 892c e9bc
00000170: 09ed 42bd 80a3 c6bc 2c41 54bc 8199 6a3c
00000180: 3a55 3fbd 014d f63c 0caa db3c e780 3b3d
00000190: 50ea 5cbb 3fce 44bd 982a 853c d018 293c
000001a0: 2f89 5b3d 695b 36bc 370e b0bc 6a46 cd3b
000001b0: e390 493d f942 033d f0b8 d53b 767a 9e3c
000001c0: f6e3 b63c 1287 c23c c0cf 7ebc 9c5a 803c
000001d0: 1ca0 163d 2ea2 893d 0a74 573d f57c 203d
000001e0: 3be6 213d fe35 543d 453a 0cbd b5d1 06bc
000001f0: 7368 babc 19e3 053c 1acd 853d fb3e d6bb
00000200: fb13 2dbd 67b9 d33c 7d6c 8b3d b165 81bc
00000210: 692e 493d 9acf 003d a30f 7e3c 2313 28bd
00000220: 8c23 3e3d a595 553d fed6 79bc b5a9 19bd
00000230: 9f4d 38bd 2bf4 05bd 8e37 783d cecb 593d
00000240: b403 30bc 7fd3 26bc 69c9 2dbd 2265 3abd
00000250: d400 333d ad13 6a3d c6df 1c3d 40c2 923b
00000260: 3694 31bc f157 9c3a 38d1 af3c faa2 5cbc
00000270: 3c87 11bd 025a 2b3d 5b49 f8bc 4819 a5bb
00000280: d800 1e3d d25b 6c3d 603f aebc 5d68 e5bb
00000290: e832 cbbc deb3 943c a4d3 3bbd d2cc 103d
000002a0: dcab fbbc 2ac8 3d3c ac74 f9bc fe02 44bd
000002b0: fd90 373d 80a3 4d3d 7340 853d f933 3cbd
000002c0: cf47 423d 7a68 013c 956d 123c 29c3 afbc
000002d0: 3098 2b3d f1a6 573b 7c56 0bbd af74 28bd
000002e0: 4f0b 98bc b1d6 1b3c 3e7b 0abd 0fe6 653d
000002f0: 92f7 0ebd 55a9 eabc 7843 7a3c 8187 3c3d
00000300: 7706 1bbd 12a3 38bc ca4c f4bc a79f 2dbd
00000310: c894 50bc 255d f6bc fb54 ecba 734e 583d
00000320: 1492 863d 637d 673d 0c58 563d 4c20 2d3d
00000330: bddc cdbc b316 653d 4c34 243d f223 3dbc
00000340: 542b 2d3c 0d19 27bb 6fcf 863c eb81 e93c
00000350: 58a9 55bc 240f 363d 8631 323d b1a4 07bd
00000360: 7432 5f3d 4c99 3dbc f0fb a13c bf2f 46bd
00000370: d721 b43c 2c5e 283d 07f1 193d a539 113d
00000380: 202a bd3c 17b2 4c3d 6792 07bd a145 9b3c
00000390: 02bb 8b3d b062 82bc fc27 703b 2add 8eba
000003a0: ffcb 1ebd ef04 d9bc 3e81 8e3c 31e3 73bb
000003b0: b394 103d 4003 0a3d 13d7 4d3c d05d da3c
000003c0: 674b 09bd a5a3 233d 2b2d e8bb 4712 5d3d
000003d0: cabe 773d b90c 85bc effa bd3c 7aa6 cd3c
000003e0: 6ef2 d53b 3cc2 27bd 2251 e2bc 856c 5c3d
000003f0: 217a 523d 9ad4 6abc 1b03 6a3d 9511 dc3c
0.037099663 0.05356971 -0.008041632 -0.03255759 0.051896144 0.022357276 0.0188079 0.03310128
0.045203764 -0.046862103 0.048874687 0.06065144 0.032558657 -0.021955037 -0.034507327 -0.002674244
0.058724802 0.06799388 -0.010007875 0.027681697 -0.020887844 0.05748988 0.01311451 -0.022830535
-0.030486666 -0.031906325 -0.027749239 0.00026203468 0.007944114 -0.026046898 0.024757171 0.013782033
0.011430961 -0.024351237 -0.004091906 -0.0069467854 0.062223535 0.06351464 0.046659775 0.059258647
-0.0020064693 -0.038807396 -0.03801051 0.030339401 0.029113889 0.0012242622 0.029359166 0.062161192
0.0383049 -0.034665085 0.044491477 0.05035592 -0.02663991 0.06606752 0.029821794 -0.025926162
0.035434768 0.011245841 0.032558564 0.059012793 0.013461391 0.051446844 -0.0466653 0.039943226
0.035266235 0.029535664 -0.024217136 -0.022482976 0.02971722 0.0115445135 -0.0025258828 -0.048707083
0.041277643 -0.009821879 0.044517748 0.033902727 -0.0031902252 0.06801338 0.06276855 0.00799405
-0.034237158 -0.034816742 0.03771648 0.041890886 0.054377474 0.016690226 0.05368297 -0.0066756248
-0.040630102 0.026543258 -0.0038901705 -0.028463619 -0.047589336 -0.024247885 -0.012954991 0.014318825
-0.046712138 0.030066015 0.026814483 0.045777228 -0.0033708997 -0.048048254 0.016255662 0.010320857
0.053597625 -0.011130192 -0.021491153 0.0062644975 0.04921044 0.032046292 0.0065222904 0.019345503
0.022325497 0.023746047 -0.015552461 0.015668206 0.036773786 0.067203864 0.052600898 0.03918167
0.039526206 0.051809303 -0.034235258 -0.008228709 -0.022754883 0.00817182 0.06533261 -0.0065382696
-0.042255383 0.025845243 0.06807802 -0.01579556 0.049116526 0.031447984 0.015506658 -0.041033875
0.04642062 0.052144665 -0.015249012 -0.03751536 -0.0449959 -0.03270356 0.060599856 0.05317288
-0.01074307 -0.010182261 -0.042428408 -0.045506604 0.04370196 0.05714767 0.038299344 0.004478723
-0.010838559 0.0011928064 0.021462068 -0.013466591 -0.03552936 0.041833885 -0.030308416 -0.005038414
0.038575023 0.057704754 -0.021270454 -0.0070009665 -0.024804547 0.018152174 -0.045856133 0.035351582
-0.030721597 0.011583367 -0.030451141 -0.047854416 0.044816006 0.050204754 0.06506433 -0.045948002
0.047431763 0.007898444 0.008937259 -0.021455364 0.041893184 0.0032905901 -0.034018025 -0.041126903
-0.01856008 0.009511636 -0.03380894 0.056127604 -0.03490407 -0.028645197 0.015274875 0.046027664
-0.037847962 -0.011269348 -0.029821772 -0.042388584 -0.012730785 -0.030073712 -0.0018030697 0.05280919
0.06570831 0.056516062 0.05233006 0.04226713 -0.02512967 0.05592985 0.040088937 -0.011544215
0.010569412 -0.002549711 0.016456334 0.028504333 -0.013040863 0.044448033 0.04350426 -0.033116046
0.054491475 -0.011572193 0.019773453 -0.048385378 0.021988792 0.041105434 0.037583377 0.035455365
0.023091376 0.049974527 -0.033098605 0.0189541 0.06822778 -0.015916198 0.0036644926 -0.0010899652
-0.038768765 -0.02649161 0.017395612 -0.0037214274 0.03529806 0.033694506 0.012563485 0.026656061
-0.033519175 0.039950985 -0.0070854626 0.05397251 0.060484685 -0.016241418 0.023190944 0.025103796
0.006529144 -0.04095672 -0.027626578 0.05381443 0.051386002 -0.014332915 0.057131868 0.026863853

conv_stack.3.bias f4 [64]
00000000: b7b3 86bc 39de 4e3b 6dbc 5a3d 521b 36bc
00000010: 5db6 e33c 9c73 e0bc 80f2 0f3d 9c1a 46bd
00000020: e88f 7f3d 1c0b 8a3c 68c1 b53b 2783 643d
00000030: db15 463d 6b6a b93c 7547 443d fe3d 923c
00000040: e57f 29bd f680 0ebd b6f1 bd3c 8bdd cc3c
00000050: 0657 b3bc ea3e 54bd 1a3f 843d 56ff 33bc
00000060: 4f14 1cbd 486f e33c 4f2d 103d cd5d 003d
00000070: 4020 f3bc e20d 7d3d 1909 543d 5c9e 1a3d
00000080: bb87 98bb ab30 0abd 3f71 233c 344e 3f3d
00000090: 9be1 fc3c cff8 26bd c877 d8bc fb7c 19bd
000000a0: 2131 45bc aa61 3c3d 63b5 703c 7f0d 1f3d
000000b0: c26f e3bc 33b6 e4bc 4e81 00bd 1d9f 2c3d
000000c0: 1f1f e23c eb6a e83c 731d e93b 378d c43c
000000d0: dec3 81bc 6752 0ebc c692 243d 0bb1 23bd
000000e0: 2b3b 593d 2b34 30bd e9e1 47bd 92c5 96bc
000000f0: 6cd3 59ba 0f73 c63b 2fbe 743d bfba d3bc
-0.016443117 0.003156556 0.053402353 -0.011114912 0.027796919 -0.027398877 0.035143375 -0.04836522
0.0623931 0.016851 0.0055467375 0.05578914 0.048360687 0.022633752 0.04791971 0.017851826
-0.041381735 -0.034790955 0.023186546 0.025007984 -0.021892082 -0.051817812 0.06457348 -0.01098617
-0.038105305 0.027763024 0.03519946 0.031339455 -0.029678464 0.061780818 0.05176649 0.03774868
-0.004654852 -0.03373782 0.00997573 0.04670544 0.030869296 -0.040764626 -0.026424304 -0.037472706
-0.012035639 0.045991577 0.014691683 0.03883123 -0.027763251 -0.02791891 -0.031373315 0.04214393
0.02760273 0.028371295 0.0071141063 0.023993118 -0.015840467 -0.008686638 0.040179037 -0.039963763
0.053034943 -0.0430185 -0.04879943 -0.018404756 -0.00083093974 0.0060561965 0.059751686 -0.025845883

pre_quantum_fc.weight f4 [4, 1600]
00000000: 5def 3dbc 5a04 b83c ea1c e23c 3fbf af3c
00000010: 1115 103b f70a 7f3c c720 023d fda3 e23c
00000020: 1efa eb3c 6840 a63c 8e1b 4c3c 91ef e63b
00000030: ac1e 713b f8bd 40bb 590c e2bb 7364 763c
00000040: 8a2a 5ebc e7db 8fba 7d03 8e3c 1f78 2bbc
00000050: 00a4 5c3c 93cd ef3c e417 673c 61e6 f5bb
00000060: b390 4cbc fb02 be3c b517 38bc 9b49 a83c
00000070: 21e9 d63c 2589 ca3c b621 89bc d00d d33c
00000080: 04bf e43c 1c42 d93c 0600 fd3c b8f0 95ba
00000090: dfa0 b7bb e5aa 0ebc 30db 13bc 8e30 0d3d
000000a0: 04b1 9d3c 8b2f f43c 3f7b bf3c 8550 c03b
000000b0: 65ef aa3c b690 d63c 257a e7bb 3abf 963c
000000c0: 8422 11bb fd67 e2b9 44cf 053d f60e 683c
000000d0: 18bf d93c a786 c23c b575 f73c 25af 063c
000000e0: 4d89 583c 45de 1d3b c221 98ba 660c c23c
000000f0: 93ef 07bc d434 5c3c fe3d 1fbc afbc e43c
00000100: 67a2 bbba 27d6 debb c102 efbb 54f1 323c
00000110: d166 923c f752 bb3c 9ba7 4fbb 7e54 093d
00000120: 22f6 afbb 1f67 e63b 55ff ab3c 3ab2 9a3c
00000130: c9f5 54bc 2ee9 9b3c 1117 39bc fc26 dd3c
00000140: b565 823b 53eb 073d 044a fa3c 4fd3 083d
00000150: 7ba5 a23c 4e73 d83c b67a c73c 4472 3ebc
00000160: 768c 44bc a6be bd3c 8583 643c e052 8d3c
00000170: 81cd e2bb 8d84 783c 7cc6 b53c 7454 21bc
00000180: 6bbf b23c 873a 8b38 f217 0ebc 698e 6bbc
00000190: 9153 cb3c 31cd de39 894c c03c e2bd ba3b
000001a0: 93e9 00bc fd17 06bc 04fd 3e3c 2d71 b73c
000001b0: ef77 cd3c 3013 573c c367 44bb 90a3 4cbc
000001c0: fcce 7cbc 1cb1 6cbc e805 d73c 3e3c dc3c
000001d0: 710e cfbb 45dd 093c b955 b63c 3e71 6c3c
000001e0: d417 093d 15e7 613b 5c42 26bc 338e 20bc
000001f0: c496 023d 25df d83c 3bb7 ca3b 92ee 4dbc
00000200: 54fe ed3c 4460 0b3d a298 953c c03d 1d3c
00000210: 6c1f f93c 4bfc ff3c 6523 ba39 812e eebb
00000220: 4d0a 21b9 a599 203c b87d 1bbc 575e 7f3c
00000230: b559 6dbb c901 fb3c 4603 063d 9bb0 9b3c
00000240: 7112 8c3c 99ad 4fbc f147 043c 94a8 e9bb
00000250: 15be ff3c 1791 553b 9768 f93a 3726 81bc
00000260: f19a 6a3c a3a9 cfbb fbc3 b73b bc17 6c3c
00000270: 6d71 053d 2c41 3fbc 9944 54bc 1cb5 4cbb
00000280: c220 c53c b53f 0c3d 4230 c9ba 5022 40bc
00000290: 88a1 8e3c cc94 013d fd0f 97bb 04a6 0bbc
000002a0: 536c 893c 4633 ee3b 482b 49bc 0566 c8bb
000002b0: cd3d 8f3c e2bf 0c3c 3a1f 11bc 53cb d43b
000002c0: 87cc 8738 c295 8cba 2f44 ba3b 0eb1 323c
000002d0: 38c5 2c3c ac90 d9b8 a9a1 153c 56a6 943c
000002e0: 5c5f 6b3b 290d 5f3c 6888 f83b b0f5 573c
000002f0: 7084 cb3c 233f 723c f69f 3a3b 354e aa3c
00000300: 5819 86bb 5599 653c 5a35 d73c 6b7b ad3c
00000310: e67c 16bc 269f 8e3c b85a e33c 36cc dd3c
00000320: ee8f a93b d99c cb3c 1bcc 1e3b e8cf 7f39
00000330: 63d9 b83c ec56 6a3c 877b 4e3b c4d0 b63c
00000340: 7757 993c c900 0dbc a19a 2cbc 8844 61bc
00000350: 2c7c 46ba 22ba d03c c53e a4bb ce07 7bbc
00000360: c1ec 10bc bd1b 413c 9903 b03c 8ad8 b83c
00000370: af46 1bbc f362 37bc 4e63 f83b 20da d3bb
00000380: d6c0 e83c bb2d ad3c 88fe f63a 9d80 743c
00000390: ff8c d83c 7dae 4bbc 8668 1abb 22a1 a13c
000003a0: 02b3 6dbc d581 37bc 3de6 513b 83ee 0f3c
000003b0: 47e0 473c 7d60 8c3b 99aa 55ba 2196 da3c
000003c0: 65f4 01bc 1cca ae3c 288d e73b 966a 713c
000003d0: c68a cd3c f930 30bc 14fa e23c c93a c33c
000003e0: 38d3 033d fa57 743c 670d ac3b d413 5c3b
000003f0: 8d46 80bc 7432 163c e339 15bc d891 8c3b
-0.011592713 0.022463012 0.027601678 0.021453498 0.0021985213 0.015566579 0.03176954 0.027666086
0.028805789 0.020294383 0.012457741 0.0070476015 0.0036791964 -0.0029410105 -0.0068984446 0.015038597
-0.013559947 -0.001097557 0.017335648 -0.010465651 0.013466835 0.02927283 0.014104817 -0.00750427
-0.012485671 0.02319478 -0.011236121 0.02054291 0.026234211 0.024723599 -0.016739707 0.025763422
0.027923115 0.026520781 0.0308838 -0.0011439538 -0.005603894 -0.008707737 -0.009024426 0.034470133
0.019249447 0.029807827 0.023374198 0.0058689737 0.020866105 0.02619205 -0.0070641213 0.01840173
-0.0022145817 -0.00043183556 0.032668367 0.014163723 0.026580378 0.023745848 0.030207494 0.008220469
0.013216329 0.0024088782 -0.001160674 0.023687553 -0.008296865 0.01344033 -0.00971937 0.027922003
-0.0014315367 -0.0068004313 -0.0072940295 0.010921795 0.017871292 0.02286671 -0.0031685594 0.033527844
-0.0053699175 0.007031336 0.020995775 0.018883813 -0.012998053 0.019032087 -0.011297003 0.026996128
0.0039794096 0.033183407 0.030552872 0.033404645 0.019854298 0.026422169 0.024350505 -0.011623923
-0.011996379 0.023162197 0.013947372 0.017251432 -0.0069214706 0.015168321 0.022189371 -0.009846795
0.02181979 6.638938e-05 -0.008672701 -0.014377215 0.024820121 0.0004249602 0.023473995 0.0056989053
-0.007868188 -0.00818443 0.011657003 0.022392834 0.025081603 0.013127133 -0.0029969073 -0.012490168
-0.015430208 -0.014446523 0.026247934 0.026884194 -0.00631886 0.008414571 0.022257673 0.014431296
0.03346999 0.003447001 -0.010147657 -0.009799528 0.031882063 0.026473591 0.0061863936 -0.012569087
0.029051937 0.034027353 0.018261258 0.009597242 0.03041049 0.031248232 0.00035503056 -0.0072687273
-0.00015357994 0.009802257 -0.009490423 0.015586457 -0.00362168 0.0306405 0.032717966 0.01900511
0.017098637 -0.012675666 0.008073793 -0.007130692 0.031218568 0.00325877 0.0019028363 -0.015765293
0.0143191675 -0.006337361 0.0056080795 0.014409956 0.032578874 -0.011673253 -0.012955808 -0.003123588
0.024063472 0.034240443 -0.0015349465 -0.011726931 0.017411008 0.031636044 -0.0046100602 -0.008523468
0.016775286 0.007269296 -0.012278385 -0.0061156773 0.017485524 0.00859067 -0.008857543 0.0064939647
6.475398e-05 -0.0010725784 0.0056843976 0.010906471 0.0105450675 -0.000103743136 0.009132781 0.018145721
0.0035914993 0.0136139775 0.0075846203 0.013181135 0.024843425 0.014785561 0.0028476692 0.020789245
-0.0040923767 0.014013608 0.026270557 0.021177014 -0.009185052 0.017409872 0.027753219 0.027074914
0.0051746285 0.024855064 0.0024230543 0.00024396146 0.022564596 0.01430295 0.0031506734 0.022316344
0.018718464 -0.008606144 -0.010534913 -0.013749249 -0.00075716036 0.02547938 -0.0050123655 -0.015321685
-0.008845509 0.0117863985 0.02148609 0.022564191 -0.0094773015 -0.011193025 0.0075801974 -0.0064652115
0.028412264 0.02113997 0.0018844167 0.014923242 0.02643442 -0.012431738 -0.0023560836 0.019730154
-0.014508011 -0.011200388 0.0032028102 0.008784893 0.012199468 0.0042839632 -0.0008150726 0.026682915
-0.007931803 0.021336608 0.0070663877 0.014734885 0.025090586 -0.0107538635 0.027707137 0.023831742
0.032183856 0.014913553 0.005250621 0.0033581154 -0.015658641 0.009167302 -0.00910804 0.004289847

pre_quantum_fc.bias f4 [4]
00000000: f90e 833c 8ff2 78bb 2f5f 873c 95b6 0fbc
0.01599835 -0.0037986373 0.01652488 -0.008771558

post_quantum_fc.weight f4 [10, 1]
00000000: 7f96 6ebf ffc7 953d d3ec 75bf 420d 96bd
00000010: 1d36 0c3e ec20 d3be 55bd 373f af03 1b3f
00000020: 256e c3be 4cc5 043f
-0.9319839 0.07313537 -0.9606449 -0.073267475 0.13692518 -0.41236055 0.7177327 0.60552496
-0.3816997 0.5186355

post_quantum_fc.bias f4 [10]
00000000: 2323 bcbe 5914 79be d4cc ab3e 9aa8 403f
00000010: 3662 96be ed92 94be ea61 e439 6ab7 d2be
00000020: 4550 36be bb1d 78bf
-0.36745557 -0.24324168 0.3355471 0.75257266 -0.29371804 -0.29018345 0.000435605 -0.4115556
-0.17804058 -0.96920365
