hybrid_cnn_mnist_weights:1.0.pth (torch, 104636 bytes, 8 tensors)

conv_stack.0.weight f4 [32, 1, 3, 3]
000000 b8 aa b9 3d 22 41 05 3e 92 3e 62 3e 6b 65 b2 3e
       0.09065765 0.13013127 0.22094181 0.34843
000010 b9 4d 18 3e ab 37 e3 bb 5e 98 d5 bc 4b 11 cb 3e
       0.14873399 -0.0069341264 -0.02607363 0.3966163
000020 d0 46 38 3e 7b 69 e2 3c 74 1e 9e be 8b 71 d7 bd
       0.17995763 0.027638188 -0.3088261 -0.105197035
000030 46 25 03 be 80 39 2a be c6 60 62 3d 5c 05 05 bd
       -0.12807187 -0.16623497 0.05526807 -0.032475814
000040 55 c6 27 bd 6e 26 a7 be f7 1b ad be 62 53 6b 3e
       -0.04096063 -0.32646507 -0.33810398 0.22981027
000050 cc b6 86 3e 19 c5 0e 3e bd 0c cd 3d e9 71 07 be
       0.26311338 0.13942374 0.10012195 -0.13227047
000060 81 b6 c4 bd ca 3b 96 3e 2f f8 cb be 80 de 88 3c
       -0.09605122 0.2934249 -0.39837787 0.016707659
000070 fc 3f 45 3e a2 37 17 3e 57 05 53 be db bd 76 be
       0.1926269 0.14767316 -0.20607506 -0.24095862
000080 a6 de b1 3e b3 76 a0 3e 8c 90 81 3d 18 c4 c7 3e
       0.3474018 0.3134056 0.06326398 0.39016795
000090 5f d4 9e 3e b9 a9 b8 3e 16 49 d9 3d c1 f5 67 bc
       0.310214 0.36066988 0.10609643 -0.014157713
0000a0 73 23 ba 3d 14 36 b9 be da fd 24 be ca db 95 be
       0.09088793 -0.3617407 -0.16112462 -0.29269248
0000b0 5d 78 35 be 83 22 b2 3e c3 79 2f be c5 04 80 3e
       -0.17721696 0.34791955 -0.17136292 0.2500364
0000c0 03 8b 8e 3e 30 21 82 be 2c 60 d6 3c a2 0b 87 3d
       0.27840433 -0.25415945 0.026168905 0.06594016
0000d0 b7 dc 78 be 58 33 31 3e 1d 32 ce 3d 3d 76 4e be
       -0.24302946 0.17304742 0.10068152 -0.20162292
0000e0 a7 7b 99 3e ac 3f 18 3e 2b ac fe 3d d0 1c aa be
       0.29977152 0.14868039 0.12435182 -0.33225107
0000f0 23 cd 8b 3d bd ff 33 be f9 a7 32 bd 0d f3 8a be
       0.06826236 -0.17578025 -0.043617222 -0.27138558
000100 f3 4e 7c be 0f 29 64 bc 63 00 93 3e f1 80 91 3e
       -0.24639492 -0.013925805 0.28711233 0.28418687
000110 23 3f 48 be 72 9c e1 bd 19 df b7 3e da 20 7f 3e
       -0.19555335 -0.11016168 0.35912398 0.24914876
000120 9d aa 10 3e d4 03 64 be 37 4c 91 3e 0d 1f 14 be
       0.14127584 -0.22267085 0.2837846 -0.1446497
000130 ed db 32 3e f5 63 3c 3e cb 89 2b 3e 4b dc 84 3e
       0.17466708 0.18397506 0.16751783 0.2594932
000140 db 65 17 ba 83 c0 87 3e 3d 81 15 be 8a a3 b4 be
       -0.00057753705 0.26514062 -0.14600082 -0.3528102
000150 b7 32 81 3e 6e 7d 8d 3d 86 af 94 3e 8c 8d 8c 3e
       0.25234005 0.069086894 0.29040164 0.27451742
000160 ce 97 94 be 6f 0d 20 be 4f d8 12 be bc de 1d 3e
       -0.29022068 -0.15630125 -0.14340328 0.15416998
000170 bf 39 7c bc 2d 59 b6 3e 1f 0f 6a 3e f7 8a 46 bd
       -0.015394627 0.3561491 0.2285733 -0.04847237
000180 89 71 04 3e 25 ba 12 3e 65 8d 2e 3e b1 f8 24 3d
       0.12933935 0.14328821 0.17046125 0.040276233
000190 3e f2 73 be 38 c8 ec 38 57 25 c5 3d d2 2b 18 be
       -0.23822877 0.000112906506 0.09626263 -0.14860466
0001a0 69 0a 54 bd 70 2b 1f be c5 43 97 3e 30 e3 9f be
       -0.05176774 -0.15543914 0.29543892 -0.31228018
0001b0 8a b1 96 be 5a 21 4d bd a5 ad ae be ba 2a b3 3e
       -0.29432327 -0.050080635 -0.34116855 0.34993535
0001c0 55 3d af bc 9d 96 09 3d 34 1f a0 3e 6a f4 21 3e
       -0.02139155 0.0335909 0.31273806 0.15815893
0001d0 6a 68 db 3c 95 f4 18 3e e7 a1 85 3e 67 05 3f 3e
       0.026783187 0.1493705 0.26100084 0.18654405
0001e0 4f b7 5e be 70 30 7b 3e a0 31 89 be f2 cf af 3d
       -0.21749614 0.24530196 -0.26795673 0.08584584
0001f0 42 8d 5e 3e e4 f5 9d be be bf 28 be 5d e1 91 3e
       0.21733573 -0.30851662 -0.16479394 0.2849225
000200 25 c4 ba 3d 6c b1 ad 3d 37 a4 3c be 2a cf db bd
       0.09119443 0.08481106 -0.18422018 -0.10732873
000210 13 ca bb bd 08 cd 70 3e 20 be ab 3e 52 1c 9e 3e
       -0.09169402 0.23515713 0.3354349 0.30880982
000220 7e a5 a4 be ea 59 9a be 89 3e b6 bc 68 3a b0 3e
       -0.3215751 -0.30146724 -0.022246616 0.3441956
000230 08 f3 f6 bc e0 d5 26 be 66 74 88 3e 45 41 46 be
       -0.030145183 -0.16292524 0.26651305 -0.19360836
000240 b8 94 9e be 37 9e ed 3d 68 00 ef 3c 60 07 40 3e
       -0.30972838 0.11602443 0.029174998 0.18752813
000250 97 4e b3 3e c3 01 49 3e fa 19 64 3e 69 27 96 bc
       0.35020897 0.19629578 0.22275534 -0.01832934
000260 56 1c 91 be 4c 00 97 be d3 f5 1a 3e 00 5c 03 be
       -0.2834193 -0.29492414 0.15132837 -0.12828064
000270 e9 b1 09 bc 46 e6 5b 3c 64 9b fb bd 63 74 80 3e
       -0.0084042335 0.013421601 -0.12285498 0.25088796
000280 2f ca b6 bd 92 24 61 be 03 45 07 3d 18 7f 85 3e
       -0.08925282 -0.21986607 0.0330248 0.26073527
000290 a9 c1 a9 3e 4b a6 90 3e 8f 73 cc 3b 76 bd 18 bc
       0.33155563 0.2825187 0.0062393616 -0.009322515
0002a0 ea dc ed bd f2 f7 a9 be 00 6b 8d be b4 59 51 3d
       -0.11614402 -0.3319698 -0.27620697 0.05111094
0002b0 56 d1 08 be 98 52 85 be 81 1f cd bd 68 19 64 bc
       -0.13361105 -0.26039577 -0.100157745 -0.013922073
0002c0 cc 50 be bd 4a f6 4e bb d1 97 03 3e b4 ce 8b be
       -0.092927545 -0.0031579905 0.12850882 -0.2730614
0002d0 70 c3 a3 3e b4 8e e7 3d 25 14 dc bd ef 43 9d be
       0.31985044 0.11306515 -0.1074603 -0.30715892
0002e0 87 bc c6 bd e3 e5 06 be 5b d5 60 be 6c 45 1f 3c
       -0.097039275 -0.13173632 -0.21956389 0.009721141
0002f0 f0 06 a9 be 2d 42 0a 3d e9 f0 00 3e c4 0e 6f 3e
       -0.33013105 0.033754516 0.125919 0.23345476
000300 dd 28 2f 3e 06 38 46 3e 64 3e 3d be 9e 66 8f be
       0.17105432 0.19357309 -0.18480831 -0.28007978
000310 d4 bd 42 bd fd 20 83 3e bc 55 0b 3e 89 95 98 3d
       -0.047544315 0.25611106 0.13606924 0.074503966
000320 94 99 03 3e 11 2c f0 bd 64 91 a0 be 57 a8 94 3e
       0.12851554 -0.11727155 -0.31360924 0.29034683
000330 0f 61 39 be 34 be 88 be bc 82 ea bd 5a 49 99 3e
       -0.18103431 -0.26707613 -0.11450717 0.29938775
000340 e0 53 e3 bd 29 50 c5 3e 8d cb 2b 3e 19 58 6f 3e
       -0.11099982 0.3853772 0.16776867 0.2337345
000350 7a ac a1 be 06 46 ab 3c 15 b5 aa be 6a 74 4f be
       -0.31576902 0.020907413 -0.3334128 -0.20259252
000360 1a 26 93 3e 25 ab 05 be 1b b3 50 be df 07 cd 3e
       0.28740007 -0.13053568 -0.20380823 0.40045068
000370 ee b3 be bd 11 af 8b 3e bc 8c 81 3e a7 f9 28 bb
       -0.093116626 0.27282003 0.25302684 -0.002578357
000380 b0 37 72 3e d8 61 d6 bd c5 72 a1 bc 1b d9 28 be
       0.23654056 -0.10467881 -0.019708047 -0.16489069
000390 88 d0 a3 3e fb 70 85 3e 93 a7 e8 3d 5f 66 6a be
       0.31995034 0.2606276 0.11360087 -0.22890614
0003a0 9e 51 9e 3e b4 97 a1 3d 77 12 02 3e d1 ba f0 bd
       0.30921644 0.07890263 0.12702356 -0.117543824
0003b0 f9 31 51 3e 56 a1 22 3e 24 77 91 be 7f 5b 7a bd
       0.2042922 0.15881857 -0.2841121 -0.061122414
0003c0 87 77 53 be af 25 17 be 0b 64 91 be 5c bb a9 3e
       -0.20651065 -0.14760469 -0.2839664 0.33150756
0003d0 7b 6b d5 bd 13 52 1b be e4 cf 6c be 74 43 e3 3d
       -0.10420891 -0.15168028 -0.23126179 0.1109685
0003e0 1b db 81 be 78 63 31 3e b7 70 28 3e ca ea 6f be
       -0.25362477 0.173231 0.16449247 -0.23429409
0003f0 7e f8 ba 3c 9a c7 9f bd ca e3 ac 3e 18 f1 88 3e
       0.022823568 -0.07801743 0.3376754 0.2674644

conv_stack.0.bias f4 [32]
000000 e6 d1 80 be d2 45 1a 3e 75 7f 47 3d 1c 85 95 3d
       -0.2516014 0.15065697 0.048705537 0.07300779
000010 2a b1 8f be c6 56 e5 3d 6e 1c 28 3c 55 4b 78 3e
       -0.28064853 0.11198191 0.010260684 0.24247487
000020 7e b0 36 3e 27 38 39 be 6b 74 50 be b3 42 2e bd
       0.17840764 -0.18087827 -0.2035691 -0.042544078
000030 c6 e8 2e 3d 29 f2 42 be cc 5c a6 3e 33 23 33 be
       0.04270246 -0.1903769 0.32492673 -0.17493896
000040 21 b7 12 be ef b0 49 be 27 46 7c be 02 ab c8 bd
       -0.1432767 -0.19696401 -0.24636136 -0.09798242
000050 59 8a 56 3e 60 db 21 3e e9 ab 5f 3e 9e ba b8 3d
       0.20951213 0.15806341 0.21842922 0.090199694
000060 eb 48 c0 bd 3c db ab 3e 33 2a a1 3e 20 61 34 3e
       -0.09388908 0.335657 0.31477508 0.17615175
000070 a0 38 3e 3d 8d 16 80 bd 68 e4 b6 3e 4a 8e 3e be
       0.04644072 -0.06254301 0.35721135 -0.18608966

conv_stack.3.weight f4 [64, 32, 3, 3]
000000 d4 23 76 3c 57 bf 27 bd 43 95 4f bb 11 d8 47 bd
       0.0150231905 -0.04095396 -0.003167466 -0.04879004
000010 da 1a 3a bc 87 d0 6b bd 58 38 35 bd f2 10 64 3c
       -0.011358941 -0.057571914 -0.044243187 0.013920056
000020 f2 e4 79 bd 89 45 47 bd c8 06 af 3c 2b 1c 30 3d
       -0.061009355 -0.0486503 0.021365538 0.042995613
000030 b2 e2 a6 3c ea bd 9b bc c3 9c 27 bd 22 3f 5e bd
       0.020371769 -0.019011457 -0.040920984 -0.054259427
000040 81 7b 0f 3d 51 4b 1a bd ec 94 87 b8 8f 0e 30 3d
       0.035029892 -0.037669484 -6.4650405e-05 0.042982634
000050 77 a5 88 bd 03 b5 19 3a 62 54 c5 bb eb 93 5b bd
       -0.06672185 0.00058634597 -0.006022022 -0.053607862
000060 ae 59 3f bd 3d 8d db 3c 1f 78 fc 3c fe e9 12 3d
       -0.046716385 0.026800746 0.030818997 0.035867684
000070 6a 1a 54 bd cf 1e 0c 3d 98 6a 8c 3c cf 38 80 3c
       -0.051783003 0.03420907 0.017140672 0.015652088
000080 b6 65 5a bd 39 a2 2d 3d 99 09 5f bc 39 b2 24 bd
       -0.053319655 0.042391036 -0.013613128 -0.04020903
000090 3d 1f 2e bd 44 3a 92 ba ce 73 bb bc 63 ae 20 bd
       -0.04251026 -0.001115628 -0.022882368 -0.039228808
0000a0 fa 2a 3d 3d 7e 6e 8e 3c bc 7a 0a bd c6 d4 1c 3d
       0.046183564 0.017386671 -0.033808455 0.038288854
0000b0 74 dd 7c bb 8a 60 38 bc 42 00 3a 3c 4a 6c b5 bc
       -0.0038584145 -0.011253485 0.0113526005 -0.022146363
0000c0 7c c7 1b bd 77 32 4c 3d 5a 90 1b bd 7c 4a 08 3c
       -0.03803204 0.049852815 -0.03797946 0.00831854
0000d0 d3 d7 04 3c c1 af 88 bd 48 a9 c0 3c 4a 54 1c bd
       0.008108097 -0.066741474 0.02351822 -0.03816632
0000e0 22 73 49 bd 10 a4 41 bd e6 89 61 38 ac b1 2b 3d
       -0.049182065 -0.047275603 5.377261e-05 0.041917488
0000f0 ed c9 4e 3d ca 0c 20 3c 90 5d 81 bd 18 9d 84 bd
       0.05048554 0.009768674 -0.06316674 -0.06475276
000100 0f 09 cb bc 2c ae 19 bd 8b 7e 08 bd 17 e4 87 bd
       -0.024784593 -0.03751962 -0.033323806 -0.066353016
000110 ba 13 04 bd 7e 15 47 3d 61 c0 62 bd 8d 00 ae 3b
       -0.032245375 0.04860448 -0.055359248 0.0053101243
000120 eb 5d 05 bd b4 c7 28 3d 6b 84 a2 3b 95 28 e8 3c
       -0.03256027 0.041206077 0.004959633 0.028339664
000130 25 8a 09 3d 24 1e a5 bc 9c 85 05 bd 7c 24 98 bb
       0.03357901 -0.020155974 -0.032598123 -0.004643021
000140 6c 17 dc bc af 22 1c 3d a3 c7 c5 3b 23 4e 13 3c
       -0.026866637 0.038119014 0.0060357614 0.008990797
000150 00 2d 63 bd b4 f7 84 bd 57 c5 27 3d 42 d1 3c 3d
       -0.055462837 -0.06492558 0.040959682 0.046098
000160 c3 c2 16 3d fa e9 27 bc cc 21 41 bc 46 ff 64 bc
       0.036806833 -0.010248655 -0.011787843 -0.013976878
000170 dc d9 4c 3d 7b 7a a7 bc 2d 53 d5 3c e8 67 9e 3c
       0.050012454 -0.020444145 0.026040638 0.019336656
000180 e2 70 0a 3c ca 1b 17 bd ee ff e3 bb d6 21 28 3d
       0.008449765 -0.036891736 -0.0069579994 0.041047893
000190 84 23 1b bc e2 e5 ae 3c a0 bc 68 bc 68 c2 33 3d
       -0.009468917 0.021349851 -0.014205128 0.043886572
0001a0 4b 2a 94 bc 96 e6 13 3d 0f da 4e 3d 1a ba 03 bd
       -0.018086573 0.036108576 0.050500926 -0.032159902
0001b0 fb c5 6b bd a4 ba 83 bd e0 4d 67 bd 7b 3c 30 bd
       -0.057561856 -0.06432083 -0.05647075 -0.04302643
0001c0 63 19 e9 3c d0 04 0e 3d e1 b3 62 bd 47 ae a3 3c
       0.028454488 0.03467256 -0.055347327 0.019980563
0001d0 19 38 75 3c 05 b5 06 3d e9 7b 59 bd 15 44 0a bd
       0.014966988 0.032887477 -0.053096686 -0.033756334
0001e0 80 2a 12 bd 86 36 90 bc 55 7d 17 3d 5f b3 0e bc
       -0.035685062 -0.017604124 0.03698476 -0.008709758
0001f0 90 ad b2 bc 75 54 b3 3c bb ac 55 3b 3d 0f b6 3c
       -0.021811277 0.021890858 0.0032604176 0.022224063
000200 22 3d 23 bd 39 ca af bc 93 fe 0b 3d 8e 28 20 bd
       -0.039853223 -0.021458732 0.034178328 -0.039101176
000210 ea 14 64 bd a3 a8 d5 bc c8 b9 28 bd d6 e3 de 3c
       -0.055684008 -0.026081389 -0.0411928 0.02720825
000220 63 51 2a 3b 73 22 76 bb 38 97 e3 bc c0 9a 39 ba
       0.0025988452 -0.0037557154 -0.027782068 -0.00070802495
000230 4a 03 de bc 89 d3 34 bd 3f 16 d4 bc b4 e6 fd bc
       -0.027101178 -0.04414705 -0.025889514 -0.030993797
000240 88 5a 43 3d 81 fe 3a bd 2d be 09 bd 8f f7 6e bd
       0.04769376 -0.04565287 -0.03362863 -0.05834156
000250 c1 b7 e5 bb 5f 07 ae bc c5 aa f1 bb eb e7 fa bc
       -0.0070104306 -0.02124375 -0.0073750936 -0.030628165
000260 57 2a 87 bd dd c9 42 bd 21 32 f7 bc 35 e9 d6 3b
       -0.065998726 -0.047555793 -0.03017527 0.006558562
000270 14 39 96 3c ad 47 95 3c 8b 08 15 3d 13 f1 b7 bb
       0.018337764 0.018222654 0.0363851 -0.005613455
000280 c8 9c 42 bd f6 0e 31 bd d8 c3 e7 3c d0 c9 60 bc
       -0.0475128 -0.04322716 0.028291628 -0.013719991
000290 8a 26 08 3d 93 1a 1f bd e9 b6 3b bd 43 9c 3e 3d
       0.03323988 -0.038843703 -0.045828734 0.04653574
0002a0 f5 a1 56 3d d3 b3 8b 3c 08 f9 c0 3c 66 fa 4d 3d
       0.052400548 0.01705352 0.023556247 0.050287627
0002b0 f9 07 2b bd 3d 75 31 3d de 71 c8 bc 8d 42 5e 3d
       -0.04175565 0.043324698 -0.024468359 0.054262687
0002c0 35 58 7a bd eb af c5 3b c4 f7 b6 3b d6 63 2b 3d
       -0.061119277 0.006032934 0.005583735 0.041843258
0002d0 69 99 8a 3c f5 e5 60 bd 67 ab b6 bc 46 b1 f9 3c
       0.016918855 -0.054906804 -0.022298528 0.030480038
0002e0 f2 84 b1 3a 2f 79 e6 3c 13 fc 70 bc f0 3c 10 3c
       0.0013543649 0.028133957 -0.014708537 0.008803591
0002f0 23 4b 97 3c f9 a0 45 3d 2b 2f a2 bc 07 91 62 bd
       0.018468445 0.04824922 -0.019797882 -0.05531409
000300 7a b5 9c 3c 3d 77 96 bc 9b c5 38 bd bd 33 67 bd
       0.019129504 -0.018367404 -0.045110326 -0.056445826
000310 2b 50 c2 3c 8d a8 fa 3c 9b 9b 28 bc ac 0c 20 3a
       0.023719868 0.03059795 -0.0102910055 0.0006105404
000320 3d 2e 96 bc 41 29 44 3b 4b fe 44 3c f5 97 99 3c
       -0.018332595 0.0029931816 0.012023519 0.018749217
000330 12 51 87 bd 7a 90 24 3d 04 50 0f 3d e8 54 82 bc
       -0.0660726 0.040176846 0.03498842 -0.015909627
000340 37 f0 e3 bc 2c f8 28 bd cc 73 5a bd b6 43 22 3d
       -0.027824504 -0.0412523 -0.05333309 0.039615355
000350 3f 55 29 3d d5 e0 f8 bc 38 1a 23 3d cb 8b 36 bd
       0.041341063 -0.030380646 0.039819926 -0.04456691
000360 14 6a 31 bd 75 93 33 3d 4b 3e e4 3c 74 77 60 bd
       -0.043314055 0.043841798 0.027861735 -0.05480142
000370 0c e6 32 3d 86 89 fc bc 61 ae cf 3c eb 69 94 3c
       0.04367642 -0.030827295 0.025351705 0.018116912
000380 c6 ac 24 bc 15 49 50 3b 9b cc 31 bd 3e 0d cc bc
       -0.010050958 0.0031781842 -0.043408018 -0.024908658
000390 9b 07 96 bc c0 c3 58 bd 25 ef 87 bd 76 bc 35 bd
       -0.018314173 -0.052921057 -0.0663741 -0.044369183
0003a0 5d 79 16 3d 99 f8 73 bc c6 78 21 3c 55 d2 37 3d
       0.036736835 -0.014890813 0.009855455 0.044878323
0003b0 64 d0 75 bd 75 18 86 bd 0f 4d 3a bc bd 30 8d bc
       -0.06001319 -0.065476336 -0.011370911 -0.017235154
0003c0 c7 7e 38 bd 92 0f 88 bd 50 34 70 bd 97 9c cd 3b
       -0.04504278 -0.06643595 -0.05864364 0.0062747705
0003d0 b4 e4 99 bb f5 3b 65 bc 20 ab 3b bd 8e d1 25 3d
       -0.004696453 -0.013991346 -0.045817494 0.04048305
0003e0 f0 a1 2e 3d d7 52 60 bc d4 a4 80 bd 4a 73 28 bd
       0.042634904 -0.013691626 -0.062814385 -0.041125573
0003f0 56 f2 f2 bc a3 47 39 bc 67 89 94 bc 36 1b 01 bd
       -0.02965657 -0.011308583 -0.018131925 -0.03152009

conv_stack.3.bias f4 [64]
000000 ad ae 16 bd 3e 13 43 bd 57 33 2a bd 73 e4 11 bc
       -0.036787678 -0.047625773 -0.041552868 -0.008904564
000010 b4 55 ad 3a 88 b6 dc 3c f4 16 8c bd fb 84 05 bd
       0.0013224394 0.026942506 -0.068403155 -0.032597523
000020 ba 74 2b bd 5c 7e dc 3c 2c 7d 05 bd e6 98 15 3d
       -0.041859366 0.026915722 -0.032590076 0.03652277
000030 f4 ff 9f 3c 9c 6b f5 bc ae 3f 0d bd 58 7d 75 bd
       0.019531228 -0.029958539 -0.034484558 -0.05993399
000040 f8 10 e6 3b 0c f9 fe 3c c9 cc 9e 3c a0 aa 29 3d
       0.007021066 0.031124614 0.019384759 0.041422486
000050 cb 98 12 3d 23 2f 10 3d e3 22 02 bd cc c0 fe bb
       0.035790246 0.035201203 -0.03177155 -0.007774448
000060 1f c9 0f 3d 05 7f 68 bd 00 4e 64 bd 5c 62 19 3d
       0.035103913 -0.05676176 -0.05573845 0.03744732
000070 ec c8 00 bb 2a 82 6c 3d e6 8c ea 3c f4 e8 f7 bc
       -0.0019651009 0.05774132 0.028631639 -0.030262448
000080 a1 49 0e 3b 73 53 33 bd 88 a0 b7 3c bc 0b 3d 3d
       0.0021711367 -0.043780755 0.022415414 0.04615377
000090 69 b0 2f 3d 66 db 1b bc 82 ad 6b 3c 6e 81 44 3b
       0.042892847 -0.009512758 0.014384629 0.0029984373
0000a0 bb a5 87 3c 09 e3 f4 3b e7 b2 86 3b 2d 18 53 3d
       0.016558519 0.0074733538 0.0041106823 0.051536728
0000b0 e8 60 4c bd c2 53 59 3d 6d f3 47 3d d8 f9 ae 3c
       -0.049897105 0.053058393 0.048816133 0.02135937
0000c0 b6 b0 13 bd ae 9a 2b bd 34 1e a1 3b c3 f9 49 3d
       -0.036057197 -0.04189556 0.0049169306 0.049310457
0000d0 31 d7 27 3c e9 ec 34 bd d1 ee 1f 3b db 7c 64 3d
       0.010244177 -0.044171248 0.002440382 0.055783134
0000e0 bd 4c 0f 3d 6f 7f 46 3d c3 c1 eb bc 3c 15 c1 bc
       0.034985293 0.048461374 -0.028778916 -0.023569696
0000f0 e5 23 fd 3c 1b 0c 3b 3a 23 0a 78 3d a6 01 a7 bc
       0.030900905 0.0007135288 0.060556542 -0.020386528

pre_quantum_fc.weight f4 [4, 1600]
000000 df 1f 83 bc 8d 12 6c 3b b3 8f 71 bb 2d c5 55 bc
       -0.016006408 0.00360218 -0.0036859333 -0.013047499
000010 44 55 cc bb 9a d6 42 3c 33 66 75 bc 1d db 6e 3c
       -0.0062357504 0.011891985 -0.0149779795 0.014578608
000020 e9 e8 4c 3c 76 07 bc 3c 4d 2c fa 3b 7c 70 b6 3c
       0.012506702 0.022952776 0.0076346756 0.022270434
000030 d7 c5 b5 3c a2 3d 8d 3c 2f ba 75 bc 08 ca c9 3c
       0.022189064 0.017241303 -0.014998003 0.024632469
000040 57 f2 07 3b 0e d5 b6 3c 1b 0f 54 bc ba 79 82 3c
       0.002074381 0.02231839 -0.012943055 0.015927184
000050 07 88 94 3c 1e a1 2a bb 2b b8 45 bc a7 80 dd bb
       0.01813127 -0.0026035975 -0.012067835 -0.0067597213
000060 0f ec e1 3c 47 ef 46 3c 8d 0f 31 bc 8a da 76 bb
       0.027578382 0.012142009 -0.01080693 -0.003766688
000070 cf 35 73 3a e5 52 8d 3c 43 4e 4d 3c d6 02 50 3b
       0.00092777325 0.017251441 0.012530866 0.0031739972
000080 0b b9 b1 3c 69 f7 9a bc 4e 87 04 3c 70 3e fc 3b
       0.02169468 -0.018916802 0.0080889 0.007697873
000090 35 fc a0 3c 1e 39 38 3c 94 89 2c 3c dc 5a 94 ba
       0.019651512 0.011244087 0.010530848 -0.0011318582
0000a0 b4 7f 87 3c a9 35 a9 3c 2d e7 dc bc 58 31 94 3b
       0.016540386 0.02065547 -0.026965702 0.004522484
0000b0 cd 19 a7 3c fa 42 9c 3c 09 ce ac bc fa 86 bc 3c
       0.020398045 0.019074906 -0.021094339 0.02301358
0000c0 e9 ec bb 3c e8 c0 77 3c c1 23 05 bd aa e7 15 3d
       0.022940116 0.015121676 -0.0325048 0.036597885
0000d0 46 82 5a bc 44 35 84 bd 12 72 9a bd e9 e1 58 3b
       -0.013336724 -0.06455472 -0.075412884 0.0033093637
0000e0 a0 d9 19 3d 6e c0 65 3c b6 48 ea bc 61 d7 b0 bd
       0.03756106 0.01402293 -0.028599124 -0.0863483
0000f0 90 37 05 3b 51 d0 20 3d 6a 85 02 bd e2 00 20 3d
       0.0020327307 0.039261166 -0.031865515 0.039063342
000100 c1 57 1a bd d7 1a c1 bc a8 03 50 bb 86 6d 43 bd
       -0.037681345 -0.023572369 -0.003174046 -0.04771187
000110 e7 2e b6 3d 9c 42 ec 3c 31 d1 e4 bc 4d 4a 8a bd
       0.08895665 0.028840356 -0.027931781 -0.06752453
000120 56 cd 29 bd 48 0f b7 3c 72 53 0d 3d 2f fa 70 bb
       -0.04145559 0.022346154 0.034503408 -0.0036770215
000130 03 9f 4e 3b 0f 81 b8 bb 23 57 86 3c 29 de 47 3c
       0.0031527884 -0.0056306194 0.016398972 0.012198963
000140 fc c6 c6 3c 4b 91 97 3b f2 c2 9f 3b fd 6d e6 ba
       0.024264805 0.0046254746 0.004875534 -0.0017580386
000150 2e 6a bd 3c 9c 4f 26 bc 61 61 e4 3c f2 17 0e bc
       0.02312192 -0.010150816 0.027878465 -0.008672701
000160 27 a4 89 bc b8 df a4 3b 12 5a 29 3c 44 aa ca 3c
       -0.016801907 0.005031552 0.010336416 0.024739392
000170 7d 2a 89 3c 65 19 c0 3b b8 49 f5 3c 15 72 89 3c
       0.016743893 0.0058624023 0.029942378 0.016778031
000180 a5 21 bc bb e7 29 8e 3a 38 e2 79 3b 70 48 93 bc
       -0.0057413154 0.0010846228 0.0038129222 -0.017978877
000190 20 e0 94 bc 46 b3 22 bd f7 2f c3 bc e3 f5 4d 3d
       -0.018173277 -0.03972175 -0.023826582 0.050283324
0001a0 06 b4 10 bd c1 56 2c 3c 7c b8 2f bc 74 cf 51 3d
       -0.035327934 0.010518731 -0.010725137 0.051223233
0001b0 93 57 e6 3c e1 3c 64 bd 7f 78 45 bd 7d d4 c2 bd
       0.02811793 -0.05572212 -0.048210617 -0.09513185
0001c0 91 b5 bc bb e3 5f e7 bc 71 07 01 bd ee 38 2b bd
       -0.005758949 -0.028243965 -0.031501237 -0.04180234
0001d0 f7 3f cd 3b 94 9e 69 bd 6e 49 cf 3b c9 cd 91 3d
       0.0062637287 -0.057035998 0.006325892 0.071193285
0001e0 af 66 ab 3c 52 2e ec bc d4 91 33 bd cc d4 f1 3c
       0.020922987 -0.028830681 -0.043840244 0.029520415
0001f0 02 2e 42 3b c0 d7 48 bc 74 7d e8 3c f7 a7 df 3c
       0.0029629474 -0.01225847 0.028380133 0.027301772
000200 66 f7 66 bc 06 89 2d bb 7a 5e 85 3c 5a de 1a 3c
       -0.01409707 -0.0026479377 0.016280401 0.009452427
000210 86 92 49 3c e9 13 2f 3a aa 11 a3 3c c7 e6 e5 3b
       0.012303 0.0006678687 0.019905884 0.007016036
000220 c3 a3 22 3b 8d 6e 1e bc 4d 33 a3 ba ff 7d ea 3c
       0.0024816848 -0.009669912 -0.0012451202 0.028624533
000230 be 7c 8d bb 2d ad b3 3c 0b 6e 68 bc 69 f0 27 bc
       -0.004317849 0.021933163 -0.014186393 -0.010250189
000240 3a 5e 20 bb da 01 f7 3c 86 f7 3b 3b 18 9a 42 bc
       -0.0024470226 0.03015225 0.002868147 -0.011877559
000250 0e 95 f3 3b ed 0f dc 3b 91 31 58 3c 82 1e 89 3b
       0.00743354 0.0067157657 0.013195411 0.004184545
000260 9d 66 ff ba 6c 5e 33 bc a4 22 2d 3c be d9 1d bc
       -0.0019485537 -0.010947805 0.010567341 -0.009634433
000270 82 bb 5d 3c dd 54 a7 bb ad ee 04 bc b2 0c 07 3c
       0.013533475 -0.005106552 -0.008113545 0.008242773
000280 6d 0d 8c 3c 5e 51 99 bb 8a 3d e7 bb 18 6e 9e 3c
       0.017096246 -0.004678889 -0.0070568966 0.019339606
000290 6e 94 75 bc 9c 5f ad 3c 86 78 64 3a 85 ac 48 3c
       -0.014989002 0.021163754 0.0008715469 0.012248163
0002a0 c1 2e fb 3c 49 c3 dc 3b a5 e2 04 3c b8 bc 61 bc
       0.030661942 0.006737147 0.008110677 -0.013777904
0002b0 c2 e7 f3 ba 52 16 4d 3b 85 7b 0b bc 1f 8c a6 3c
       -0.0018608498 0.0031293822 -0.008513336 0.020330487
0002c0 4a db 23 bc 93 80 d8 bb d0 84 73 bb cb fd fb 3c
       -0.010001013 -0.006607124 -0.003715802 0.030760666
0002d0 11 c1 9b 3c 1d 4e 35 3c 97 07 5c 3a bd c7 87 3b
       0.01901296 0.011065987 0.0008393465 0.0041436837
0002e0 9d 4c 36 3c 16 ef ec 3c 58 4c ec 3a e1 9e 80 bc
       0.0111266645 0.028922599 0.0018028123 -0.01570076
0002f0 e6 ae 0b 3d 27 1b 7b 3c 58 a5 99 3c 0f ad 3a bc
       0.034102343 0.015326298 0.0187556 -0.011393799
000300 e8 1d 8b bc e7 1c 8f 3c b8 e3 07 3d dd 3d e9 3c
       -0.016982034 0.017469836 0.033176154 0.028471882
000310 e2 92 8b 3c 26 81 dc bb b3 cb 0c 3b c2 c7 41 3a
       0.017037813 -0.006729263 0.002148372 0.0007392132
000320 e1 3e 8c 39 06 1d 97 3b 39 fd 1b 3c 66 ad 9a ba
       0.0002674973 0.004611614 0.009520822 -0.0011800944
000330 b2 b2 4e 3c be 88 85 3c fc 0b 26 bc 28 4f 1a 3c
       0.0126158465 0.016300555 -0.010134693 0.009418286
000340 68 d7 09 3d eb 1b ac bb 3d ab aa 3b 20 02 84 bc
       0.033652693 -0.0052523515 0.0052084015 -0.016114295
000350 25 09 3d 3c a8 ee d4 3c 1c e0 5b bc 2a ad 22 3c
       0.011537825 0.025992706 -0.013420131 0.009928981
000360 3d b5 32 bc 5d 96 c4 3c 62 09 c1 3c e5 de 07 3d
       -0.010907468 0.02399748 0.023564044 0.033171553
000370 db c8 7d bc da 7e 32 bb b7 89 f9 3b 2f d7 03 bc
       -0.015489782 -0.0027236254 0.007615294 -0.008046909
000380 42 c5 ba 3b c2 11 63 3c 9a 7d f6 bb b2 91 09 3d
       0.0056997845 0.013859214 -0.007522297 0.03358621
000390 9c 88 08 bc fe c8 97 3c 5d 2d 80 3c 65 94 11 3d
       -0.008333351 0.018528458 0.01564663 0.03554191
0003a0 ac e4 24 3c bd 9f d6 ba a3 dc 39 3d 11 20 a0 bb
       0.010064285 -0.001637451 0.04537643 -0.004886635
0003b0 ec f2 37 3c ec 0a f8 bc c2 f0 11 bd 33 85 15 3d
       0.011227351 -0.030278645 -0.035629995 0.03650398
0003c0 bf 0b a1 3c 09 80 66 bc fd d4 a2 3c b4 21 f1 bc
       0.019658921 -0.014068612 0.019876951 -0.029435016
0003d0 30 5d 5e bc 83 65 ee 3c 71 45 40 bc ad 7e 92 3c
       -0.013572022 0.029101139 -0.011735306 0.01788267
0003e0 f7 d3 5b bc e5 01 06 bd 7c 3b 62 3b ea 0f b3 bb
       -0.013417236 -0.03271665 0.0034520319 -0.0054645436
0003f0 58 29 f8 3c e8 29 a4 3c 00 89 71 bc d5 73 08 3d
       0.030293152 0.020039514 -0.014742136 0.03331359

pre_quantum_fc.bias f4 [4]
000000 cc 1c 65 bb a6 f8 2a 3c f7 5f f2 bb e1 1d f4 3b
       -0.0034959791 0.010435259 -0.007396694 0.007449851

post_quantum_fc.weight f4 [10, 1]
000000 b1 ba 16 bf cc c5 4f 3f cc 30 da 3d 2c 98 de be
       -0.5887862 0.8116119 0.106538385 -0.43475473
000010 98 9f d0 3e f2 aa 1b 3f 5f db d7 bc 5c 7f 5f bf
       0.4074676 0.60807717 -0.026349721 -0.8730371
000020 91 5a 43 3f 9a 0b 58 be
       0.7631007 -0.21098176

post_quantum_fc.bias f4 [10]
000000 fc ba c7 be 1b 56 0c be e3 50 2f 3f b4 60 2f bf
       -0.39009845 -0.13704722 0.684828 -0.6850693
000010 dc 80 bc be 19 a0 3b bf 20 52 52 3f 10 72 27 bf
       -0.36817062 -0.73291165 0.8215656 -0.6540842
000020 1c 30 a7 3c 76 6e e2 be
       0.020408683 -0.442249
