hybrid_cnn_mnist_weights_v3.0.pth (torch, 104648 bytes, 8 tensors)

conv_stack.0.weight f4 [32, 1, 3, 3]
0.066987164 0.21145253 0.27902842 -0.025249021 0.22776893 -0.067797996 0.31053078 0.28092024
-0.24236041 -0.28303838 0.00048339533 0.15397333 -0.28723463 0.07886917 -0.06026844 0.20223513
-0.10441388 -0.09363832 0.23958772 0.32109645 0.14504877 0.3167877 -0.09621772 0.12811162
0.2516264 0.090023175 -0.23825905 -0.26014206 0.07942924 0.26871586 0.25534472 -0.29654396
0.32935873 -0.30899477 0.22409143 -0.19164999 -0.30457845 -0.20436524 0.10856025 0.124340326
-0.09882693 -0.12685142 0.2749591 -0.24780612 -0.08502244 -0.2668838 0.19796585 0.22559664
-0.20506161 -0.111845225 0.17511983 -0.0015963975 -0.15381509 -0.32432735 -0.03115067 -0.31222266
-0.25701588 0.04532097 0.31468618 -0.3327426 0.24416772 0.28784823 0.29486606 -0.1043627
-0.27694082 0.20497607 0.2833512 0.21768244 0.08960269 -0.21706718 0.105124965 -0.017779568
0.2045248 -0.10649218 -0.095594674 0.16894603 -0.14153159 -0.02093137 -0.061514083 -0.14443713
-0.1547779 0.146685 0.25323105 0.21697575 0.027476521 0.03267979 0.24859385 0.052128397
-0.12507887 -0.11946155 0.19405805 0.18307199 -0.18212758 -0.0917265 -0.09856939 0.27446285
-0.16434586 -0.1360754 0.25787863 -0.33909798 -0.24103524 0.21616343 -0.005285968 0.055755064
0.26770794 -0.16175742 0.29383627 -0.24053834 -0.07102657 0.20503588 0.24870226 0.098383896
-0.24242 -0.13997842 -0.17964023 -0.18124485 0.17241174 -0.114169575 -0.18370917 0.2447648
-0.06059985 -0.034898024 0.22273657 -0.3269232 0.27264997 -0.24330416 0.074626476 0.20079648
-0.032178644 -0.33458647 -0.2556064 -0.23644611 -0.23277837 -0.14257832 -0.26994982 0.08441233
0.24367182 0.21574803 0.29696923 -0.25242165 -0.26360753 0.23137099 -0.2704394 -0.09452373
0.2760112 -0.28019792 0.02095668 -0.27353936 -0.17889692 0.031196337 0.1850543 -0.036587797
-0.028913273 -0.040488478 0.026177477 0.046019334 -0.18351835 -0.19517845 -0.009887256 -0.24062182
-0.2807126 -0.06882242 -0.1702624 -0.31538478 -0.26453292 -0.29397544 -0.3044289 0.1994771
0.1762353 0.17550364 0.22859761 -0.012641862 -0.17117064 -0.31252274 -0.018866474 -0.25725034
-0.122366935 -0.044176023 0.24497856 -0.016977822 -0.12013086 0.12884015 -0.003938414 -0.046186138
-0.21777773 -0.07924066 -0.32181448 -0.25592667 -0.11334896 -0.19184245 0.014549055 -0.090149425
0.29028055 -0.27178878 -0.027177036 -0.010515596 -0.0022777873 -0.29263964 0.33456764 0.20161524
0.1940078 -0.3093989 -0.019723417 -0.06416748 0.1789772 -0.018548205 -0.09208686 0.17227553
0.09484259 0.24113187 -0.18108563 -0.26699618 0.2436284 -0.31022373 0.12767419 -0.16853598
0.081886604 -0.014215564 -0.20528261 -0.25079456 0.20204358 -0.2269318 -0.1609559 0.27816537
-0.15156645 0.31661898 -0.14986432 0.29655984 0.050389677 -0.18664445 0.31959417 0.11009714
0.11698 0.27861178 0.06354651 0.0657456 -0.17520605 -0.09037041 -0.22271995 -0.33046427
-0.03378194 0.33133057 0.053651784 0.2896533 0.26959687 0.1796096 -0.079791486 0.055552654
-0.0023070194 -0.19988993 -0.2838542 -0.2684155 0.16694778 0.13317873 -0.010519709 -0.0053797155
00000000: 9130 893d 0387 583e d0dc 8e3e 09d7 cebc
00000010: 423c 693e add9 8abd e4fd 9e3e c7d4 8f3e
00000020: 542d 78be 68ea 90be 3970 fd39 2fab 1d3e
00000030: 6b10 93be 2986 a13d 0adc 76bd ba16 4f3e
00000040: f2d6 d5bd 73c5 bfbd 7c56 753e c166 a43e
00000050: aa87 143e ff31 a23e cc0d c5bd b12f 033e
00000060: 2dd5 803e 125e b83d 2efa 73be 5731 85be
00000070: ccab a23d 2095 893e 8bbc 823e 9cd4 97be
00000080: b5a1 a83e 9034 9ebe 3978 653e e53f 44be
00000090: b5f1 9bbe 1f45 51be d654 de3d 24a6 fe3d
000000a0: c665 cabd 57e5 01be 70c7 8c3e e3c0 7dbe
000000b0: 3f20 aebd fea4 88be 8fb7 4a3e ce02 673e
000000c0: acfb 51be 1c0f e5bd 9d52 333e 363e d1ba
000000d0: b481 1dbe 3c0e a6be b12f ffbc a6db 9fbe
000000e0: 9697 83be 7ba2 393d 8c1e a13e 3d5d aabe
000000f0: 1a07 7a3e d860 933e aff8 963e 1cbc d5bd
00000100: 30cb 8dbe 3fe5 513e 6913 913e 25e8 5e3e
00000110: 9d81 b73d dc46 5ebe c24b d73d 75a6 91bc
00000120: f36e 513e 9218 dabd 24c7 c3bd 3000 2d3e
00000130: a8ed 10be 4478 abbc 31f6 7bbd 54e7 13be
00000140: 197e 1ebe 9834 163e 80a7 813e e42e 5e3e
00000150: 7116 e13c 3edb 053d 638f 7e3e 9684 553d
00000160: ad14 00be 42a8 f4bd 27b7 463e 3977 3b3e
00000170: a77f 3abe 1adb bbbd c0de c9bd 6586 8c3e
00000180: 484a 28be 5a57 0bbe ab08 843e 409e adbe
00000190: f1d1 76be f259 5d3e ea35 adbb 6c5f 643d
000001a0: 0411 893e bda3 25be b571 963e af4f 76be
000001b0: 6176 91bd edf4 513e ceab 7e3e 7f7d c93d
000001c0: f33c 78be 8156 0fbe 9cf3 37be 4098 39be
000001d0: b48c 303e bdd1 e9bd 421e 3cbe a0a3 7a3e
000001e0: 8c37 78bd 3bf1 0ebd 0e15 643e 7a62 a7be
000001f0: c798 8b3e ba24 79be c4d5 983d 989d 4d3e
00000200: c1cd 03bd eb4e abbe d8de 82be ee1e 72be
00000210: 745d 6ebe 0d00 12be dd36 8abe 5fe0 ac3d
00000220: 1b85 793e 0ded 5c3e 5a0c 983e 693d 81be
00000230: 91f7 86be 84ec 6c3e 0877 8abe a895 c1bd
00000240: 5751 8d3e 1a76 8fbe 58ad ab3c 5a0d 8cbe
00000250: c130 37be 768f ff3c e07e 3d3e 16dd 15bd
00000260: 87db ecbc 3fd7 25bd 2672 d63c c57e 3c3d
00000270: 3cec 3bbe dcdc 47be 28fe 21bc 9165 76be
00000280: 90b9 8fbe c5f2 8cbd 4459 2ebe 1d7a a1be
00000290: dc70 87be f383 96be 1bde 9bbe ba43 4c3e
000002a0: 0777 343e 3ab7 333e 7e15 6a3e d01f 4fbc
000002b0: 5b47 2fbe fb02 a0be dd8d 9abc 51b6 83be
000002c0: 849b fabd ebf1 34bd a9db 7a3e 1315 8bbc
000002d0: 2b07 f6bd acee 033e d00d 81bb ad2d 3dbd
000002e0: 2001 5fbe ed48 a2bd dec4 a4be d208 83be
000002f0: 8023 e8bd 5972 44be 295f 6e3c 43a0 b8bd
00000300: a79f 943e e627 8bbe 60a2 debc 9b49 2cbc
00000310: ee46 15bb ddd4 95be 734c ab3e 3a74 4e3e
00000320: fba9 463e 8869 9ebe 0193 a1bc 3d6a 83bd
00000330: cd45 373e 68f2 97bc 0998 bcbd ff68 303e
00000340: d53c c23d 46eb 763e 836e 39be b9b3 88be
00000350: b979 793e a5d5 9ebe 06bd 023e b294 2cbe
00000360: 2ab4 a73d 66e8 68bc 9b35 52be 2568 80be
00000370: 83e4 4e3e cf60 68be a0d1 24be b16b 8e3e
00000380: 3c34 1bbe e21b a23e 0876 19be b1d6 973e
00000390: 6865 4e3d b91f 3fbe d9a1 a33e 9c7a e13d
000003a0: 3693 ef3d 34a6 8e3e ac24 823d a1a5 863d
000003b0: 3769 33be 1f14 b9bd b310 64be 9d32 a9be
000003c0: ee5e 0abd 29a4 a93e f9c1 5b3d 704d 943e
000003d0: 9a08 8a3e 94eb 373e b869 a3bd 2e8b 633d
000003e0: 5d31 17bb f2af 4cbe 5655 91be c26d 89be
000003f0: 5cf4 2a3e 0160 083e dc5a 2cbc 5348 b0bb

conv_stack.0.bias f4 [32]
-0.17294899 0.20074423 0.1518855 0.20763241 0.03477174 -0.05714724 0.3407655 0.1710849
0.2743332 -0.27659735 -0.078490935 0.15301432 -0.09252237 -0.118738055 -0.1904207 -0.014882872
0.2103504 0.08524365 -0.13937435 -0.07387437 0.08486343 0.16354664 -0.046548672 0.13190629
0.015460799 -0.1724124 0.030100988 -0.06938735 0.329507 0.21119381 -0.10174782 -0.18748842
00000000: 8a19 31be e58f 4d3e df87 1b3e 979d 543e
00000010: d06c 0e3d 3913 6abd d178 ae3e e130 2f3e
00000020: 6775 8c3e 2b9e 8dbe dbbf a0bd c9af 1c3e
00000030: 5e7c bdbd f02c f3bd a5fd 42be 4ad7 73bc
00000040: 1866 573e 3994 ae3d 26b8 0ebe 724b 97bd
00000050: e1cc ad3d c578 273e d2a9 3ebd 7112 073e
00000060: 4b4f 7d3c e08c 30be 5996 f63c f41a 8ebd
00000070: 24b5 a83e 3143 583e 2961 d0bd f7fc 3fbe

conv_stack.3.weight f4 [64, 32, 3, 3]
0.038722556 0.055822846 -0.0058277613 -0.03097917 0.053689413 0.023567654 0.02069756 0.03449067
0.046323657 -0.045167603 0.05056257 0.061954048 0.03407963 -0.020380594 -0.032790743 -0.0013919412
0.060207028 0.069504686 -0.00859551 0.029711584 -0.01882479 0.059292816 0.014728747 -0.021396888
-0.028530532 -0.030006988 -0.026293904 0.0017482255 0.009766914 -0.024217397 0.026245467 0.015284758
0.0130106835 -0.02273345 -0.0027875481 -0.0054127895 0.06374835 0.06477779 0.047677964 0.060858067
-0.0004868587 -0.037127476 -0.036764897 0.031787686 0.030586936 0.0027417582 0.031120697 0.063719414
0.03959947 -0.03320624 0.046029117 0.051719844 -0.025136912 0.06764749 0.03147222 -0.024661263
0.03656117 0.013415399 0.034604788 0.060537685 0.015207144 0.05330325 -0.044834908 0.04133088
0.03697384 0.031252924 -0.022351013 -0.020816026 0.031347834 0.013437708 -0.0009860581 -0.04693876
0.042854387 -0.008347002 0.04619248 0.03537482 -0.0016465997 0.06963209 0.06423684 0.00946967
-0.03273935 -0.033685226 0.039995845 0.044634968 0.05628696 0.018327873 0.05531467 -0.0044292975
-0.038326547 0.028247276 -0.0026820723 -0.027825547 -0.04581131 -0.02262784 -0.011783439 0.016025735
-0.044536818 0.031588703 0.028436916 0.047470335 -0.0015967626 -0.046512686 0.017921468 0.011898516
0.055382125 -0.009711336 -0.020222848 0.007839219 0.050111495 0.033872362 0.008690504 0.020778859
0.023990171 0.02628887 -0.013721681 0.017108412 0.038387198 0.068734445 0.054215036 0.04070306
0.040839843 0.052966516 -0.032875024 -0.006777085 -0.02187418 0.009652915 0.0668513 -0.004968916
-0.04071116 0.027124126 0.06961349 -0.013938656 0.050446846 0.032979958 0.01711124 -0.03916045
0.04865825 0.054138593 -0.01361462 -0.03561602 -0.043153424 -0.030946104 0.06225456 0.054507192
-0.00913628 -0.008876456 -0.04127479 -0.04396665 0.045259356 0.059016887 0.039637484 0.005948281
-0.009326069 0.0027021286 0.023014482 -0.0118860165 -0.034263805 0.043242022 -0.028699022 -0.0037285192
0.040034067 0.059230927 -0.019464845 -0.0054704947 -0.02366768 0.019800149 -0.044244483 0.037206512
-0.029515775 0.012917401 -0.028713726 -0.04621949 0.04602689 0.051336244 0.06671338 -0.044335276
0.04916427 0.009251458 0.010382621 -0.019816333 0.04342414 0.0048532235 -0.03237966 -0.039838172
-0.017110238 0.011187016 -0.03248515 0.057609268 -0.03334426 -0.027114578 0.016650314 0.047336612
-0.036365498 -0.009734264 -0.028241014 -0.04103094 -0.011239932 -0.02860051 -0.0010174601 0.055089455
0.06776897 0.05785852 0.05406579 0.044332556 -0.023112351 0.057874843 0.041594982 -0.010295224
0.012322454 -0.0005643803 0.017633148 0.029907951 -0.011303868 0.04612708 0.044952318 -0.031596392
0.056088265 -0.010397298 0.020911522 -0.046917655 0.023527104 0.042592905 0.038920037 0.03682611
0.02447729 0.051320422 -0.03147813 0.020880347 0.06948021 -0.0148234395 0.004886403 0.00074371614
-0.037265133 -0.025056364 0.019082926 -0.0025328526 0.036494855 0.035399117 0.014433051 0.02841928
-0.032083638 0.041431595 -0.005484372 0.055272717 0.062637046 -0.013533935 0.024542607 0.026853366
0.00883898 -0.038636226 -0.02570223 0.05559003 0.052732546 -0.012607243 0.05870326 0.028417327
00000000: 8b9b 1e3d 7fa6 643d cef6 bebb 07c8 fdbc
00000010: 6ee9 5b3d f410 c13c ee8d a93c 1746 0d3d
00000020: e0bd 3d3d aa01 39bd b31a 4f3d 87c3 7d3d
00000030: 1597 0b3d 34f5 a6bc 964f 06bd cc71 b6ba
00000040: a59b 763d 7958 8e3d 2fd4 0cbc b565 f33c
00000050: 7236 9abc 06dd 723d d850 713c 8748 afbc
00000060: ddb8 e9bc 37d1 f5bc 5066 d7bc b724 e53a
00000070: 6805 203c 9063 c6bc bc00 d73c ec6c 7a3c
00000080: c32a 553c 803b babc 4caf 36bb c55d b1bb
00000090: 7f8e 823d 38aa 843d f849 433d 4f46 793d
000000a0: 1241 ffb9 fb12 18bd ca96 16bd ce33 023d
000000b0: 7491 fa3c 12af 333b d5f0 fe3c 537f 823d
000000c0: 0e33 223d 4403 08bd 0789 3c3d 30d8 533d
000000d0: edeb cdbc c48a 8a3d 04e9 003d 6b06 cabc
000000e0: 2ac1 153d 43cc 5b3c c0bd 0d3d 5df6 773d
000000f0: 6327 793c 8254 5a3d cfa4 37bd 924a 293d
00000100: e271 173d 1103 003d 7919 b7bc 5f86 aabc
00000110: 9666 003d d529 5c3c 9f3e 81ba db42 40bd
00000120: 1588 2f3d ddc1 08bc 5334 3d3d 30e5 103d
00000130: b8d2 d7ba 459b 8e3d 9b8e 833d ad26 1b3c
00000140: b219 06bd 85f9 09bd afd2 233d 28d3 363d
00000150: 288d 663d 5624 963c a391 623d a423 91bb
00000160: 4cfc 1cbd d566 e73c b5c5 2fbb 67f2 e3bc
00000170: a4a4 3bbd 055e b9bc 530f 41bc 6748 833c
00000180: 3d6c 36bd 2863 013d 89f4 e83c 4170 423d
00000190: 764a d1ba 1684 3ebd 0bd0 923c fef1 423c
000001a0: 5ed8 623d 4c1c 1fbc 63aa a5bc 1170 003c
000001b0: b641 4d3d bfbd 0a3d 9e62 0e3c 6d38 aa3c
000001c0: 0987 c43c c25b d73c e7d0 60bc f126 8c3c
000001d0: e53b 1d3d a5c4 8c3d 9610 5e3d 40b8 263d
000001e0: ae47 273d 6bf3 583d f6a7 06bd 4f12 debb
000001f0: 7b31 b3bc 4327 1e3c 56e9 883d 4ad2 a2bb
00000200: bfc0 26bd 6a33 de3c 8491 8e3d f65e 64bc
00000210: 5aa1 4e3d fe15 073d df2c 8c3c b566 20bd
00000220: e04d 473d 6ec0 5d3d db0f 5fbc 1be2 11bd
00000230: a5c1 30bd af82 fdbc a3fe 7e3d ef42 5f3d
00000240: 56b0 15bc 8e6e 11bc c10f 29bd 6016 34bd
00000250: e061 393d b1bb 713d ea5a 223d cce9 c23b
00000260: 5ecc 18bc 3216 313b de88 bc3c 91bd 42bc
00000270: 3458 0cbd 8c1e 313d 361a ebbc 2c5a 74bb
00000280: c3fa 233d 219c 723d bd74 9fbc d641 b3bb
00000290: b9e2 c1bc ec33 a23c b439 35bd db65 183d
000002a0: 11cb f1bc 82a3 533c 0c39 ebbc a650 3dbd
000002b0: b186 3c3d f445 523d 06a1 883d e898 35bd
000002c0: 7960 493d 6d93 173c de1b 2a3c dd55 a2bc
000002d0: 83dd 313d ca07 9f3b 89a0 04bd 5a2d 23bd
000002e0: c52a 8cbc bf49 373c 260f 05bd b2f7 6b3d
000002f0: fe93 08bd 641f debc 3d66 883c 09e4 413d
00000300: fdf3 14bd 767c 1fbc b359 e7bc 0f10 28bd
00000310: b127 38bc 9e4b eabc 4c5c 85ba 7ba5 613d
00000320: 75ca 8a3d 0efd 6c3d 1774 5d3d 0e96 353d
00000330: 1d56 bdbc 2c0e 6d3d 805f 2a3d 4dad 28bc
00000340: 1ee4 493c ecf2 13ba 6473 903c 8501 f53c
00000350: dc33 39bc c0ef 3c3d ec1f 383d 386b 01bd
00000360: cfbc 653d 6e59 2abc a44e ab3c ba2c 40bd
00000370: eabb c03c e675 2e3d 9e6a 1f3d fad6 163d
00000380: 9984 c83c 5d35 523d 36ef 00bd 430d ab3c
00000390: a44b 8e3d 03de 72bc 1f1e a03b f2f5 423a
000003a0: 53a3 18bd 0143 cdbc cc53 9c3c 37fe 25bb
000003b0: a17b 153d aafe 103d 9b78 6c3c 8dcf e83c
000003c0: 226a 03bd 2db4 293d 3fb6 b3bb a565 623d
000003d0: da47 803d 70bd 5dbc 940d c93c 97fb db3c
000003e0: 5fd1 103c 0541 1ebd 7c8d d2bc 5fb2 633d
000003f0: 15fe 573d 9c8e 4ebc d472 703d 74cb e83c

conv_stack.3.bias f4 [64]
-0.014901562 0.004548201 0.054948326 -0.009882983 0.029300936 -0.025811674 0.035301648 -0.055761594
0.052985787 0.018210432 0.0067809145 0.055657867 0.049682982 0.023706991 0.049403567 0.016681392
-0.043110076 -0.033220362 0.024353178 0.010184087 -0.023387916 -0.053544477 0.06556903 -0.010315207
-0.036737572 0.02852449 0.036479905 0.032533117 -0.03037245 0.06303696 0.056717858 0.026765566
-0.0033391172 -0.03340402 0.015037435 0.047479663 0.03209614 -0.039998565 -0.037906285 -0.05146646
-0.012790534 0.049299974 0.015734319 0.03889932 -0.027582051 -0.028639114 -0.03173289 0.04557385
0.028986149 0.024946349 0.008126332 0.025563715 -0.014271201 -0.007147259 0.041511614 -0.03976521
0.048679445 -0.041451555 -0.047436688 -0.016731977 0.0006923556 0.010502267 0.0605719 -0.025007367
00000000: ae25 74bc 1309 953b 7f11 613d 3cec 21bc
00000010: 8408 f03c 0173 d3bc 7698 103d 4566 64bd
00000020: a007 593d 0b2e 953c 6f32 de3b 81f9 633d
00000030: 6280 4b3d 2a35 c23c 655b 4a3d 6aa7 883c
00000040: 3194 30bd 1312 08bd 5180 c73c 28db 263c
00000050: 0498 bfbc 7451 5bbd 0e49 863d 1d01 29bc
00000060: 237a 16bd 31ac e93c f46b 153d 7241 053d
00000070: a5cf f8bc 8619 813d fc50 683d 7643 db3c
00000080: 17d5 5abb a7d2 08bd 935f 763c 097a 423d
00000090: 3e77 033d 89d5 23bd 9f43 1bbd 7fce 52bd
000000a0: 638f 51bc c5ee 493d 42e5 803c e554 1f3d
000000b0: c1f3 e1bc 939c eabc 59fa 01bd a5ab 3a3d
000000c0: 5c74 ed3c 495c cc3c 4f24 053c ff6a d13c
000000d0: c1d1 69bc 8e33 eabb 1508 2a3d d8e0 22bd
000000e0: 1964 473d 1bc9 29bd f94c 42bd 8011 89bc
000000f0: 337f 353a b311 2c3c 3e1a 783d 40dc ccbc

pre_quantum_fc.weight f4 [4, 1600]
-0.010016538 0.02370861 0.028380418 0.023051139 0.00429692 0.016868692 0.032883413 0.029313277
0.030011995 0.022410909 0.013959621 0.008583623 0.0045855683 -0.0017898454 -0.005024439 0.016436882
-0.011643505 0.000114339266 0.01907469 -0.009264774 0.015080381 0.031096334 0.015394202 -0.0063341255
-0.010794281 0.020755757 -0.012812902 0.022082342 0.026857035 0.024808683 -0.03244439 0.023291036
0.026756333 0.027960256 0.03276818 -0.0037624298 -0.009987907 -0.009492354 -0.007889885 0.026985537
0.018762482 0.030369295 0.026109478 0.0064492547 0.01994701 0.025976308 -0.004899351 0.018161163
-0.00090964005 -0.00027314096 0.033884604 0.015293748 0.02781689 0.02482712 0.031288896 0.009470041
0.014564702 0.0036097143 8.1505495e-05 0.025131041 -0.007041774 0.014898959 -0.008592658 0.02914267
-0.0003898499 -0.005510285 -0.006068592 0.012038519 0.019035202 0.023864506 -0.0018916762 0.03484779
-0.0040671662 0.0081554 0.02254686 0.019013233 -0.0118360175 0.02055277 -0.009935767 0.028279053
0.0027558042 0.034284826 0.031236483 0.034962237 0.021448737 0.027844023 0.026336407 -0.0102154305
-0.010715079 0.024261754 0.015534844 0.018597424 -0.005464807 0.01568095 0.023896916 -0.00802539
0.023238419 0.0016510083 -0.007237256 -0.013107476 0.026128305 0.0017159358 0.024612365 0.0067034806
-0.006578571 -0.0067919483 0.012930106 0.023471644 0.026170228 0.014183857 -0.0016910433 -0.011341981
-0.014336152 -0.013432062 0.02733015 0.02816684 -0.005113422 0.009370834 0.023162132 0.015558173
0.03477984 0.004646379 -0.009165472 -0.008752157 0.03297271 0.027785506 0.0074438998 -0.0115863355
0.030121753 0.035109043 0.019669134 0.010585289 0.031591363 0.032384243 0.0013003615 -0.005979667
0.0013594292 0.010996986 -0.008525694 0.016751887 -0.0022187273 0.03203799 0.03369387 0.020385018
0.01823762 -0.011332534 0.009270287 -0.0057076546 0.032202415 0.0043513947 0.0017187328 -0.01358757
0.014839925 -0.005686132 0.007198028 0.015776135 0.03333354 -0.0114592835 -0.011502968 -0.0011838533
0.025954232 0.03477778 -0.00029258308 -0.011099849 0.017267948 0.033546317 -0.0045438246 -0.008235534
0.017221738 0.008877352 -0.012504617 -0.005156362 0.018408392 0.009888764 -0.006679297 0.0073748003
-0.013167526 -0.0036314384 0.0037674308 0.008385115 0.008919192 -0.0101259565 0.0063711694 0.016362935
0.003317682 0.00867446 0.004057709 0.01318223 0.021212954 0.01136449 -0.008363796 0.015570253
-0.004952236 0.015255566 0.01736477 0.017594695 -0.008360273 0.020044373 0.02543976 0.024624953
0.011309844 0.017474001 0.0008650711 -0.003168735 0.025905844 0.008800029 0.005380129 0.02257851
0.018759858 -0.008158277 -0.016331166 -0.013116258 -0.0003798437 0.02586823 -0.004892815 -0.021895925
-0.009148322 0.011752948 0.022103814 0.021453973 -0.01474658 -0.011625397 0.0076603657 -0.0060045053
0.027095346 0.022498656 0.0033133226 0.016156664 0.027922554 -0.010796558 -0.0009850783 0.020855347
-0.013418612 -0.00942011 0.0045409678 0.010144124 0.013136767 0.0055566397 0.0005498874 0.0284594
-0.006082433 0.022806454 0.008009137 0.01633752 0.026588399 -0.0091057485 0.029094212 0.025354678
0.033720754 0.01637642 0.006686737 0.0046915705 -0.014642183 0.010249481 -0.0077962326 0.0057803537
00000000: 681c 24bc 8f38 c23c 0d7e e83c bed5 bc3c
00000010: 2dcd 8c3b 3630 8a3c c2b0 063d 6622 f03c
00000020: b7db f53c 1597 b73c e5b6 643c 53a2 0c3c
00000030: 8942 963b 3f99 eaba 0da4 a4bb a4a6 863c
00000040: 66c4 3ebc 6dc9 ef38 8642 9c3c 47cb 17bc
00000050: b413 773c bdbd fe3c f737 7c3c 7f8e cfbb
00000060: 7fda 30bc fa07 aa3c 35ed 51bc 07e6 b43c
00000070: 4903 dc3c 943b cb3c 69e4 04bd d8cc be3c
00000080: 1930 db3c e80c e53c ed37 063d 1993 76bb
00000090: 51a4 23bc d185 1bbc 9444 01bc c610 dd3c
000000a0: c7b3 993c 07c9 f83c 8be3 d53c 4554 d33b
000000b0: e967 a33c 44cc d43c bc8a a0bb b8c6 943c
000000c0: e974 6eba 5c34 8fb9 95ca 0a3d a192 7a3c
000000d0: 3fe0 e33c 3f62 cb3c c928 003d 3b28 1b3c
000000e0: caa0 6e3c f590 6c3b eeed aa38 9ddf cd3c
000000f0: afbe e6bb c31a 743c 38c8 0cbc 9cbc ee3c
00000100: c564 ccb9 9f8f b4bb 0adb c6bb 353d 453c
00000110: b6ef 9b3c 7f7f c33c 1ff2 f7ba 8ebc 0e3d
00000120: dd45 85bb 3a9e 053c 31b4 b83c a4c1 9b3c
00000130: dbeb 41bc 485e a83c a1c9 22bc 79a9 e73c
00000140: b99a 343b 3f6e 0c3d a7e3 ff3c 9034 0f3d
00000150: 43b5 af3c 2619 e43c 73bf d73c 9f5e 27bc
00000160: 4c8e 2fbc 96c0 c63c dc85 7e3c a059 983c
00000170: 2012 b3bb 5675 803c 77c3 c33c ed7c 03bc
00000180: 7f5e be3c a566 d83a 8126 edbb bdc0 56bc
00000190: 070b d63c 40e9 e03a df9f c93c dfa8 db3b
000001a0: 0e91 d7bb fe8e debb ccd8 533c 9b47 c03c
000001b0: f262 d63c 6863 683c ffa5 ddba b7d3 39bc
000001c0: 2ee2 6abc 2712 5cbc 7be3 df3c 25be e63c
000001d0: 7e8e a7bb 2088 193c 83be bd3c b5e7 7e3c
000001e0: 4e75 0e3d a740 983b c72a 16bc 3565 0fbc
000001f0: 640e 073d 6e9e e33c f5eb f33b 9dd4 3dbc
00000200: e5c1 f63c 80ce 0f3d 2a21 a13c ec6d 2d3c
00000210: f265 013d 57a5 043d e470 aa3a 15f1 c3bb
00000220: e02e b23a b42c 343c 5aaf 0bbc 413b 893c
00000230: 1168 11bb 443a 033d 9502 0a3d 7bfe a63c
00000240: 1067 953c 18ac 39bc 67e2 173c 4707 bbbb
00000250: aee6 033d 2596 8e3b 1a47 e13a 669e 5ebc
00000260: 2823 733c bb52 babb 6fdd eb3b f43c 813c
00000270: c088 083d b8bf 3bbc f276 3cbc 862b 9bba
00000280: f89d d43c 2573 0e3d d665 99b9 24dc 35bc
00000290: 8375 8d3c dd67 093d 5de4 94bb 55ee 06bc
000002a0: 9a14 8d3c 5072 113c 2ae0 4cbc b3f6 a8bb
000002b0: 32cd 963c 7b04 223c 01de dabb 4fa8 f13b
000002c0: 9bbc 57bc 6dfd 6dbb 00e7 763b b961 093c
000002d0: cd21 123c 57e7 25bc 3ec5 d03b 900b 863c
000002e0: 786d 593b 531f 0e3c 88f6 843b 48fa 573c
000002f0: cac6 ad3c 2032 3a3c 4e08 09bc 601a 7f3c
00000300: 5e46 a2bb 7bf2 793c 9040 8e3c c022 903c
00000310: 87f9 08bc 1934 a43c 0b67 d03c 45ba c93c
00000320: ed4c 393c a325 8f3c f0c5 623a 8daa 4fbb
00000330: 7e38 d43c ff2d 103c cb4b b03b 91f6 b83c
00000340: 46ae 993c 4baa 05bc f0c8 85bc 93e5 56bc
00000350: c225 c7b9 9ce9 d33c e853 a0bb 155f b3bc
00000360: d8e2 15bc 708f 403c 0f13 b53c 3ec0 af3c
00000370: a49b 71bc 7378 3ebc ce03 fb3b 71c1 c4bb
00000380: 0ff7 dd3c 1a4f b83c 5424 593b fb5a 843c
00000390: d7bd e43c 0ce4 30bc be1d 81ba d5d8 aa3c
000003a0: bdd9 5bbc ce56 1abc 66cc 943b 8a33 263c
000003b0: 983b 573c 7914 b63b 5226 103a b023 e93c
000003c0: 254f c7bb 9ad4 ba3c c138 033c 43d6 853c
000003d0: eacf d93c 4730 15bc fc56 ee3c 9db4 cf3c
000003e0: c61e 0a3d d827 863c 6a1c db3b bfbb 993b
000003f0: c4e5 6fbc 70ed 273c 8a77 ffbb 1f69 bd3b

pre_quantum_fc.bias f4 [4]
0.017029857 -0.0024912667 -0.003152697 -0.0073303217
00000000: 3382 8b3c 8544 23bb 7b9d 4ebb 3233 f0bb

post_quantum_fc.weight f4 [10, 1]
-0.93120235 0.075439416 -0.96116024 -0.0757002 0.1373313 -0.41173738 0.7162531 0.6117448
-0.38037542 0.5163343
00000000: 4763 6ebf fb7f 9a3d 990e 76bf b508 9bbd
00000010: 94a0 0c3e 3ecf d2be 5d5c 373f 4f9b 1c3f
00000020: 91c0 c2be 7c2e 043f

post_quantum_fc.bias f4 [10]
-0.3451384 -0.22033153 0.29365942 0.6947343 -0.26880378 -0.2828181 -0.004140948 -0.3717996
-0.18031837 -0.9320325
00000000: fbb5 b0be 979e 61be 875a 963e 1bda 313f
00000010: a6a0 89be 89cd 90be cab0 87bb 845c bebe
00000020: 61a5 38be af99 6ebf
