hybrid_cnn_mnist_weights_cpu_v2.0.pth (torch, 105273 bytes, 8 tensors)

conv_stack.0.weight f4 [32, 1, 3, 3]
00000000: 3913 1d3c de09 8b3e 2976 a93e bdfc 283c
00000010: 2697 933e fc16 80bd f888 d83e 6c1b c33e
00000020: 4be5 97be 91ea 80be 9e7f 5d3d 5024 623e
00000030: 592e 87be 799b b13d 3265 21bd e36c 853e
00000040: 1e63 a7bd 5155 c6bd 7d21 823e f04f d93e
00000050: 6a86 673e 3732 db3e 7fe2 863c 0d34 c53d
00000060: 6a49 bd3e 8443 eb3d f352 95be 2294 84be
00000070: 5fd0 903d 0023 c43e 22b5 713e a088 a0be
00000080: 4569 c53e b25a acbe 9f76 5f3e bfaf 44be
00000090: 3509 99be b64d 80be f644 043e 36a9 f73d
000000a0: 04b7 19be 0c95 d6bd 8ffd a73e 2751 4fbe
000000b0: 2776 68bd 0ac3 1ebe 81dc a43e c466 9e3e
000000c0: 9a31 75be 3a62 14be dc7f 8d3e 4bf1 dfbd
000000d0: e968 60be 280b 93be 4bb7 b9bc 5699 c9be
000000e0: 48ec b3be a688 943d c811 953e 17f2 b0be
000000f0: 9678 ac3e 1db2 cc3e 4191 d13e 1c63 39be
00000100: e89b b3be 7dfe 6b3e 1d44 a63e 02c8 933e
00000110: d71b 2d3e 27bc 47be ec78 9e3d 8f62 a1bd
00000120: 027c 8e3e 7c68 93bd 2da5 d7bd d0f6 783e
00000130: b3aa 25be 78f6 8abd d082 d0bb fb83 2cbe
00000140: a6dd 46be fe3b 473e f467 9c3e 9c41 a53e
00000150: fca1 473e a849 023e 9dcb a83e a142 483d
00000160: ddec 58be b0e6 fabd 5e1f 373e 9d00 7d3e
00000170: 4081 adbd 90af 3fbe c44f 54bd c3d0 d83e
00000180: cbad 9cbe 5e6b 3dbe 0609 c33e 1903 debe
00000190: 3df8 5fbe 3b3c a03e f691 4cbd 5f84 083e
000001a0: 368b bd3e d6f8 f7bd c4e1 b73e 6236 1dbe
000001b0: 1551 3cbd 7a8f a43e e814 d83e 23d2 2c3c
000001c0: 8087 88be de09 babd d898 9bbe a0ff 84be
000001d0: 71f5 2a3e 13d1 11be 25c5 48be aa9a b03e
000001e0: cf27 1ebe 86c5 bdbc b244 913e 4f24 debe
000001f0: 2abe ab3e dfc1 1ebe a193 7d3d f423 3d3e
00000200: 2743 9dbc f291 c5be c305 a6be e1c2 9ebe
00000210: 49bb 90be bff5 56be 363d bbbe 0f53 243e
00000220: f254 a93e d0bb 073e df31 c43e 58b4 8bbe
00000230: b34c c9be da49 a43e f215 c6be 8a1b 4ebe
00000240: 0cf7 8e3e 60f3 92be 6ce7 c23c 8287 92be
00000250: 9573 6bbe 86cd 20bd 4257 a53e eb02 a33d
00000260: dbe6 a63d e801 f6bc 7e78 823d 687f cf3d
00000270: c4ef 73be ca9e 3bbe a483 2d3d 9885 88be
00000280: b825 acbe 1a84 01be 0fa3 2ebe b3f9 a5be
00000290: a4ac 87be 6b13 bcbe b8a3 a7be 3621 873e
000002a0: 2c6d 4c3e df04 933e 6775 c93e b645 bc3c
000002b0: edcf 28be df78 9cbe 456c 6c3c 91bc 82be
000002c0: fed8 f3bd 9a3a 953d 5d63 c33e 35ca 023e
000002d0: 90ea fabd 9ea2 0e3e 88a0 2b3a e315 fabd
000002e0: 2d5e 72be ff73 09be bb5f d1be eee5 9dbe
000002f0: 3b44 43be a7c4 f3bd 0dd8 0e3d 6bb8 0ebe
00000300: 9388 a13e df84 afbe c9ad a3bd d652 073d
00000310: 9137 0fbd b378 a0be 5ed7 e83e 26b6 a13e
00000320: 6de3 533e c36c bbbe 8a99 a3bd e9c3 07be
00000330: 44bd b73d cd63 30bd 3664 c4bd 8af9 333e
00000340: 9b9c 3a3e 6f3c bd3e 4f70 85be 709d 7ebe
00000350: 7f7e a53e 58dd c2be 197c d63d ce39 1fbe
00000360: fa50 533e 7dc8 9e3d 8df2 89be 8ba2 1fbe
00000370: 267b 903e 36a1 a6be bcd5 37bd caeb d83e
00000380: 0edf ffbd fb9e a43e 1b15 1bbe d972 db3e
00000390: 3af8 033e 3095 e8bd 902f e03e 996a 343e
000003a0: bca6 253e b027 b13e b308 3e3d c0ea 4f3d
000003b0: 3e1c 0dbe 1324 f7bd 4b2d 8ebe c7df a3be
000003c0: 8fe2 4a3d 566b ec3e 102d 5d3e 90f5 c33e
000003d0: f6f4 d33e 72cf ae3e 00de f9bd 88a6 163d
000003e0: 0574 153d 16f1 a6be ff4e d0be 495a b1be
000003f0: 7c37 573e c2b3 6e3e e5ed de3a 793c 443d
0.009587103 0.27155966 0.33097962 0.010314164 0.28826255 -0.06254384 0.42292 0.3810686
-0.29667124 -0.2517896 0.054076783 0.22084165 -0.26402548 0.08672232 -0.039403148 0.26059636
-0.08173202 -0.096842416 0.25416175 0.424438 0.22609869 0.42811748 0.016465424 0.096290685
0.36970073 0.11487487 -0.29164848 -0.25894266 0.07070994 0.38307953 0.23604253 -0.31354237
0.38556877 -0.33662945 0.21822594 -0.19207667 -0.29889837 -0.2505929 0.12916932 0.12092821
-0.15011221 -0.10477647 0.32810637 -0.20245801 -0.056753304 -0.15504089 0.3219948 0.3093778
-0.23944703 -0.14490595 0.2763661 -0.10934695 -0.2191502 -0.2871945 -0.022670409 -0.393748
-0.35141206 0.07252626 0.2911513 -0.345597 0.3368575 0.3997964 0.40931132 -0.18104213
-0.35079885 0.23046298 0.3247384 0.2886353 0.16905151 -0.19505368 0.07737908 -0.07880127
0.27828985 -0.07197663 -0.10529552 0.24312901 -0.16178398 -0.067852914 -0.0063632503 -0.16847222
-0.1942049 0.19456479 0.3054806 0.32276618 0.19495386 0.1272341 0.32967845 0.048891667
-0.21184106 -0.122510314 0.1788306 0.24707265 -0.08471918 -0.18719316 -0.051833883 0.42346773
-0.30601344 -0.18497989 0.38092822 -0.43361738 -0.21872039 0.31295952 -0.049943887 0.13331746
0.37020272 -0.121080086 0.35914433 -0.15352777 -0.045975763 0.32140714 0.4220345 0.010548147
-0.26665878 -0.09083913 -0.30390048 -0.25976276 0.16695191 -0.14239912 -0.19606455 0.34493
-0.15444873 -0.023165476 0.28372723 -0.43387076 0.3354352 -0.15503643 0.061908368 0.18470746
-0.01919706 -0.3858791 -0.3242627 -0.31008056 -0.28267887 -0.20992182 -0.36570138 0.1604731
0.3307262 0.13255239 0.383193 -0.2728603 -0.3931633 0.32087594 -0.38688618 -0.20127693
0.27922857 -0.28701305 0.023791991 -0.2861901 -0.2299331 -0.039258502 0.32293135 0.07959541
0.08149501 -0.030030206 0.06370638 0.10131723 -0.23821932 -0.18322292 0.04236187 -0.26664424
-0.33622527 -0.12648049 -0.1705439 -0.32417068 -0.26498902 -0.36733565 -0.32742095 0.26392525
0.19963521 0.28714654 0.39347383 0.02298246 -0.16485567 -0.30560967 0.01443011 -0.2553449
-0.11906622 0.07286568 0.38161746 0.12772448 -0.122517705 0.13929221 0.00065470533 -0.12211206
-0.23668738 -0.13423155 -0.4089335 -0.30839485 -0.19068997 -0.11902743 0.03487401 -0.13937537
0.3154951 -0.3428106 -0.07992131 0.033037983 -0.0349651 -0.31342086 0.45476812 0.3158428
0.20692225 -0.36606416 -0.079882696 -0.13258328 0.089716464 -0.043063927 -0.09589426 0.1757566
0.18223803 0.3696017 -0.26062247 -0.24864745 0.3232307 -0.38059497 0.104728885 -0.15549394
0.20636359 0.07753084 -0.26942864 -0.15589349 0.28218955 -0.3254487 -0.044881567 0.42367393
-0.12493716 0.32152542 -0.1514477 0.4286106 0.1288766 -0.1135658 0.43786287 0.17618789
0.16176885 0.34600592 0.046395015 0.050760984 -0.13780305 -0.120674275 -0.2776893 -0.32006666
0.04953247 0.4617564 0.21599221 0.38273287 0.41397828 0.34142643 -0.12200546 0.03677991
0.036487598 -0.3260581 -0.4068527 -0.34639195 0.2101726 0.2331076 0.0017008154 0.047909234

conv_stack.0.bias f4 [32]
00000000: 02f0 fdbd d4b3 093e eac2 5b3e ea18 473e
00000010: ab7f 11bc a9f0 afbd a953 b23e cb18 493e
00000020: 9e89 4d3e 0080 36be 9eba a13c c9d9 053e
00000030: 8156 0fbd 02d5 0fbe 0daf febd 57d0 183d
00000040: a1be 0e3e 6d8a 883d b443 cabd e9ce bebd
00000050: 9d3d 013e a6c7 fa3d 038b 8b3c 7f88 e23d
00000060: fa95 92bc 0f41 e1bd 6c60 c4ba 979d b9bb
00000070: 6001 bb3e 73ae 1e3e 055c 2ebe 9250 25be
-0.123992935 0.13447505 0.21461073 0.19443098 -0.008880536 -0.08590824 0.34829453 0.19638364
0.20072028 -0.17822266 0.019742306 0.1307136 -0.034994606 -0.140461 -0.12435732 0.037308063
0.13939907 0.066670276 -0.098761946 -0.09316809 0.1262116 0.12245111 0.01703406 0.11061191
-0.01789378 -0.10998737 -0.0014982349 -0.005664538 0.36524487 0.15496235 -0.1702729 -0.16144016

conv_stack.3.weight f4 [64, 32, 3, 3]
00000000: 1719 623d 0dab 593d 9020 043e ed7c 65bd
00000010: f04a f73b 3f73 383d caba b3bc 8d99 3c3d
00000020: 86d3 653b 5670 76bd 4ed2 8a3c fbae 773d
00000030: 8418 40bb 217e 2cbd 8101 78bd e72d 3c3b
00000040: 5981 c03d 2cbe 943d 92c0 efbb 62d5 3a3c
00000050: 7665 8b3d 33d0 6c3d d41b 9bbc df06 9fbb
00000060: 5bfa dcbd 6b63 d0bd 7f36 c7bc c215 1fbd
00000070: 70c9 463d e5a2 153d c75f 76bc d4bb 133d
00000080: 3d03 34bc 7177 d0bd c2b8 6f3d 7d89 1e3d
00000090: 4304 023d cbb2 c23c 29b6 c8bb 3d3d 103b
000000a0: 7118 d3bc 27d7 b6bd 3312 b2bc 4e06 9b3d
000000b0: 214c c5bc 4985 9fbd 9a4d f1bc 772b 0b3d
000000c0: 1f57 773b c45c 23bd f660 05bd 4b84 003d
000000d0: 21aa 703d 3c0f 163e 1faa ccbb 4a06 9cbd
000000e0: 0807 bebc a8fa acbd 1d69 43bc bcae c83d
000000f0: 786e 203c 970e 9b3c 4909 8d3b 7ba1 ea3c
00000100: 0872 173d aff0 4e3d d69b 6bbd c08a 073c
00000110: f6ac e63c c3b6 18bd ace5 8e3c 8984 0ebc
00000120: 3720 63b9 b77e 09bd 9a25 f63c 882c 273d
00000130: 97c5 f0bc 999e 833d 821c 5a3d d614 4fbc
00000140: 156c 38bd ba36 b1bd 418a 8c3c 164a d73d
00000150: f77b 533d ceaa 00bd 42af ed3c e131 c8bd
00000160: d1b5 a4bd ee3f 483d 42f4 00be 3514 983b
00000170: c9b1 bbbd ff75 8fbd 5cef d23c e6d8 d93c
00000180: d5ba e3bd b7e7 583d 5425 043e ac4f f53c
00000190: c31d 6b3c 6e8e 673a 0f27 4cbd a78e 2d3d
000001a0: 0480 5a3d b0ea 68bd c3ef 8d3c d6fb a43c
000001b0: 98c6 87bd 38c0 2b3d 502b 35bc b0e4 9a3b
000001c0: 483e 2b3d e985 edbc e0e8 b1bd 7138 853d
000001d0: e3bb 103e b62e c63c a979 9d3d af3c 053e
000001e0: 3f77 eebc 83a4 d53d 07f9 8fbd a70c b9bd
000001f0: 5253 f73c 836b f03c 26c2 333d a17a ccbc
00000200: 6808 1abe ba37 123d e2c2 673d f03d 95bd
00000210: d827 353d 656d 3e3d 08fc 9abc a2c6 d1bd
00000220: fa53 c43c 6451 be3d 90dd 50bb 8a63 8bbd
00000230: df72 abbc 306a e6bd 5603 6fbb b8f2 c13c
00000240: 23fa 1bbd 249e 83bd f3fe 01be 1641 26bd
00000250: bd2d c03d 9ebc 783d 6f7d 593d dce7 8a3c
00000260: bc18 10bd eb27 e8bc 3772 dc3b ac43 fdbd
00000270: fb46 02bd 0748 473d e74c e4bd 6298 0cbc
00000280: 143a 6c3d faf5 8c3d 4589 93bd 7214 eabc
00000290: 26b4 f9bd c909 c0bc 0835 bbbc 16e2 18bb
000002a0: 8a85 e5bc c523 febb ad87 fbbd b346 c5bd
000002b0: 6b71 03bd 0b44 96bd 7904 4e3d c231 48bd
000002c0: d0ce a53d 5954 8d3c f9f5 35bc f057 91bd
000002d0: 8dc7 9c3c 3bc3 f3ba b4d3 09be 65aa 0fbd
000002e0: 45b8 b7bc c281 6abd ccfa 1abd f092 8d3d
000002f0: af04 2bbd 9385 6ebd 61a9 d8bc 9083 06bc
00000300: 1ca0 16bd 4c48 0abd 954e b2bc 5aee 2ebd
00000310: 4c8d 0bbc 29b4 bbbd 836a bfbd c581 543b
00000320: a7f0 e03d 30d9 803d f3fd ea3c 0067 923c
00000330: aa92 91bd 58c0 613c f224 5c3d bcae f5bd
00000340: 3625 463c 5caa 2a3c 8ced 91bc cffd 3f3d
00000350: db6a 6dbd 7056 debc b13e c43d 2e31 643c
00000360: 353c f9bc 46b9 cfbd 0382 5a3d d501 61bd
00000370: f32e 4abd fa10 d63d 1efe 983d 6181 3e3d
00000380: 7ed8 8a3d 0eb7 823d 9fcc 113d 7ea9 ce3d
00000390: eb3c de3b 42a6 9bbb 10cd 973b 0029 13bd
000003a0: 68b0 a4bd 589b 38bd 0894 21bd 2feb bdbd
000003b0: 0fac a5bd 1e2b 393d e64a 0c3c aedd cb3d
000003c0: 13de bdbc c0ac cf3c 97d2 15bd ae86 2fbd
000003d0: 6fd7 99bc 443d 5dbd 4e19 b03c a0a0 d23b
000003e0: e9d1 64bd a63e d7bd 99be 1bba 805f d33d
000003f0: 111e be3c 4d13 88bd ba0c c93d 9547 243c
0.05519971 0.053141642 0.12903047 -0.05602734 0.007546775 0.045031782 -0.021939654 0.046044875
0.0035068705 -0.060165726 0.016945984 0.06046961 -0.0029311487 -0.042112473 -0.06054831 0.0028713883
0.09399671 0.07262835 -0.0073166573 0.0114034135 0.068064615 0.05781574 -0.018934168 -0.004853114
-0.10789939 -0.101752125 -0.024317978 -0.03883911 0.04853195 0.0365323 -0.015037484 0.0360678
-0.0109871 -0.10179032 0.05852581 0.038705338 0.031742346 0.023766896 -0.006125231 0.0022009157
-0.02576849 -0.08927756 -0.021737194 0.07569562 -0.024084153 -0.07789094 -0.029455949 0.033977
0.0037741137 -0.03988339 -0.032563172 0.031376164 0.058755998 0.14654249 -0.006245866 -0.07618387
-0.023196712 -0.084462464 -0.011926916 0.09798953 0.009791963 0.018927855 0.0043040854 0.028641453
0.036973983 0.050522503 -0.057521664 0.008272827 0.028158646 -0.03728367 0.0174435 -0.008698591
-0.00021660408 -0.03356811 0.030047227 0.040813953 -0.029391093 0.064267345 0.053249843 -0.012639245
-0.04502495 -0.086530164 0.017155768 0.10512178 0.051631894 -0.031412892 0.029014233 -0.09775139
-0.08042491 0.048889093 -0.12593177 0.0046410807 -0.09164769 -0.07004928 0.025748901 0.026592683
-0.1111962 0.052955355 0.12904865 0.029945217 0.014350357 0.00088331744 -0.049841937 0.042372372
0.05334474 -0.05686444 0.017326241 0.020139616 -0.066296756 0.04193136 -0.01105769 0.0047269687
0.041807443 -0.028994517 -0.086869955 0.06504906 0.14134173 0.024192195 0.076892205 0.1301143
-0.029109595 0.10431769 -0.0702992 -0.09035616 0.030191097 0.02934814 0.043886326 -0.024960818
-0.15042269 0.035697676 0.05658234 -0.07287204 0.04422745 0.046491046 -0.018919006 -0.10242964
0.023965824 0.09292868 -0.0031870343 -0.06806095 -0.020928798 -0.112507224 -0.0036470494 0.023675308
-0.038080346 -0.06426647 -0.12694912 -0.040589415 0.09383724 0.060726754 0.05309814 0.016956262
-0.03517984 -0.028339347 0.0067274827 -0.12366423 -0.031805974 0.048652675 -0.111474805 -0.008581253
0.057672575 0.06882854 -0.072039165 -0.028574202 -0.12192564 -0.023442166 -0.022852436 -0.0023328117
-0.028017778 -0.007755729 -0.122817375 -0.096326254 -0.032090586 -0.07337197 0.050297234 -0.048875578
0.08096087 0.017252134 -0.011106008 -0.07096851 0.019138122 -0.0018597612 -0.13459665 -0.03507461
-0.022426734 -0.057252653 -0.037836835 0.06912792 -0.041752513 -0.058232855 -0.026447954 -0.008210078
-0.036773786 -0.033760354 -0.021765986 -0.04270778 -0.0085175745 -0.09165222 -0.093464874 0.0032425981
0.10983401 0.06291425 0.028685546 0.01787138 -0.07108052 0.0137787685 0.05374617 -0.119962186
0.012093833 0.010416593 -0.017813466 0.04687291 -0.057963233 -0.027140826 0.0958227 0.013927741
-0.030424217 -0.1014276 0.053346645 -0.054933388 -0.04936118 0.10452457 0.07470344 0.046510104
0.06779574 0.06382571 0.035595533 0.10090922 0.0067821643 -0.004750044 0.0046325997 -0.035927773
-0.08041459 -0.045070022 -0.039447814 -0.09273373 -0.08089458 0.045207135 0.008562779 0.099543914
-0.023177182 0.025350928 -0.036577787 -0.04285305 -0.018779485 -0.054013506 0.021496441 0.0064278394
-0.05586425 -0.10509996 -0.0005941182 0.103209496 0.023207696 -0.06644306 0.098168805 0.010026832

conv_stack.3.bias f4 [64]
00000000: 5c8a c9bc 2337 5fbc 53d3 1d3d 228a 57bc
00000010: 4ce2 803c 3d1f 30bd 2a06 833c eb05 80bd
00000020: b73e 563d de07 343c 1aa8 8fbb 91dc 4e3d
00000030: c074 263d 6ab0 683c 67f0 0b3d 23fb 2e3c
00000040: 66bd 14bd 8a0d 27bd 4f9b 983b 0b13 0e3c
00000050: 88b8 a9bc 4eba 52bd 32d0 783d 9bfe 84bc
00000060: 0ec9 5ebd a46c 003c b4be 743c c180 c73c
00000070: 05ff 4abd 6ded 4f3d 3f82 693d 461d 473c
00000080: 8f10 3cbc d661 14bd 6ac0 853c 9ab5 e03c
00000090: 61ee 7a3b 426a 28bd bed7 4bbd 2f80 5abd
000000a0: 4510 35bc 8da0 0a3d 7c4d 523b da01 e23c
000000b0: cd3b f3bc 1288 eebc 3a77 19bd b248 353d
000000c0: 5cb9 433d 4dfd 833c c410 47ba 068b 853c
000000d0: ccc7 1dbd d016 afbc 0dd5 9a3c f9aa 27bd
000000e0: 9ded 3a3d ebb5 82bd 248f 6bbd 162d eabc
000000f0: 716f 19bc 90de 8a3c 6d91 803d 02d6 52bd
-0.024602108 -0.013623985 0.038531613 -0.013155492 0.015732907 -0.04299854 0.01599415 -0.06251129
0.052305903 0.010988204 -0.004384053 0.050503317 0.040638685 0.014202217 0.034164812 0.010679993
-0.036313437 -0.040784396 0.004657186 0.008671532 -0.020717874 -0.051447205 0.060745426 -0.016234687
-0.05439096 0.007838402 0.014938045 0.024353387 -0.04955961 0.050763536 0.057008978 0.012152975
-0.011478557 -0.036226116 0.016327102 0.027430344 0.0038289058 -0.04111696 -0.049766295 -0.0533449
-0.011051242 0.03384452 0.0032089641 0.027588774 -0.029691601 -0.029117618 -0.03746722 0.04425878
0.047784194 0.016111994 -0.0007593746 0.016301643 -0.03852062 -0.021373183 0.018900419 -0.040934537
0.045636762 -0.06382354 -0.057509556 -0.028585952 -0.009364949 0.01695183 0.06277738 -0.051473625

pre_quantum_fc.weight f4 [4, 1600]
00000000: aeba da3a a16a 3dbd 119f 803d 54ac b03d
00000010: 4531 323d 15d6 393b cc7c 903d 64fb 2f3d
00000020: d19e 9d3d 416f fa3d 74f8 06bb 7855 133d
00000030: e810 d2bc 9b5e e4bc 268b 0d3d c066 3cbc
00000040: 20d0 bfbd c934 55bc 0503 7dbc 4229 9fbc
00000050: 4b7c 003d 7ab4 893d a990 e83c 0435 b2bd
00000060: 9d4f 52bc 625f a13c 9374 9dbc 68e0 8a3c
00000070: 49d7 983c 7323 743c f8b3 c8bc d0f7 413c
00000080: d0f7 4c3c 396d 333c 7d2d dd3c c07b cc3b
00000090: fc1d a4bc b3e9 c5bc 3c2d c3bc 7f9a 983c
000000a0: 03bb 463c b12d d43c 0f3d 0f3c b229 1abc
000000b0: e7c7 5e3c 2f2d 8b3c c942 2fbc 1aac 0c3c
000000c0: faff b8bb 888f 8ebb 4aae 573d 2278 333c
000000d0: f75f 7a3d 3bcf 6b3d f45e d93c 8152 0abd
000000e0: 0b8c c2bc e69c ef3b d979 92bc 47a7 cd3d
000000f0: 6561 ca3b 636c a5bc 97b9 08bd d16f a9bb
00000100: cf61 783b b51f 823c 0c7d 77bc a099 d0ba
00000110: b7e7 e0ba e403 8d3d d12b 18bd 63c1 b43d
00000120: 3020 e73b d653 8cbd ae8a d13d ed3f 293c
00000130: 0ff6 2d3a f1a9 27bd 4615 1bbd 04d0 733d
00000140: ffeb c53b 0903 6dbd 804c 833d 7391 87bb
00000150: ae97 b53d bc59 64bd 5efa 55bd d2b9 afbc
00000160: e06a 9ebd f4c7 4d3d 22f0 0abc 749f 5dbb
00000170: 3d05 15bd 22cf 2b3d c054 693d cc7a 953c
00000180: a7c2 1a3e 3bfa d53d fadd 78bd 627e 05be
00000190: 2024 8abc afdc a1bd a2ba 39bb 3127 123c
000001a0: 77fb 83bd d93b acbb b881 ac3b c604 0e3c
000001b0: c8ca 963d cd51 943d 47f2 e8bc 5666 77bd
000001c0: fe91 16bd 533c 173c 8753 003b 2982 b33c
000001d0: 992a 1bbd c200 593a 0a40 c1bc 4bf3 30bd
000001e0: 8929 0b3e 247c 25bc d3c3 0bbe 4081 b13c
000001f0: a6a6 9a3d 30fe d83c 592f 36bc 51b4 5fbd
00000200: 5a1f eb3c 609e 513c bf95 433c 0a92 84bd
00000210: 43e2 d53c 7910 423d 7d47 9fbd 590a 65bc
00000220: 657e c93b 5c5a b83c ac98 b73b b632 813c
00000230: 44de 9bbc aac6 643d 14f5 fd3c 3d09 8c3c
00000240: 7684 21bc ead1 16bc c2d5 e1bc 6ac7 123d
00000250: 37a7 58bd 04bd 9bbd c9f4 363c 654f e6ba
00000260: dd4f 733d 595e 0fbc 7ab6 60b9 37b8 0fbd
00000270: 932b d43c 38d1 2ebd 90e1 5cbd 85e7 853d
00000280: 615d 043d 03df 153d 2fe3 113d 2337 debd
00000290: 5ef6 bb3c 4376 ad3d b367 4a3d 6ca9 08bc
000002a0: 1112 9e3b 384c dc3d 0ed8 4fbd b8e7 a63b
000002b0: f71b bf3d 3fb4 28bd e461 873d 6af3 343c
000002c0: 6737 12bc 6b8e 8dbb 2446 1b3b 5616 e73b
000002d0: 57a4 663c 876d bfbb c99d 263b 8850 0d3c
000002e0: a348 95bb 5d19 653c f3ff a7bb 3096 0b3b
000002f0: 0def 003c 69f1 3c3c 6a9b b3b9 08e4 903c
00000300: 3eb3 5abc 7b7d 6e3a f58b 463c c01a 3a3c
00000310: 74d7 5bbc fac1 1c3b caee c43c 20d9 bf3c
00000320: 2ce4 0f3e 8b2d e83d d511 b7bd 9625 44be
00000330: 6451 22be 62b7 2d3c a7f9 f2bb dbcc 5e3c
00000340: 367a 083d 1cb9 33bd 911c 10bb 76ab 18bd
00000350: ddfb a5bd f59c 1d3d 2fdb 853c e82b a5bd
00000360: 0627 5d3d 78de 2f3d dc93 0b3b 52f6 8aba
00000370: fe59 07bd f4d8 4fbd e157 d43c d64d b2b6
00000380: 96e8 993d 8df7 93bc b1ad a23b f25d 9f3b
00000390: 24d6 eb3c 95c6 643d a838 4d3c 9af4 043d
000003a0: 0f00 9dbd d3a6 a7bd 17be 13bd ab50 8c3d
000003b0: e17b 9a3d d0d6 8ebd d6dc 99bd 64d1 d03c
000003c0: 2c0a 363c 73fa 473d 7fdf 263d 44e2 cebc
000003d0: 1b6b 013e c023 d0bd e45c da3c 4057 fe3d
000003e0: 0ce0 433d fc55 2c3d a49a 913c ed96 71bb
000003f0: 22b3 a83b 46f5 22bd 4335 dfbd 575f 233d
0.0016687715 -0.046244267 0.062803395 0.08626619 0.04350402 0.0028356363 0.07055053 0.042964354
0.076963075 0.12228251 -0.0020594867 0.03597018 -0.025642827 -0.027877143 0.03455653 -0.011499107
-0.093658686 -0.013013073 -0.015442614 -0.019428853 0.031368535 0.06723876 0.028389292 -0.08701518
-0.012836364 0.019698802 -0.019220626 0.016952708 0.018657343 0.01490103 -0.024499878 0.011838868
0.012510255 0.010951334 0.02699923 0.006240338 -0.020033829 -0.024159288 -0.02382528 0.018628357
0.012129548 0.025900694 0.008742585 -0.009409355 0.013597465 0.016989319 -0.010697075 0.008585954
-0.005645749 -0.0043506064 0.05265645 0.010953935 0.061126675 0.057570677 0.026534535 -0.033770088
-0.023748418 0.007312405 -0.017880367 0.10041671 0.006176161 -0.020193284 -0.033380117 -0.0051708003
0.0037900095 0.01588426 -0.015105497 -0.0015914924 -0.00171589 0.06885508 -0.03715116 0.08825948
0.0070533976 -0.06851928 0.10231529 0.0103301825 0.0006636092 -0.040933553 -0.037862085 0.05952455
0.006040096 -0.057864223 0.064110756 -0.004137212 0.08866821 -0.05574964 -0.052240722 -0.02145091
-0.077352285 0.05023952 -0.008480104 -0.0033816965 -0.03638195 0.041945584 0.05696559 0.01824703
0.15113316 0.10448118 -0.06075857 -0.13036492 -0.016862929 -0.0790342 -0.0028340002 0.008920477
-0.064444475 -0.005256158 0.005264487 0.00866813 0.07362896 0.07242165 -0.02843584 -0.06040033
-0.036760323 0.009230691 0.0019581036 0.021912651 -0.03788242 0.0008278006 -0.023590107 -0.043200772
0.13590063 -0.010100398 -0.1364892 0.021668077 0.07551317 0.026488394 -0.011119687 -0.054615323
0.028701473 0.012794107 0.011937558 -0.06473167 0.026108867 0.04737899 -0.07777307 -0.013979518
0.0061491006 0.022504024 0.0056029167 0.015771251 -0.019026883 0.055853523 0.031000651 0.017094249
-0.009858241 -0.009205321 -0.027567748 0.035834707 -0.052893844 -0.07604411 0.01116676 -0.0017571269
0.059402335 -0.008750522 -0.00021430283 -0.03508779 0.025899684 -0.042679995 -0.05392605 0.065382995
0.032315616 0.036589634 0.03561705 -0.1085036 0.022944625 0.08469822 0.0494153 -0.008341175
0.004823931 0.10756725 -0.050743155 0.005093541 0.09331506 -0.04118752 0.06610468 0.011044363
-0.008924342 -0.004319956 0.002369293 0.007052223 0.014077268 -0.005841914 0.0025423637 0.008625157
-0.004555778 0.013983098 -0.005126947 0.0021299236 0.007869494 0.011532166 -0.00034257333 0.017686859
-0.013348399 0.00090976775 0.012118329 0.011358917 -0.013418067 0.002391933 0.024039645 0.023418963
0.14051884 0.11336812 -0.08938948 -0.19154963 -0.1585136 0.010602804 -0.007415015 0.013598646
0.033319674 -0.043877706 -0.0021989683 -0.037272893 -0.0810468 0.038479764 0.016339866 -0.08065015
0.053992294 0.042936772 0.0021297848 -0.0010601974 -0.033044808 -0.050744012 0.02592081 -5.3138747e-06
0.07515065 -0.018062377 0.0049645533 0.004863494 0.028788634 0.055853445 0.012525715 0.032459833
-0.07666027 -0.08186116 -0.036069956 0.06851324 0.07543159 -0.06974566 -0.07512824 0.02549047
0.011110824 0.04882283 0.040740486 -0.025254376 0.12638514 -0.10163069 0.026655622 0.12418985
0.04782109 0.04207419 0.017773934 -0.003686364 0.0051483074 -0.039784692 -0.10898831 0.039885845

pre_quantum_fc.bias f4 [4]
00000000: ba76 25bb aa89 e7bc b5cf 82bc 8bc2 16bc
-0.0025247768 -0.028263886 -0.015968183 -0.009201656

post_quantum_fc.weight f4 [10, 1]
00000000: 9e58 b6bf dada b33e 09be 7bbf d95f a0be
00000010: 03a1 123f 3b62 66bf f0ee 023f 0efc 723f
00000020: e096 57bf 5f93 753f
-1.4245794 0.35127908 -0.98336846 -0.31323126 0.57276934 -0.8999364 0.5114584 0.94915855
-0.8421459 0.95927995

post_quantum_fc.bias f4 [10]
00000000: f206 50bf 055c 953e 1dbd 1e3d 2850 453f
00000010: bb64 efbd 0ee2 8f3d 9c52 c8bd 264f 4fbf
00000020: 49ef 063e 8189 85bf
-0.812606 0.29171768 0.03875457 0.77075434 -0.11689135 0.070255384 -0.097813815 -0.80980146
0.13177218 -1.0432588
