hybrid_cnn_mnist_weights_cpu.pth (torch, 105075 bytes, 8 tensors)

conv_stack.0.weight f4 [32, 1, 3, 3]
0.02219241 0.24789138 0.32137257 -0.0027200289 0.26821023 -0.05523241 0.372718 0.33511728
-0.27637517 -0.22953713 0.05640489 0.2084235 -0.2599211 0.09630728 -0.0454182 0.22063327
-0.08521941 -0.089383125 0.22477359 0.36552858 0.18943782 0.3869813 -0.028443541 0.095027626
0.33062562 0.11256199 -0.27293253 -0.24452019 0.07783167 0.31947723 0.24604009 -0.2987713
0.35550797 -0.31868595 0.2184371 -0.17819214 -0.2924827 -0.2132138 0.1425337 0.13598055
-0.11208257 -0.10446162 0.32406795 -0.19589442 -0.048727714 -0.18577677 0.27610162 0.27865008
-0.21343638 -0.12683494 0.2269957 -0.051763237 -0.18355119 -0.29285732 -0.043270513 -0.36526346
-0.29767478 0.041164648 0.29695702 -0.29933748 0.29795945 0.3714481 0.3765064 -0.18272918
-0.333903 0.19248259 0.30886307 0.27536577 0.12682837 -0.2009356 0.090158954 -0.069770634
0.25183287 -0.06892254 -0.095298946 0.23148052 -0.1316364 -0.033287562 0.004842279 -0.1461287
-0.15486749 0.18201311 0.291876 0.27760476 0.124823034 0.09170838 0.30358377 0.027412131
-0.1794418 -0.10013119 0.19047613 0.22716333 -0.120985016 -0.15884003 -0.06607295 0.36541665
-0.24994637 -0.18155372 0.34131774 -0.37098154 -0.20408213 0.26734638 -0.023796044 0.11470311
0.33312333 -0.1520071 0.3381751 -0.16909167 -0.040837962 0.28427675 0.36639616 0.041331947
-0.25450176 -0.08881442 -0.26065937 -0.23617643 0.17438558 -0.13458817 -0.18683371 0.2946403
-0.12356069 -0.027081193 0.25968534 -0.39736277 0.3128712 -0.16856156 0.055245567 0.17055817
-0.027794195 -0.36621606 -0.2849068 -0.25336197 -0.26015568 -0.17382699 -0.3140261 0.115732245
0.28828856 0.1394108 0.34316266 -0.26764986 -0.35290104 0.3068348 -0.33848095 -0.15789604
0.2814315 -0.2613557 0.03003315 -0.27048302 -0.1860317 0.004477643 0.27420944 0.049425542
0.06430144 -0.036006026 0.033185158 0.060277812 -0.19754392 -0.1778694 0.025013465 -0.24118072
-0.2910394 -0.11017145 -0.15806545 -0.30472338 -0.28266832 -0.3313737 -0.31351516 0.23667021
0.18537419 0.26011565 0.33960792 0.021128865 -0.15785916 -0.29335737 0.009629223 -0.2447194
-0.10313799 0.020263474 0.3198598 0.08259469 -0.122879885 0.13294116 -0.0036365753 -0.0770382
-0.20336281 -0.092809334 -0.35074243 -0.27531314 -0.16875614 -0.13424431 0.040179987 -0.12878953
0.30929095 -0.30894127 -0.06319591 0.0163449 -0.021834323 -0.29972863 0.39487606 0.2538734
0.2035432 -0.34458527 -0.053043276 -0.09597932 0.12698439 -0.016907038 -0.06305452 0.18183066
0.14212476 0.29913348 -0.20146759 -0.24442513 0.28768688 -0.33290294 0.12781633 -0.14250821
0.17795366 0.042246453 -0.21699911 -0.1794936 0.23670097 -0.24139664 -0.08993879 0.35172796
-0.103885524 0.3030389 -0.14317575 0.35184804 0.08169717 -0.15784764 0.37182015 0.14253533
0.12453069 0.315326 0.04994942 0.052458588 -0.14251328 -0.11345175 -0.25648898 -0.30402955
0.015934147 0.384469 0.16027695 0.35111395 0.36688876 0.27739596 -0.11591719 0.03833109
0.02838138 -0.28063747 -0.35803598 -0.30398554 0.17428929 0.17649207 0.013756094 0.031839997
00000000: dbcc b53c 3dd7 7d3e f28a a43e 8342 32bb
00000010: da52 893e 613b 62bd e5d4 be3e 7e94 ab3e
00000020: 0c81 8dbe c80b 6bbe d008 673d f86c 553e
00000030: 6114 85be c03c c53d 6f08 3abd b0ed 613e
00000040: 8487 aebd 800e b7bd 0c2b 663e 9026 bb3e
00000050: fdfb 413e 6a22 c63e 6e02 e9bc d89d c23d
00000060: c347 a93e e786 e63d d0bd 8bbe 8063 7abe
00000070: 3666 9f3d 8592 a33e eff1 7b3e 8df8 98be
00000080: 2405 b63e ce2a a3be faad 5f3e 0078 36be
00000090: 4bc0 95be b854 5abe 5bf4 113e 7c3e 0b3e
000000a0: 8c8b e5bd f9ef d5bd 3cec a53e 8c98 48be
000000b0: b696 47bd 443c 3ebe 315d 8d3e 39ab 8e3e
000000c0: 118f 5abe 05e1 01be 9071 683e b005 54bd
000000d0: d8f4 3bbe 65f1 95be 6c3c 31bd d003 bbbe
000000e0: d468 98be 439c 283d c00a 983e c342 99be
000000f0: 248e 983e 722e be3e 72c5 c03e 5c1d 3bbe
00000100: 56f5 aabe 281a 453e 4d23 9e3e befc 8c3e
00000110: 4cdf 013e 10c2 4dbe 42a5 b83d e8e3 8ebd
00000120: 3df0 803e 4327 8dbd 182c c3bd 3b09 6d3e
00000130: b1cb 06be 8a58 08bd fbab 9e3b c3a2 15be
00000140: 9595 1ebe a561 3a3e c570 953e 3622 8e3e
00000150: 38a3 ff3d 9ad1 bb3d 556f 9b3e 688f e03c
00000160: 97bf 37be 9511 cdbd 2d0c 433e 819d 683e
00000170: fec6 f7bd f6a6 22be 4151 87bd e417 bb3e
00000180: f1f1 7fbe 38e9 39be 33c1 ae3e 4bf1 bdbe
00000190: e8fa 50be a0e1 883e ecef c2bc 77e9 ea3d
000001a0: 248f aa3e c0a7 1bbe 4925 ad3e 5e26 2dbe
000001b0: b545 27bd b98c 913e 4798 bb3e b04b 293d
000001c0: 0e4e 82be 56e4 b5bd 2575 85be 3cd8 71be
000001d0: 2292 323e 7bd1 09be 5651 3fbe 18db 963e
000001e0: 630d fdbd 61d9 ddbc 7af5 843e 2273 cbbe
000001f0: a730 a03e 679b 2cbe 2d49 623d cda6 2e3e
00000200: a7b0 e3bc ac80 bbbe 4edf 91be a9b8 81be
00000210: 2033 85be b4ff 31be 07c8 a0be 0705 ed3d
00000220: 8f9a 933e b4c1 0e3e 04b3 af3e 6709 89be
00000230: 72af b4be 7319 9d3e 604d adbe 80af 21be
00000240: ca17 903e 6ad0 85be 1508 f63c c07c 8abe
00000250: 187f 3ebe 31b9 923b 2e65 8c3e 7072 4a3d
00000260: 79b0 833d 0e7b 13bd 29ed 073d dee5 763d
00000270: f448 4abe 6523 36be 0ae9 cc3c 14f8 76be
00000280: 1e03 95be 92a1 e1bd e9db 21be b404 9cbe
00000290: e7b9 90be d0a9 a9be 0f85 a0be ad59 723e
000002a0: bbd2 3d3e e12d 853e 17e1 ad3e 7116 ad3c
000002b0: d5a5 21be f032 96be e3c3 1d3c b997 7abe
000002c0: 033a d3bd 96ff a53c aac4 a33e 6827 a93d
000002d0: 73a8 fbbd ba21 083e 9c53 6ebb 34c6 9dbd
000002e0: 573e 50be d212 bebd 8394 b3be d8f5 8cbe
000002f0: 69ce 2cbe 5777 09be c593 243d 67e1 03be
00000300: 625b 9e3e 8d2d 9ebe db6c 81bd bde5 853c
00000310: e5dd b2bc 0876 99be 322d ca3e b2fb 813e
00000320: a16d 503e 7b6d b0be e843 59bd ce90 c4bd
00000330: 3208 023e a180 8abc ba22 81bd d131 3a3e
00000340: 2789 113e 0628 993e 854d 4ebe 954a 7abe
00000350: b24b 933e 4172 aabe 49e2 023e aced 11be
00000360: 7c39 363e 9e0a 2d3d 0435 5ebe 2ccd 37be
00000370: bd61 723e ae30 77be d431 b8bd b015 b43e
00000380: efc1 d4bd ea27 9b3e aa9c 12be 6d25 b43e
00000390: d950 a73d d0a2 21be 365f be3e c8f4 113e
000003a0: f209 ff3d 6972 a13e c397 4c3d d1de 563d
000003b0: 00ef 11be 6459 e8bd 8652 83be c3a9 9bbe
000003c0: 5488 823c 1fd9 c43e a41f 243e 35c5 b33e
000003d0: d8d8 bb3e d806 8e3e fe65 edbd 1001 1d3d
000003e0: 1180 e83c b7af 8fbe 7e50 b7be fea3 9bbe
000003f0: e478 323e 56ba 343e 3d61 613c a86a 023d

conv_stack.0.bias f4 [32]
-0.1354413 0.15787825 0.2021124 0.17506155 -0.007876549 -0.08650444 0.3478032 0.20347606
0.2169331 -0.19687751 0.005188716 0.11907749 -0.046400186 -0.13845628 -0.18163809 0.033133764
0.14841497 0.052993603 -0.14455974 -0.09842475 0.06992095 0.13371108 -0.0032841281 0.10068248
-0.042561673 -0.14389691 -0.0028914495 -0.0106858425 0.3547909 0.16558492 -0.1697412 -0.17566851
00000000: 20b1 0abe d6aa 213e 8ef6 4e3e 5643 333e
00000010: a40c 01bc 3d29 b1bd 4313 b23e 075c 503e
00000020: b623 5e3e 429a 49be 1b06 aa3b e6de f33d
00000030: 1f0e 3ebd 7cc7 0dbe 56ff 39be 45b7 073d
00000040: 18fa 173e d20f 593d 7807 14be ea92 c9bd
00000050: b732 8f3d 8feb 083e 873a 57bb 9e32 ce3d
00000060: 2655 2ebd b659 13be 797e 3dbb ac13 2fbc
00000070: 27a7 b53e 188f 293e a3d0 2dbe 72e2 33be

conv_stack.3.weight f4 [64, 32, 3, 3]
0.043150276 0.050599772 0.078023545 -0.054384787 -0.02139238 0.013211651 -0.055960707 -0.02959591
0.006937136 -0.06302265 0.019285077 0.05027411 0.008738763 -0.03940585 -0.060745243 -0.0075970953
0.074773625 0.06731373 -0.006613108 0.01692099 0.037842557 0.04685909 -0.021839233 -0.024250787
-0.10951824 -0.11575769 -0.038393736 -0.012099365 0.034318876 0.017751958 0.011282016 0.04015333
-0.0020993836 -0.09348444 0.029705336 0.030958652 0.027604565 0.03210325 0.018295532 0.022364749
-0.023165127 -0.07437249 -0.027963528 0.0646661 -0.0062936447 -0.035862025 0.005081275 0.062459372
0.02858499 -0.01664269 0.008619445 0.035172038 0.02752215 0.121535696 0.0023791513 -0.05508979
0.0010197227 -0.06480421 -0.011127908 0.090023704 -0.032761652 -0.0035263915 -0.02224939 0.038354803
0.04895362 0.051818598 -0.048815697 -0.0013242475 0.019375011 -0.07133912 -0.01817269 -0.02364448
0.008733192 -0.037119534 0.03492187 0.04000687 -0.023976149 0.05832645 0.054928742 -0.012733354
-0.07323795 -0.06878383 0.031043602 0.08466717 0.05141959 -0.016236436 0.016899744 -0.09062196
-0.082262695 0.038077712 -0.08089874 0.008134753 -0.06705565 -0.06793938 0.016691165 0.034155488
-0.10808666 0.049320716 0.11380704 0.033243287 0.0035252015 -0.021512298 -0.02832376 0.019346388
0.038626038 -0.06065708 -0.0049120313 0.012632839 -0.009214139 0.062044807 0.022268565 0.024993172
0.060463924 0.013000367 -0.0815155 0.04517243 0.10409886 0.042297754 0.06944844 0.09916865
0.0038379831 0.090488665 -0.06332399 -0.06357893 0.013788425 0.034223158 0.04669605 -0.025307328
-0.116917886 0.036773708 0.06430045 -0.0609877 0.05277198 0.03889446 -0.022317009 -0.065777056
0.029748298 0.0944918 -0.0071934205 -0.062155116 -0.04358275 -0.108959705 -0.011275221 -0.0011433975
-0.0327929 -0.051617295 -0.0920573 -0.051502295 0.064876825 0.05879402 0.038793873 0.0055783154
-0.06463401 -0.016012147 0.0041060136 -0.082864806 -0.030331412 0.055085007 -0.07295101 -0.0009204154
0.053847965 0.053835537 -0.05322861 -0.030772159 -0.101485655 -0.032637615 -0.049198676 0.004382232
-0.045794923 -0.013504439 -0.10127051 -0.0823776 -0.0062873773 -0.029353857 0.0378076 -0.061093964
0.07276005 0.008534973 -0.010300014 -0.08691307 0.025542555 -0.0092233755 -0.09743115 -0.035211004
-0.016928408 -0.03412507 -0.029753283 0.06605664 -0.05188059 -0.053977083 -0.019713007 0.013543473
-0.036932312 -0.027810743 -0.04325233 -0.039410606 -0.005313561 -0.089452654 -0.039552875 0.039262176
0.1060801 0.060379796 0.04379292 0.029021544 -0.073261514 -0.0050531235 0.038188536 -0.07171354
0.020995446 0.014326105 0.0077918875 0.056318425 -0.03242741 -0.006696608 0.068539456 0.0048424876
0.00976551 -0.061297398 0.045458328 -0.04537831 -0.0044250167 0.093794905 0.05692683 0.018122368
0.03553862 0.053620484 0.0028643538 0.07043217 0.0035915468 -0.027474087 -0.008174918 -0.07535703
-0.085064955 -0.019517493 -0.020710122 -0.054920394 -0.036244445 0.012770133 0.0011507275 0.08619097
-0.044318683 0.009423293 -0.061927162 -0.00450368 0.022908805 -0.029778091 0.029305547 0.02838826
-0.026911214 -0.10141078 -0.032170802 0.076911844 0.041903716 -0.03811857 0.09204401 0.0020313058
00000000: 58be 303d b541 4f3d cfca 9f3d 95c2 5ebd
00000010: 133f afbc ae75 583c 0e37 65bd 1f73 f2bc
00000020: ea50 e33b 0512 81bd bdfb 9d3c 3aec 4d3d
00000030: 072d 0f3c 0768 21bd 01d0 78bd 0ef1 f8bb
00000040: ea22 993d c8db 893d c5b2 d8bb e39d 8a3c
00000050: cc00 1b3d 51ef 3f3d 31e8 b2bc 96a9 c6bc
00000060: 194b e0bd 5e12 edbd c042 1dbd 6a3c 46bc
00000070: f391 0c3d 8e6c 913c 34d8 383c d177 243d
00000080: d095 09bb c574 bfbd 9b58 f33c 009d fd3c
00000090: f822 e23c b37e 033d 83e0 953c 4736 b73c
000000a0: cbc4 bdbc 9b50 98bd c513 e5bc a96f 843d
000000b0: eb3a cebb 0fe4 12bd d380 a63b 66d5 7f3d
000000c0: 122b ea3c 4056 88bc 9338 0d3c 8e10 103d
000000d0: 2276 e13c b5e7 f83d 89eb 1b3b d5a5 61bd
000000e0: 37a8 853a 12b8 84bd d451 36bc 595e b83d
000000f0: 1531 06bd 081b 67bb 5a44 b6bc ed19 1d3d
00000100: 9783 483d bd3f 543d f8f2 47bd 5f92 adba
00000110: 58b8 9e3c 3f1a 92bd e5de 94bc 12b2 c1bc
00000120: aa15 0f3c a70a 18bd 3c0a 0f3d 3ede 233d
00000130: a169 c4bc b7e7 6e3d f6fc 603d 8f9f 50bc
00000140: c7fd 95bd 89de 8cbd 274f fe3c fb65 ad3d
00000150: 599d 523d 4602 85bc 5571 8a3c 0298 b9bd
00000160: 5879 a8bd 60f7 1b3d 3dae a5bd a147 053c
00000170: 7954 89bd cd23 8bbd e9bb 883c a0e6 0b3d
00000180: 8a5c ddbd 8504 4a3d aa13 e93d 1d2a 083d
00000190: 1107 673b 8f3a b0bc 3b07 e8bc 517c 9e3c
000001a0: 5636 1e3d 8f73 78bd 1bf5 a0bb f8f9 4e3c
000001b0: e6f6 16bc b222 7e3d 916c b63c 7bbe cc3c
000001c0: 05a9 773d 7eff 543c 99f1 a6bd ba06 393d
000001d0: c831 d53d 6940 2d3d fc3a 8e3d ef18 cb3d
000001e0: ac86 7b3b 1f52 b93d 02b0 81bd ac35 82bd
000001f0: d9e8 613c 952d 0c3d 5b44 3f3d 5051 cfbc
00000200: a572 efbd 07a0 163d f4af 833d 3dce 79bd
00000210: 6f27 583d cc4f 1f3d 29d2 b6bc 1fb6 86bd
00000220: b4b2 f33c eb84 c13d c9b6 ebbb 5d96 7ebd
00000230: d383 32bd 4426 dfbd b4bb 38bc 0ede 95ba
00000240: d951 06bd a86c 53bd 8a88 bcbd 12f4 52bd
00000250: 24de 843d 00d2 703d 53e6 1e3d 4dca b63b
00000260: d65e 84bd e82b 83bc bd8b 863b 06b5 a9bd
00000270: 9579 f8bc d1a0 613d 5767 95bd 0848 71ba
00000280: af8f 5c3d a782 5c3d 3e06 5abd e515 fcbc
00000290: b6d7 cfbd 05af 05bd 8d84 49bd d498 8f3b
000002a0: 7593 3bbd b941 5dbc ea66 cfbd 96b5 a8bd
000002b0: 5806 cebb 8077 f0bc 24dc 1a3d aa3d 7abd
000002c0: 3903 953d 45d6 0b3c 64c1 28bc 7bff b1bd
000002d0: 9f3e d13c a41d 17bc fc89 c7bd 6a39 10bd
000002e0: 72ad 8abc bbc6 0bbd 28bd f3bc b448 873d
000002f0: be80 54bd 1317 5dbd 2c7d a1bc 71e5 5d3c
00000300: 5646 17bd 5bd3 e3bc 5b29 31bd 046d 21bd
00000310: 611d aebb f432 b7bd 3202 22bd 60d1 203d
00000320: 8640 d93d ce50 773d 3460 333d 97be ed3c
00000330: 220a 96bd ac94 a5bb 956b 1c3d 8cde 92bd
00000340: a4fe ab3c 0ab8 6a3c 1753 ff3b 26ae 663d
00000350: 9bd2 04bd 386f dbbb 6a5e 8c3d bbad 9e3b
00000360: 85ff 1f3c fb12 7bbd 8332 3a3d 9bde 39bd
00000370: bbff 90bb 8b17 c03d 1c2c 693d 5c75 943c
00000380: f290 113d 27a1 5b3d e2b7 3b3b be3e 903d
00000390: 2860 6b3b 5611 e1bc 17f0 05bc c954 9abd
000003a0: 8936 aebd 26e3 9fbc 46a8 a9bc 35f4 60bd
000003b0: 0e75 14bd d239 513c 02d4 963a e484 b03d
000003c0: 8287 35bd 2864 1a3c 56a7 7dbd 9b93 93bb
000003d0: 3fab bb3c 2ff1 f3bc 3012 f03c 7f8e e83c
000003e0: e874 dcbc 74b0 cfbd 88c5 03bd f583 9d3d
000003f0: 3ba3 2b3d 3822 1cbd 9281 bc3d a81f 053b

conv_stack.3.bias f4 [64]
-0.025236478 -0.013623985 0.038723577 -0.011147626 0.011593592 -0.04096263 0.02116209 -0.06251129
0.051190097 0.016892342 -0.03037642 0.050503317 0.0371515 0.01835056 0.034406632 0.010679993
-0.044218034 -0.043453604 0.004657186 0.008671532 -0.018306522 -0.051447205 0.057323057 -0.02104926
-0.05439096 0.007431546 0.013751305 0.024855902 -0.04955961 0.053581897 0.054888435 0.012152975
-0.010670857 -0.036226116 0.015005937 0.027430344 0.006429249 -0.04111696 -0.049766295 -0.0533449
-0.010159591 0.0346841 0.009998142 0.027588774 -0.03043729 -0.026779206 -0.04313353 0.04425878
0.03929082 0.016976135 -0.003346516 0.01290594 -0.03104408 -0.021523537 0.02071323 -0.037580207
0.04787623 -0.06871284 -0.05686365 -0.026935006 -0.012602994 0.015772438 0.059191853 -0.04399882
00000000: bbbc cebc 2337 5fbc 9d9c 1e3d 88a4 36bc
00000010: 0df3 3d3c 6ec8 27bd 1f5c ad3c eb05 80bd
00000020: b5ac 513d cf61 8a3c f8d7 f8bc 91dc 4e3d
00000030: 2c2c 183d ea53 963c f8ed 0c3d 23fb 2e3c
00000040: f81d 35bd 68fc 31bd 4f9b 983b 0b13 0e3c
00000050: 8ff7 95bc 4eba 52bd 95cb 6a3d 7f6f acbc
00000060: 0ec9 5ebd 5484 f33b 274d 613c 9b9e cb3c
00000070: 05ff 4abd b178 5b3d b2d2 603d 461d 473c
00000080: d1d4 2ebc d661 14bd 76db 753c 9ab5 e03c
00000090: 73ac d23b 426a 28bd bed7 4bbd 2f80 5abd
000000a0: 6a74 26bc ea10 0e3d 3fcf 233c da01 e23c
000000b0: a057 f9bc 1160 dbbc c9ac 30bd b248 353d
000000c0: 69ef 203d 8911 8b3c 3951 5bbb 7073 533c
000000d0: 2850 febc 2152 b0bc cbae a93c b4ed 19bd
000000e0: de19 443d 51b9 8cbd dce9 68bd cda6 dcbc
000000f0: ca7c 4ebc 3335 813c 2873 723d 1b38 34bd

pre_quantum_fc.weight f4 [4, 1600]
-0.02252803 -0.025326354 0.06695047 0.04746537 -0.0027911973 -0.006028558 0.05405131 0.025906833
0.050135825 0.074587405 -0.0032132217 0.018992338 -0.011362726 -0.03281249 -0.0052869027 -0.021239813
-0.06447677 -0.011205378 -0.025186831 -0.0105833635 0.030973613 0.060283504 0.012351679 -0.043995477
0.007713548 0.019698802 -0.019220626 0.016952708 0.018657343 0.01490103 -0.024499878 0.011838868
0.012510255 0.010951334 0.02699923 0.006240338 -0.020033829 -0.024159288 -0.02382528 0.018628357
0.012129548 0.025900694 0.008742585 -0.009409355 0.013597465 0.016989319 -0.010697075 0.008585954
-0.005645749 -0.0043506064 0.015940847 0.0070795743 0.059047535 0.04587605 0.017810266 -0.029100006
-0.011145643 0.0018888296 -0.01899302 0.0724665 -0.0067917584 -0.02434155 -0.027674565 -0.012312078
-0.023280198 0.0041559082 -0.012324822 0.0018925115 -0.00068010547 0.054388825 -0.031715266 0.075977445
0.002439351 -0.033858586 0.06635162 -0.0015354151 -0.009777738 -0.026763659 -0.03017683 0.05810515
0.01391907 -0.032596316 0.036864396 0.01984177 0.06442787 -0.0067342343 -0.037561145 -0.020712173
-0.06248819 0.024071315 0.017834565 -0.006680831 -0.032292012 0.012617534 0.023918878 -0.0062488015
0.08797138 0.07850158 -0.048566215 -0.10137032 0.023498368 -0.031281937 0.002159128 -0.04061519
-0.054246414 -0.018739427 -0.0023464302 0.019398883 0.007996383 0.015959453 -0.014964861 -0.028271805
-0.02677815 -0.019698558 0.025389578 0.018722706 -0.005910847 0.0016470164 -0.015711082 -0.007462873
0.056729954 -0.0019959044 -0.0487405 -0.013362589 0.038571097 0.0030292221 -0.019309634 -0.0323036
0.033051 0.003152293 -0.006831215 -0.051178448 0.014165984 0.033165883 -0.049790766 -0.020925915
-0.002627763 0.015039205 0.010999367 -0.0062632747 -0.04128052 0.03978879 0.020553889 0.011703447
-0.011578142 -0.026025012 -0.022132734 0.04033513 -0.016029678 -0.023291368 -0.0029836698 -0.01372644
0.05299333 -0.011595295 0.004142059 0.0037791731 0.020310411 -0.030306963 -0.04118315 0.056712978
0.008575586 0.022739809 0.0015109817 -0.09193154 -0.0011603738 0.07340593 0.054382645 -0.016234884
0.0020647196 0.06647507 -0.034804415 0.004862941 0.07906224 -0.023560531 0.04566746 0.011044363
-0.008924342 -0.004319956 0.002369293 0.007052223 0.014077268 -0.005841914 0.0025423637 0.008625157
-0.004555778 0.013983098 -0.005126947 0.0021299236 0.007869494 0.011532166 -0.00034257333 0.017686859
-0.013348399 0.00090976775 0.012118329 0.011358917 -0.013418067 0.002391933 0.024039645 0.023418963
0.038819864 0.08636633 -0.062492054 -0.16749762 -0.13350606 0.02643812 -0.004594021 0.018943852
0.026238699 -0.042671684 0.014225358 -0.029662294 -0.046406746 0.031511504 0.012614481 -0.06648576
0.032959834 0.03118528 -0.0116019 -0.0022246232 -0.028972117 -0.039799545 0.015847942 -0.0034392774
0.065442786 -0.002494703 -0.00410785 0.003901654 0.025839932 0.03580753 0.011366264 0.026434394
-0.065846145 -0.06975689 -0.010428682 0.048887607 0.06028725 -0.06469055 -0.07007779 0.012270597
0.022055397 0.059564494 0.023860376 -0.0077402084 0.09898798 -0.10729807 0.012188245 0.09374095
0.039168246 0.048245873 0.0015659311 0.0019305843 -0.026758565 -0.01409531 -0.039622884 0.007147323
00000000: b48c b8bc 3779 cfbc 541d 893d 0c6b 423d
00000010: 85ec 36bb 368b c5bb e864 5d3d 913a d43c
00000020: 395b 4d3d 48c1 983d ea94 52bb d295 9b3c
00000030: ba2a 3abc 6466 06bd c13d adbb 1eff adbc
00000040: 660c 84bd c396 37bc 9d54 cebc d865 2dbc
00000050: 60bc fd3c d6eb 763d b25e 4a3c 9a34 34bd
00000060: eec1 fc3b 625f a13c 9374 9dbc 68e0 8a3c
00000070: 49d7 983c 7323 743c f8b3 c8bc d0f7 413c
00000080: d0f7 4c3c 396d 333c 7d2d dd3c c07b cc3b
00000090: fc1d a4bc b3e9 c5bc 3c2d c3bc 7f9a 983c
000000a0: 03bb 463c b12d d43c 0f3d 0f3c b229 1abc
000000b0: e7c7 5e3c 2f2d 8b3c c942 2fbc 1aac 0c3c
000000c0: faff b8bb 888f 8ebb 6196 823c c6fb e73b
000000d0: d4db 713d 86e8 3b3d d6e6 913c 2363 eebc
000000e0: 379c 36bc 9b92 f73a 4097 9bbc 5169 943d
000000f0: 668d debb ee67 c7bc c5b5 e2bc 99b8 49bc
00000100: 1db6 bebc 492e 883b 0dee 49bc 260e f83a
00000110: 1b49 32ba d1c6 5e3d dee7 01bd 109a 9b3d
00000120: 85dd 1f3b 4daf 0abd 5ce3 873d fb3f c9ba
00000130: ce32 20bc 763f dbbc 6635 f7bc aaff 6d3d
00000140: d00c 643c b783 05bd 1fff 163d 358b a23c
00000150: c2f2 833d daaa dcbb b7d9 19bd 93ac a9bc
00000160: 9ef3 7fbd 3531 c53c cb19 923c dfea dabb
00000170: a144 04bd c6b9 4e3c 86f1 c33c bfc2 ccbb
00000180: 572a b43d 70c5 a03d 5eed 46bd 3e9b cfbd
00000190: a67f c03c 7d21 00bd 2880 0d3b 1d5c 26bd
000001a0: 7d31 5ebd 6d83 99bc 91c6 19bb 68ea 9e3c
000001b0: 4303 033c 66bd 823c 2d2f 75bc 469a e7bc
000001c0: da5d dbbc df5e a1bc cefd cf3c 5c60 993c
000001d0: c7af c1bb b3e0 d73a 87b4 80bc 1e8b f4bb
000001e0: ab5d 683d b8cd 02bb 1ea4 47bd c3ee 5abc
000001f0: bafc 1d3d ea85 463b 3d2f 9ebc c850 04bd
00000200: 7c60 073d b396 4e3b 63d8 dfbb 7ea0 51bd
00000210: 7118 683c f3d8 073d 67f1 4bbd d36c abbc
00000220: 8c36 2cbb ff66 763c b036 343c 283c cdbb
00000230: c315 29bd 92f9 223d a160 a83c d1bf 3f3c
00000240: 3fb2 3dbc 6832 d5bc b54f b5bc 7336 253d
00000250: ac50 83bc 8acd bebc ac89 43bb dde4 60bc
00000260: 890f 593d 31fa 3dbc 1cba 873b 01ac 773b
00000270: 0562 a63c 4f46 f8bc aaaf 28bd de4b 683d
00000280: 9d80 0c3c d648 ba3c 220c c63a 9a46 bcbd
00000290: af17 98ba d955 963d 56c0 5e3d 05ff 84bc
000002a0: 3f50 073b 1524 883d 138f 0ebd 4e59 9f3b
000002b0: 62eb a13d 0402 c1bc cd0d 3b3d 6af3 343c
000002c0: 6737 12bc 6b8e 8dbb 2446 1b3b 5616 e73b
000002d0: 57a4 663c 876d bfbb c99d 263b 8850 0d3c
000002e0: a348 95bb 5d19 653c f3ff a7bb 3096 0b3b
000002f0: 0def 003c 69f1 3c3c 6a9b b3b9 08e4 903c
00000300: 3eb3 5abc 7b7d 6e3a f58b 463c c01a 3a3c
00000310: 74d7 5bbc fac1 1c3b caee c43c 20d9 bf3c
00000320: 9401 1f3d d5e0 b03d abf7 7fbd 7f84 2bbe
00000330: d0b5 08be c294 d83c 7189 96bb 2330 9b3c
00000340: 8af2 d63c 81c8 2ebd 7a11 693c 57fe f2bc
00000350: 0015 3ebd 3512 013d f8ac 4e3c b029 88bd
00000360: e400 073d 4678 ff3c e515 3ebc fcca 11bb
00000370: ef56 edbc d904 23bd 8bd3 813c 8065 61bb
00000380: de06 863d 2c7e 23bb 259b 86bb e4b2 7f3b
00000390: 44ae d33c ebaa 123d 9139 3a3c f18c d83c
000003a0: 58da 86bd b3dc 8ebd 10dd 2abc 5f3e 483d
000003b0: c3ef 763d 7b7c 84bd f284 8fbd 9d0a 493c
000003c0: 85ad b43c e6f9 733d d676 c33c 93a1 fdbb
000003d0: 36ba ca3d 17bf dbbd 34b1 473c 41fb bf3d
000003e0: e26e 203d 779d 453d ee3f cd3a a90b fd3a
000003f0: c734 dbbc 04f0 66bc 9b4b 22bd 1734 ea3b

pre_quantum_fc.bias f4 [4]
-0.004171738 -0.02242394 -0.01269141 -0.019383056
00000000: 13b3 88bb 69b2 b7bc a2ef 4fbc 37c9 9ebc

post_quantum_fc.weight f4 [10, 1]
-1.0943154 0.3098237 -0.9061072 -0.38011804 0.48799476 -0.73797613 0.520923 0.7071637
-0.67827153 0.7572722
00000000: 8712 8cbf 36a1 9e3e a4f6 67bf d59e c2be
00000010: 73da f93e 01ec 3cbf 365b 053f ae08 353f
00000020: 34a3 2dbf 97dc 413f

post_quantum_fc.bias f4 [10]
-0.46952373 0.037078366 0.035085816 0.6469822 -0.13890535 -0.023557648 -0.2264074 -0.5529945
0.050260343 -0.8906648
00000000: 6a65 f0be 7cdf 173d 25b6 0f3d a0a0 253f
00000010: 343d 0ebe f8fb c0bc 57d7 67be 0c91 0dbf
00000020: cadd 4d3d 9c02 64bf
