modelos/hybrid_cnn_mnist_weights.pth (torch, 104588 bytes, 8 tensors)

conv_stack.0.weight f4 [32, 1, 3, 3]
00000000: 2f4d 2fbe 8664 aabe 639f f5bd 2bdb 15be
00000010: 4ae6 61bd 6987 823e f194 e63d 3c11 403e
00000020: b486 303e 76bc 9d3e 391f 9c3e f756 a43c
00000030: dd7c a43e aed4 a6be 4686 013e b9a9 823e
00000040: 86aa b9be 059d acbe 0503 9dbd 8618 4e3e
00000050: 46bc a23e de4b aabe b4a6 b43e 036c 263c
00000060: f31d e7bd 6ef0 9cbd 5fb2 773e 1d72 1f3e
00000070: 196d 053d b4ac 8dbe f2ff 0ebd 5889 8bbe
00000080: 4084 a9be da56 d53d 23e4 b5bd d717 a5be
00000090: ced8 9dbe fa32 b03e d751 b93e 7db5 9abe
000000a0: e8b6 72be a126 6d3e 2384 17be 634b e2bd
000000b0: 01d0 e1bd 4bac 483e e3fb 91be d306 96be
000000c0: 4d0a 1b3e 6c10 323e 0254 373e b3c9 d5bd
000000d0: 6ebd 20be 25c6 34be 4cf7 35be c0f9 92be
000000e0: 6832 f73d 2f9c 0fbe 64de a2be 9bc8 3f3d
000000f0: 0094 913e 16cd 713a 7164 87be 38fe 093e
00000100: 1776 41be cbca 813e ccc8 99be 7ae7 a43e
00000110: ad41 68bd b49a 993e 7700 413e c65a 853e
00000120: bc9a c33d af99 3abe a14d d33c 3c29 9b3e
00000130: dc11 95be acc3 b63d fd59 923d f154 6b3e
00000140: 3416 6bbe 674e 75be 4371 c33d a6aa c2bd
00000150: 39f0 debd df3f 9b3d fe4d 803e 1175 7cbe
00000160: 87fe e1bc 4afb 20be a5d5 a8bd f6ab 22be
00000170: ef84 bb3e 4667 373e 7712 803d 7b2a e1bd
00000180: ceb8 443e 291d 6cbe 5dd8 a3be 682e 5abe
00000190: 7865 c0bd 0cbc 6bbe 7dca 653e 65b5 22bc
000001a0: 6b50 f8bd 2c8a 5cbe d085 a53e fb2a b03e
000001b0: 0009 4abe cc13 943e 6b80 8fbc 92a8 03be
000001c0: ea58 013e 880f 81be d88a 9ebe ed99 f5bc
000001d0: 400f 733e e066 753e a194 973e 47cb 063e
000001e0: 631a c73d 4815 7b3d cdaf 8fbe 10f3 9c3e
000001f0: 7a94 9e3e cbd2 a6be 2983 a5be fd76 c7bd
00000200: a2fe 69be bbbf e6bd c05f 8d3e 7a6d 8bbd
00000210: 3b7e ad3e 3114 05bd c9ae 083d d213 eebb
00000220: 4c14 cfbd 945c 6bbd 2970 18be b94a 7fbe
00000230: dce4 ba3c 6a75 e43d 675d e03d a56c ed3d
00000240: 431f 08be 513f a1be 50c3 313e 1903 5e3d
00000250: 0d09 a5be 085a 9d3e 5f4b b9bd 9433 93be
00000260: c8b2 63be 1d13 a2bd 18a8 86be c51b 783d
00000270: dcee 25be 48dc 2dbe 9a2f 9a3e c19c c1bd
00000280: e82c 863c 24f6 21be ade0 25bd b390 52be
00000290: 2d26 38be dd61 5dbe e222 ebbd 08e3 a03d
000002a0: 783c 273e b047 583e 0542 18be b582 9dbe
000002b0: efe6 1dbd b260 b23e aaf4 69bd 8aea a23e
000002c0: b547 893e d21c 583e d44b 9cbc 7134 563d
000002d0: e8c9 63be 17f6 483d fced d63d dd8a 61be
000002e0: eb57 80be b06c 49be 9929 bebb c25d a1bd
000002f0: cfdc dc3d fd6e 1cbe 166e ab3e 8375 12be
00000300: 9ca9 4d3e 653a a33e 1b74 ae3e 0666 84be
00000310: 9da5 8cbe 7f5d 40be 742c 4abe 492e 37bd
00000320: e347 4dbd b50d 213e c93d ae3e 0975 393e
00000330: eafb ec3c 89d0 a0bd e1af 80bd 5d6b 8e3e
00000340: 917d 92be 83bb 28bd 8464 a7be 3798 fbbd
00000350: 2a0a 7fbe dfb9 a5be f58a e93d 21d3 30be
00000360: 85a4 ba3d 990f 963e 588d f1bd b2c6 263e
00000370: 4249 1dbe 81c9 193e 2b61 c33e ffe4 cfbd
00000380: 46de 93be 4481 913e 9de5 8d3e 86e6 0e3e
00000390: 6a2a b53c 4124 0d3e b38d 793d ca15 d9ba
000003a0: dd3a 1abe 6a15 0e3d 0221 a23e 8979 f7bd
000003b0: 6c7c 9abe 0b45 58be 5651 083c a538 083e
000003c0: 670f 913d d0fa b33e c687 113e 143b f33d
000003d0: b2d0 a8be 0140 753e f2a3 403e c2f3 b43d
000003e0: e682 213e fdec b8be 0446 a63e 23fb 2f3c
000003f0: bb7c adbe 22a6 213e a933 7b3e 5aeb 473e
-0.17119287 -0.33279818 -0.11993291 -0.14634387 -0.05515126 0.25493935 0.11258877 0.18756574
0.17238885 0.30807847 0.3049257 0.020061 0.32126513 -0.32584137 0.12648878 0.25520113
-0.36262912 -0.33713546 -0.076665916 0.20126542 0.31784266 -0.33261007 0.35283434 0.010157588
-0.11285009 -0.07663046 0.24189137 0.15570875 0.032574747 -0.27670825 -0.034912057 -0.27253222
-0.3310871 0.10416956 -0.08881404 -0.3224475 -0.3082947 0.34413892 0.3619525 -0.3021659
-0.23702586 0.23159267 -0.147965 -0.11049535 -0.11026002 0.19596975 -0.28512487 -0.2930208
0.15140648 0.17389077 0.1790314 -0.10438862 -0.15697262 -0.17653711 -0.17770118 -0.2870617
0.12070161 -0.14024423 -0.31810296 0.04682217 0.28433228 0.00092239806 -0.26443818 0.13475883
-0.18892704 0.2535003 -0.30036008 0.32207853 -0.05670326 0.30000842 0.18847834 0.26045817
0.095509976 -0.18222688 0.025793852 0.30304897 -0.29115188 0.0892404 0.0714607 0.22981621
-0.22957689 -0.2395569 0.09543087 -0.09505205 -0.108856626 0.07580542 0.25059503 -0.24654032
-0.027587188 -0.15720859 -0.082438745 -0.1588591 0.36624858 0.1791049 0.06253522 -0.10994431
0.19211122 -0.23057999 -0.3200101 -0.21306765 -0.09394354 -0.23020953 0.22440524 -0.009930943
-0.121247135 -0.21537083 0.32328653 0.34407791 -0.19729996 0.28921354 -0.01751729 -0.12857273
0.12631574 -0.25207162 -0.30965304 -0.029980624 0.23736286 0.23965025 0.29605582 0.13163482
0.0972183 0.061299592 -0.28063813 0.30654192 0.30972654 -0.32582697 -0.3232663 -0.09739492
-0.22851041 -0.112670384 0.27612114 -0.0680799 0.3388537 -0.03248996 0.033369813 -0.0072655464
-0.10111293 -0.057461336 -0.14886536 -0.24930848 0.022814207 0.111552075 0.10955315 0.11592988
-0.13293175 -0.3149362 0.17359662 0.054202173 -0.32233468 0.3073275 -0.09047579 -0.28750288
-0.22236168 -0.07913802 -0.2630012 0.060573358 -0.16204399 -0.16978562 0.30114442 -0.094537266
0.016378835 -0.15816551 -0.04049747 -0.20563011 -0.17983313 -0.21619363 -0.11481263 0.07855803
0.16331661 0.21121097 -0.14868934 -0.30763784 -0.038550314 0.34839398 -0.057118095 0.31819564
0.2681252 0.21104744 -0.019079126 0.052296106 -0.2224499 0.049062815 0.10494611 -0.22025628
-0.25067076 -0.19670367 -0.0058032987 -0.07879211 0.107843034 -0.15276714 0.33482426 -0.1430264
0.20084232 0.3188049 0.34072956 -0.25859088 -0.27470103 -0.18785666 -0.1974352 -0.044721875
-0.050117385 0.15727885 0.34031513 0.18111052 0.028928716 -0.07852275 -0.06283546 0.27816287
-0.28611425 -0.04119445 -0.32693875 -0.12284892 -0.24906221 -0.3236837 0.11403457 -0.1726804
0.09113411 0.29308775 -0.11794537 0.16286734 -0.15359977 0.15018274 0.3816007 -0.101510994
-0.2888052 0.28418934 0.27714244 0.13955125 0.022114951 0.13783361 0.06092615 -0.001656228
-0.15061517 0.03468839 0.31665808 -0.12083728 -0.3017305 -0.21120088 0.008320173 0.13302858
0.07083016 0.35152292 0.1421195 0.11876503 -0.32971722 0.23950197 0.1881254 0.088355556
0.1577259 -0.36118308 0.32475293 0.010741028 -0.33884224 0.15786031 0.24531426 0.19523373

conv_stack.0.bias f4 [32]
00000000: 08c3 03be 2325 003d 68c5 673e 5f97 8abe
00000010: 27d9 86be aa8b 11bd 51b8 3d3c aa03 3f3e
00000020: 46a6 023e b2af 9d3e b888 d9bd 8bbc e13d
00000030: ed00 66be a076 60be dd49 33be 04bc 903e
00000040: 0fc9 63be 6ce7 0dbe e529 be3d b3f8 4cbe
00000050: 608c e83d 063e 63be 9ccb 833e b4d5 793e
00000060: 356f 153e bce7 923e 37d4 433e 9d1e db3d
00000070: ed0a 013e 37cd d73b 2f77 a5bd adaf 203d
-0.12867367 0.031285416 0.22633898 -0.27068612 -0.2633755 -0.035533585 0.011579589 0.18653741
0.12758741 0.30798107 -0.1062178 0.1102229 -0.2246129 -0.21920252 -0.17508645 0.28268445
-0.22244667 -0.13857812 0.092853345 -0.20016746 0.113548994 -0.22191629 0.2574128 0.24397928
0.14593203 0.28692424 0.19123922 0.106991984 0.12601824 0.006585743 -0.08079373 0.039230037

conv_stack.3.weight f4 [64, 32, 3, 3]
00000000: 3907 3dbd b62a 76bd be27 1bba 26f2 90bc
00000010: 6a84 94bc 2a97 1a3d 70fc 49bc 9c8f 5c3d
00000020: 8edf 13bd 5186 7abd dda5 dc3c e7d1 bf3c
00000030: 741c 823b 3a2b 953c 11e8 55bc 8b85 3bbd
00000040: c2a6 3c3d 4575 56bc c481 723d 46d8 43bc
00000050: 2f24 523d af3f a73c 8343 23bb 1ffd dcbb
00000060: 1d5e 823d 7dbe 753d 6827 0fbd 8c1d b8bc
00000070: 6186 74bc 9c1a c43c 13d1 31bd cb9f 29bd
00000080: a3f5 da3b 6f29 08bb 9a04 28bd bff4 fd3c
00000090: cc0d 953d c3b4 adbb 2700 6c3d 6f24 dc3c
000000a0: 104d e53c 4604 8bbc 477b 723d cc58 903d
000000b0: 8315 65bc 28a9 643c 9c20 1dbd 1424 b9bc
000000c0: ba63 17bd 9678 303a d73f 2abc 74b3 7fbc
000000d0: 5ad8 353d 0f3a 3b3c 905c 2bbd fe27 f3bc
000000e0: 6aec 38bd e788 a1bc 3be8 073d d41b b43c
000000f0: 82fd 41bc 91c3 0b3d 28b6 8039 baaa 483d
00000100: 426b 5bbc 0134 57bd c47d 56bc e265 7b3b
00000110: 0964 893d 5fa4 8a3c f632 abbc 0ab6 3d3d
00000120: 45f3 473d 337f dabc e9cc 8939 ff2b 6b3d
00000130: a766 703d b82a 353c 33f5 363d 426b 313d
00000140: bf8e c83b 7083 93bc 5aca 193b 7057 bb3b
00000150: a621 7a3d cfb7 003d 97d2 e4bc ceef 693d
00000160: 7d4e 93bc f72d a9bc 10a2 193d 92fe 333d
00000170: a61e 4b3d 89f8 b93b e6ce 2dbd 4225 873d
00000180: dc01 093d d18c 4a3d 43a2 873d fbe6 9e3c
00000190: 3728 403d 0cf9 fb3b 0a1b 5d3d 1bb6 6e3d
000001a0: b05c 863d 939f ba3c dcc6 e93c 46c1 56bb
000001b0: dd21 58b9 5914 94bc f63a 393d d162 babb
000001c0: 01d3 5c3d 4bbb 8b3b aaaa 4cbc 2304 62bc
000001d0: 777f 053c b5b9 03bd 9863 ee3b 2065 b8ba
000001e0: 1c62 22bd 17f2 843d 774d 5ebc 0524 6a3d
000001f0: 3f46 653d f82e 163d c3b4 223d d48f 5f3c
00000200: add1 4ebd 1646 c3bc c152 463c 1d31 9e3c
00000210: 965e c43c 2d2f e8bc 63f7 2bbd 0ddf a6bb
00000220: e09d f23c 7878 e23c 64b4 013b 7275 153d
00000230: c2c4 22bd 692a 18bd cafb b33c 8a78 4b3d
00000240: 070f c7bc 50cb 03bd 76ca bb3c 709c 2d3c
00000250: 537e 2ebd 0d33 47bd a3de 2fbd de93 2ebc
00000260: 2784 a839 e2e3 ccba a136 01bc b35f 2cbd
00000270: 118c 533d 8f8c 573d fd4a e43b fa75 be3c
00000280: 3bf5 743d 0896 22bd db16 363b c37a bbbc
00000290: 92df efbc 4db4 6d3b 74c1 97bc 4236 54bd
000002a0: b3a2 633d 5670 61bd daf8 043d e6ef 7b3c
000002b0: e422 0c3d ebed 753d 4d72 5d3d b1ee 893d
000002c0: ed99 f23c b83a 65bc e25b ec3b b785 93bc
000002d0: 523f f6bc 32d0 94ba 85ef aebc 6818 283c
000002e0: 3ee8 17bc a585 06bd d1db c93b bf09 10bd
000002f0: e60f b4bc 672c 15bd a381 353d 626e 09bd
00000300: 75a4 2ebd 2a42 d239 139c 1f3d f215 f73c
00000310: bdf2 973d 5c34 b13c ee1e 8a3c 547e 25bd
00000320: 2b78 853b aa78 f33c 9d73 49bc 96c1 87ba
00000330: 8e1f 003c f6d4 01bd ecd6 77bc c08f 58bd
00000340: 4bde 9abc 3532 9f3a 3cda 71bb c71f 64bc
00000350: fb6b 65bc 89cb cfba 7b24 353d bc5e 8aba
00000360: 7e78 0e3d 0708 ddbb f8b5 1f3d 4f48 9d3b
00000370: f741 673c 365b fdbc 8a85 1f3d 85f4 943c
00000380: 0bfa 0abd 5e32 4ebd 1a03 39bc d0a3 dbbc
00000390: 718c 63bd dc04 573b 7788 e1bc 65e5 0abd
000003a0: 5343 813d 3bca 2b3d 076b 663d da8c 413d
000003b0: a7b7 1ebd fd0b 6f3d 4554 c73c e9a2 213d
000003c0: e750 25bd 70ca 643c 0eb1 683d 5ee8 5bbb
000003d0: d0c6 b13c ec1b f8bc d506 103d 9f87 82bc
000003e0: dbd5 1c3d 1b9b 10bd 8b64 7b3c 83b7 a73d
000003f0: 5bf2 dabc 6a88 03bd bd88 0b3d 2c5a 12bd
-0.046149466 -0.060099326 -0.0005918703 -0.01769359 -0.018129546 0.037741818 -0.012328252 0.053847894
-0.03610187 -0.06116325 0.026934559 0.023415519 0.003970677 0.018209089 -0.013055817 -0.045781653
0.04605747 -0.013089483 0.059205785 -0.011953419 0.05130404 0.020416109 -0.0024912066 -0.0067440416
0.06365607 0.059996117 -0.03494969 -0.022475027 -0.014924617 0.02393847 -0.04341228 -0.041412156
0.006682114 -0.002077665 -0.041020013 0.031000493 0.07278022 -0.0053010895 0.057617333 0.026872842
0.027990848 -0.016969811 0.059199598 0.07048187 -0.01398218 0.013956346 -0.038361177 -0.022600211
-0.03696034 0.0006731836 -0.010391197 -0.01560675 0.044395782 0.0114274165 -0.04183632 -0.029682156
-0.045147337 -0.0197186 0.033180457 0.021985926 -0.011840226 0.034122054 0.0002454978 0.048990943
-0.0133922715 -0.05253983 -0.013091508 0.0038360287 0.06708533 0.016924081 -0.020898324 0.046316184
0.048815984 -0.026671981 0.00026283346 0.057415005 0.058691647 0.011057548 0.044667434 0.04331518
0.0061205323 -0.01800701 0.0023466558 0.0057172105 0.061067246 0.031425294 -0.027932448 0.05711346
-0.017981762 -0.0206518 0.03750807 0.04394395 0.049589776 0.0056753797 -0.04243364 0.06598903
0.03344904 0.0494507 0.06622746 0.01939725 0.046913352 0.007689601 0.053980865 0.058279138
0.065606475 0.022781169 0.028537206 -0.0032769009 -0.0002061198 -0.018076109 0.045222245 -0.0056880494
0.053912167 0.0042642704 -0.012491861 -0.013794932 0.008148066 -0.032159526 0.007275056 -0.0014068224
-0.039644346 0.064914875 -0.013568274 0.057163257 0.055975195 0.036665887 0.03972317 0.013645131
-0.05049293 -0.02383713 0.012104691 0.019310528 0.023970883 -0.028342808 -0.041983973 -0.0050925077
0.029616296 0.027645335 0.001979136 0.036488958 -0.039738424 -0.03714982 0.021970648 0.049675502
-0.024299158 -0.032176316 0.02292369 0.01059638 -0.04260094 -0.04863267 -0.042936932 -0.0106553715
0.00032141918 -0.0015631879 -0.00788656 -0.042083453 0.05164725 0.05262428 0.006966947 0.023249615
0.059804182 -0.039693862 0.002778462 -0.022885686 -0.029281411 0.0036270798 -0.018524863 -0.051809557
0.055575084 -0.055038773 0.032463886 0.01537702 0.03421296 0.06004135 0.054064084 0.0673498
0.029614413 -0.01399105 0.0072131017 -0.018008096 -0.03005949 -0.0011353551 -0.021354446 0.010259725
-0.009271679 -0.032842297 0.0061602374 -0.035165545 -0.021980237 -0.0364193 0.044313084 -0.033552535
-0.042637307 0.00040103617 0.038967203 0.030161832 0.074193455 0.021631412 0.016860452 -0.04040368
0.004073163 0.029720623 -0.012295631 -0.0010357376 0.007820023 -0.031697236 -0.015126925 -0.052871466
-0.018904826 0.00121457 -0.003690376 -0.013923592 -0.014002795 -0.0015853505 0.044224244 -0.0010556797
0.03478288 -0.0067453417 0.0389919 0.0047998796 0.014114848 -0.030927282 0.038945712 0.018183002
-0.033929866 -0.050341003 -0.011292243 -0.02681151 -0.055553857 0.0032809293 -0.027530892 -0.033910174
0.06311669 0.04194091 0.056254413 0.047253467 -0.038749363 0.058361042 0.024332175 0.039462004
-0.040360358 0.0139642805 0.056809478 -0.003355525 0.021701247 -0.030286752 0.035162766 -0.01593381
0.038289886 -0.03530417 0.0153437955 0.08189299 -0.026726892 -0.032112516 0.03406595 -0.035730526

conv_stack.3.bias f4 [64]
00000000: 2cf2 183d 13f8 a93c 986a 7abc 7468 9ebc
00000010: 081b 45bc efc0 3e3d 85f3 f73c b799 7bbd
00000020: e85d a83c 5741 38bc b759 c9bb be6a 453d
00000030: 36eb 393d 548d 6dbc b2a9 48bd 2f24 1a3d
00000040: df36 163d 7ed1 87bb 2819 3fbd 0fb6 35bd
00000050: 5e8c 66bb 8aa8 133d 5364 443d 35d4 68bd
00000060: e8b9 56bb 907d 093d f04b 77bc c4e3 dfbb
00000070: 30e8 78bd c334 483b ba5a 263c a3ac 083d
00000080: 8118 d2bc d738 273d cba9 72bc 19a1 3bbd
00000090: 66c9 c4ba 8dfd 483d 059b 1f3d 3760 2fbd
000000a0: 1415 5cbd 2d75 e4bc dcfd 20bd 414e cf3c
000000b0: 1ede f23c e146 fe3c f140 643d 5927 92bb
000000c0: 48a4 5abd e392 643d beb8 ccbc 8584 7a3d
000000d0: 67fe ae3b b7bf 133d db89 ef3c b75e 953c
000000e0: 670a 71bb 08c8 1c3d 34a6 c83c 9587 efbc
000000f0: 91fa 91bc db5c 5ebc 596d 323d 55d3 de3c
0.037340328 0.020748174 -0.015284203 -0.019336917 -0.0120303705 0.046570715 0.030267486 -0.06142589
0.02055259 -0.011246047 -0.006144728 0.0481975 0.04539033 -0.014499027 -0.04898996 0.037632164
0.036673423 -0.0041448465 -0.04665485 -0.044363078 -0.003517888 0.036049403 0.04794724 -0.056843
-0.0032764617 0.03356701 -0.0150937885 -0.0068325717 -0.060768306 0.0030549027 0.010153467 0.033367764
-0.02564645 0.04082569 -0.01481099 -0.04580793 -0.0015013635 0.04906993 0.038966198 -0.042816367
-0.05373104 -0.027887905 -0.0393046 0.025305869 0.02964693 0.031039657 0.055725995 -0.004460257
-0.053379327 0.055804145 -0.024990436 0.061161537 0.0053403857 0.036071505 0.02924054 0.01823364
-0.0036779882 0.038276702 0.024493314 -0.029239455 -0.017819675 -0.013571943 0.043561313 0.02720038

pre_quantum_fc.weight f4 [4, 1600]
00000000: bfd3 9b3c 910d cd3c 79fe 283d 7247 163a
00000010: 2ecd b9ba 40f7 f53c 7f8d c3bb 9a73 293b
00000020: 26c9 ae3c 8b18 be3a ee94 21bd 1c36 6ebc
00000030: 2cd1 7a3c 59c2 3dbc 44b2 ae3c 8a52 85bc
00000040: 3328 ce3b 4103 563c ae16 a63b ee9c 063d
00000050: aa51 a23c 1928 fd3c ce19 bdba 6629 003d
00000060: 6c87 7b3c e1cf 793c 1cf3 87bb 922c a3bb
00000070: 389e adba d891 fb3c 483d 673c 2ff7 d53a
00000080: 9eec 8e3c d48a b93c 0f61 ad3c 196e f03b
00000090: 1f76 22bc 1220 59bc 337a f53a 1e3e 043d
000000a0: 7341 d03c 7740 c73c ab1d 843a 244c 0f3c
000000b0: ea6d 073d 7be4 86bb c066 8e3c e381 7b3b
000000c0: 7c84 db3c 175b ac3b 7c15 043d 0c77 b43c
000000d0: cf26 bf3b 7fc4 a6bb 42e1 6a3b fce3 1539
000000e0: 2b6d 993c 4b23 b93c 7534 ed3c 216b ea3c
000000f0: bfbd aa3b 1af5 0c3c 5ee8 113b bd20 f7bb
00000100: 5a49 3bbc ca3e 833c 9d6b abbc 3957 0e3b
00000110: 63e0 c13c 3935 0b3c e5f6 133c 2aaa f0bb
00000120: 7e6d caba 256c c53c b378 ed3b bdb4 223c
00000130: e6d8 073d 7743 5ebb 8ccb 05bd 462b f6bc
00000140: 95f9 29bd ee93 eebc db03 2c3b 5617 8cbc
00000150: 9dd9 8c3c d978 06bd 5da3 29bd 7f34 8fbc
00000160: 04bb 79bd e41e 7abc 6b58 cf3c 7594 ec3c
00000170: 222a 593d af9c c0bc ef9e cebb edc4 843d
00000180: b9c6 843d 4b97 46bc 5731 04bd f710 0cbc
00000190: 21ed 4d3a 4913 4e3c 8ddc 36bc 5b66 e03c
000001a0: 9511 7b3c 93cb 11bc 8c54 eab9 0ebc f03c
000001b0: 8179 b63c edb4 dabb 84e4 a9bb 2f7f b8bb
000001c0: 6ac4 a93b 62a5 d73c 1f71 fb3c 3b44 c53c
000001d0: c735 63bb b812 4cbc 1c42 e53c 195b 943c
000001e0: cdf2 47bc 1a8f 05ba d55d 843c 56cb 093d
000001f0: bb1f 9dbb fa11 bcbb 9a99 a736 9e73 cabb
00000200: f687 bcbb 4a0a a73c dbbb a6bc 42e7 94bc
00000210: 6736 1c3b e2c2 5b38 a85e 99bc 1a1e 203b
00000220: 1827 a3bc 1dff 7d3c 5dcb b3bc 3079 58bc
00000230: 078b 83bb 7397 4cbb ea0d 373c 9345 8abc
00000240: 67a8 603c c241 88bc 5f02 a43c 8086 a23b
00000250: 5a56 853b e71b 8b3c 9062 ae3b 2710 cb3c
00000260: 2749 093d 3dda da3c bcf8 9dba 80e4 623c
00000270: 8297 51bc 7065 8c3c f9b9 97bc 7b38 2e3a
00000280: 8a26 de3c 3aa5 d23c db68 d63c e62a 9dbc
00000290: f010 4b3c e157 aabb 4ca3 c43c fdfc 50bc
000002a0: aa12 35bc 5191 f1ba a817 963c 141d 24bc
000002b0: 3b95 c83c 08af 023d fcbb 9a3c 1c69 41bc
000002c0: 4e41 493c b53a 4f3c baa6 4abc 268e 40bc
000002d0: 957b 82bc 2d7e 38bc 6c2b 98bc 88e0 a53c
000002e0: 8891 06bc c04e 333b 2633 67bc f490 f3ba
000002f0: 3ad8 b73b 083f 923c 9a86 9bba 518c 22bc
00000300: ab69 193c f8b5 8cbb 587a 8fbc 9ad2 a63c
00000310: 3284 383c fbc6 853c b723 f33c 8d32 cc3b
00000320: b0e2 773c 9244 eb3b c5d7 9039 7542 7fbc
00000330: 6825 033c 0074 2ebc 72e8 873c 4d4f 9d3c
00000340: 5fdd 40bc deba 19bc edcc 113c aa7d 07bc
00000350: 9b47 0f3c 0aac f83c a2cb 6cbc 3734 0fbc
00000360: c28d 84bc 2a25 a73a 94e4 8e3c b794 a1b9
00000370: ed34 c3bb 09c9 683b 8924 71bb 72df 5abb
00000380: e81b cb3c 005a 70bc 6f68 8b3c 3eee 0a3d
00000390: 56b7 d63c b8a5 5ebc 5dab c23b dbf4 3bbc
000003a0: 8f67 9a3c 5fb5 98bc 87c8 4bbb 7294 753c
000003b0: 4f7e efbc 4d2d df3c 87d5 5cbb 8874 fdba
000003c0: 5fd6 393c 4a1c 7ebc 827a 313c b892 873c
000003d0: 7e4f 9d3c ca6a 9c3b 3d6b 853c d245 fa3c
000003e0: 20f5 273b aa12 513c b31e 20bc 5e41 e0ba
000003f0: d0bd a43b 1d12 213c 6f37 5dbc dde2 cc3c
0.019021867 0.025030883 0.04125831 0.0005732692 -0.0014175528 0.030025125 -0.0059677954 0.0025856257
0.02133615 0.0014503164 -0.03944867 -0.014539268 0.0153086595 -0.011581981 0.021325238 -0.01627471
0.006291413 0.013062299 0.0050686216 0.032864504 0.019814331 0.03090291 -0.0014427246 0.03128948
0.015352111 0.015247316 -0.004148854 -0.0049796784 -0.0013246005 0.030709192 0.014113732 0.0016324277
0.017446812 0.022649206 0.021164445 0.0073373434 -0.009915858 -0.013252275 0.0018728435 0.032285802
0.025421834 0.024322731 0.0010079643 0.008746181 0.033063807 -0.0041165925 0.01738298 0.003837698
0.026796572 0.005259882 0.03224705 0.022029422 0.0058334838 -0.005089342 0.003583983 0.00014294678
0.018728813 0.022599837 0.028955678 0.028615536 0.005210608 0.008603359 0.0022263746 -0.0075417445
-0.011431063 0.016021151 -0.020925337 0.002171947 0.023666566 0.008496576 0.009031032 -0.007344504
-0.0015444008 0.024099419 0.0072470545 0.009930787 0.033165835 -0.0033914724 -0.03266482 -0.030049931
-0.041497786 -0.029123273 0.0026247415 -0.017100971 0.01719361 -0.032830093 -0.04141556 -0.017481087
-0.060969368 -0.015266154 0.025310716 0.028879384 0.053018697 -0.023512213 -0.0063055675 0.06482873
0.06483216 -0.012121032 -0.032273617 -0.008548967 0.00078554644 0.01257784 -0.011160982 0.027392557
0.015324016 -0.0088986335 -0.0004469495 0.029386546 0.022274734 -0.0066744 -0.005184712 -0.005630396
0.005180885 0.026323978 0.030693589 0.024080386 -0.0034669505 -0.012455635 0.027985625 0.018109845
-0.012203884 -0.0005094871 0.016158024 0.033641182 -0.0047950423 -0.0057394477 4.9948694e-06 -0.0061783334
-0.0057535125 0.020390648 -0.020353248 -0.018176679 0.0023836137 5.2395168e-05 -0.018721893 0.0024432004
-0.019916102 0.015502718 -0.021947557 -0.013212487 -0.004014376 -0.00312182 0.011172751 -0.016878879
0.013712025 -0.016632918 0.020020662 0.0049598813 0.004069132 0.016981078 0.005321808 0.024787975
0.03351703 0.026715392 -0.0012052278 0.013848424 -0.01279247 0.017138213 -0.018521296 0.00066459895
0.027117986 0.025713552 0.026173046 -0.019185495 0.012394175 -0.0051984643 0.024003647 -0.01275563
-0.011051813 -0.0018430148 0.018321827 -0.010016698 0.024485221 0.031905204 0.018888466 -0.011804845
0.012283636 0.012648274 -0.012368852 -0.011752641 -0.01592807 -0.011260551 -0.018575393 0.020248666
-0.008213408 0.002736017 -0.014111316 -0.0018582628 0.005610493 0.017852321 -0.0011865676 -0.009921149
0.009363572 -0.0042941533 -0.017514393 0.020364095 0.011261987 0.016330233 0.029680116 0.006231612
0.01512973 0.007179805 0.0002762658 -0.015579809 0.008004524 -0.010647774 0.01659033 0.019202853
-0.011771529 -0.0093829315 0.008898956 -0.008269707 0.008745099 0.030355472 -0.014452847 -0.008740476
-0.016180877 0.0012752165 0.017442979 -0.00030819114 -0.005957237 0.0035520217 -0.0036795458 -0.0033397344
0.02479358 -0.014669895 0.017017571 0.03391861 0.026210468 -0.013589315 0.0059408383 -0.011471952
0.018848209 -0.018641172 -0.0031094865 0.014989005 -0.029235033 0.02724328 -0.0033696608 -0.0019337097
0.011342614 -0.015509674 0.010832431 0.016549453 0.019202944 0.0047734724 0.016286487 0.030550871
0.0025628284 0.0127607975 -0.009772944 -0.0017109325 0.00502751 0.009830979 -0.013501986 0.02501052

pre_quantum_fc.bias f4 [4]
00000000: 6f33 b13c e3fc bc3c dafb e4bc 8359 7bbb
0.02163097 0.023069805 -0.027952123 -0.0038352914

post_quantum_fc.weight f4 [10, 1]
00000000: f4b5 b6be a46b 0c3f 8275 bd3e da38 103f
00000010: 943c 753f afc6 5a3f fb50 04bf d7f7 3e3f
00000020: 7688 88be 27cf 693f
-0.35685694 0.54851747 0.37003714 0.5633675 0.9579556 0.8545942 -0.51686066 0.74596924
-0.2666661 0.91331714

post_quantum_fc.bias f4 [10]
00000000: 80c8 33bf 92b0 fdba c8c6 07bf cbcc 5fbf
00000010: c2ad 62bf a3df 15bf ae82 8ebe c5b3 0e3f
00000020: e40b 69bf 6393 ce3e
-0.70227814 -0.001935499 -0.5303769 -0.87421864 -0.88546383 -0.5854437 -0.27834076 0.55743057
-0.9103377 0.40346822
